crowd_nav/data/output/il_model.pth (torch, 415203 bytes, 20 tensors)

mlp1.0.weight f4 [200, 13]
00000000: 03cc 183e 1e6d e43d 8c69 b8bd 07cd 643e
00000010: 9eb7 bcbd 4052 f8bc f823 adbd 0623 90bd
00000020: 0928 18be 6958 e0bd df8e 3abe e5bc d3bd
00000030: c1cb 0a3e 8fab 54be 2806 82be 3017 a7bd
00000040: 76db 873e e31b 6dbd c47a b13d d899 65bd
00000050: 2985 983c 9c73 3ebe cd92 f03d ceb8 63be
00000060: dbff 663e 3340 40bd 5d81 5a3d 967a 573e
00000070: 9c60 2ebb 6a6b 663e c620 103e 8230 923e
00000080: 510f 92bd 4594 8abe 047c 543e fb37 913d
00000090: ae8f a73c 5a6d a2bd bfb6 82be 0f24 84bd
000000a0: b566 373e 1fdc 65be e8bf dd3d 6266 5b3d
000000b0: 74dc 2ebe ab68 5bbe c649 273e d7c8 173e
000000c0: 670a 8f3d a711 7a3e 6d0c 55be 2a56 dbbd
000000d0: 1b7a 913d 28c5 d73c a294 363e 12d9 1a3e
000000e0: 839a c33d b9f9 0abd adae c63c fc3b f33d
000000f0: 0c31 f6bd a460 f5bd e042 843e b882 a0bd
00000100: 447d a0bd bb71 503e 7837 3fbd 9386 2f3e
00000110: dbbf 4d3e fe51 903d cc6f 23be 66b3 2dbc
00000120: a5aa d63d 9246 f23d e7fe 35bd 7670 7a3e
00000130: 9e0c 4c3e 4b6d 8b3e 375e 093d 5210 573d
00000140: 73c1 613e 7c5c 33bd f406 1abe b216 1e3e
00000150: f53b 5abc df8d acbc 7cfb 1c3e 5461 59be
00000160: fd9b db3d 9bc5 e7bc 4282 22be 7fbe 743d
00000170: 5bbb 2bbc a687 963c adf7 e9bd 6ca6 d9bd
00000180: 6f1f 40bd f917 bf3d 603e 76be 38b5 693c
00000190: 0f57 5abe bc89 0b3d 92e9 0bbe 59f8 17bc
000001a0: d849 e3bd 1a2b 5abe 13d0 6e3d 7bd4 a83d
000001b0: 9fcf 4d3d f0d1 50be 603c 5abe aefc 36bd
000001c0: 8fc7 efbb e825 433e 3e90 833e 6f2f 13be
000001d0: d122 9d3d 7c46 82be 91d1 673e 00bf 363c
000001e0: 83c9 dcbd 9456 95bc e0b9 8cbe 5cea 863d
000001f0: 0cc0 333e ada0 17bd 0c14 3cbe f6eb 963b
00000200: baac 533e 1dab 7cbe 8473 7e3e b720 e4bd
00000210: 1adb 4abe cdd4 5e3d 9555 e83d 58bd 353d
00000220: f31d 873e ace2 bb3d afb9 293e 33af 15be
00000230: 7d64 8fbd a448 cbbd 4b06 a13d 5620 733e
00000240: bf67 82bd 7beb 653e a81d 4b3e 8295 60bd
00000250: cc43 dbbd eab6 813e 0fc7 07be f9e0 bf3d
00000260: aa18 c43d 5e24 88bd 109f e03d 0de9 43bc
00000270: 314d d1bb 7756 603e e3e2 ea3d c6b3 e3bd
00000280: 7466 12be 1bcb 063e 3355 e83c 5f36 5cbd
00000290: e502 953d e4f4 8bbe 1515 343e ec03 3bbd
000002a0: a1f8 2cbe 1a44 01bc 343d 3fbe ea0e 163e
000002b0: 74c3 d0bd 2a6d 4d3e 6602 a7bd b1da 85be
000002c0: ebde 8b3d bbad 80be 3a70 8a3d 770e babc
000002d0: f0c8 0a3e 0a18 4a3e 8bdb 433e bb8e 343c
000002e0: a450 493b 6a60 ab3d fe26 7d3d 88ee 3abd
000002f0: ed7d bbbd 2d5d 91be 1ecb 7b3e 7583 6b3e
00000300: a131 2f3e 4737 f73d e299 433e d9f2 2e3e
00000310: da78 5d3e 0eec dfbd 5946 4f3d f77c bc3b
00000320: 4bc6 eabd 249e 353e 09ad d3bd 65b3 833e
00000330: 3fb8 78be 9f1d 2ebd 6eca 523e 9454 5c3e
00000340: a5ab cebd 67e8 2cbc 305a 60be 3fa8 843e
00000350: fd07 d63b ca68 f2bd 0ba3 7dbc 27fe 3dbe
00000360: 1a0e 213d de27 17be eedb 3fbe ca3a efbd
00000370: 27f7 71be 48e0 8cbb 8c53 70be 149b 0dbd
00000380: b396 d1bd b59b 18bc dd6f 483e f5a3 ccbb
00000390: 675a 69be 35b3 abbb a8be 0dbc e89e 21bd
000003a0: d728 1b3e 928e 6bbe 0a22 86bd 9711 e5bd
000003b0: 9f77 7cbd 2732 5f3e ac30 bf3d 55a1 9a3d
000003c0: 2d3c 343d d778 193e 2bd9 c23b d0bc a33e
000003d0: f48a 12be 6b82 343e c7f0 c33b 266a ca3a
000003e0: 4269 00be 4d1b d83b c4fe 433d bd5c cebc
000003f0: 52f0 613e 895c 4cbe 8b22 29bd cd3e b7bd
0.14921574 0.11153625 -0.090045065 0.22343837 -0.0921471 -0.030312657 -0.08454126 -0.0703793
-0.14859022 -0.10954363 -0.18218563 -0.10338763 0.13554288 -0.2076857 -0.25395322 -0.081587195
0.26534623 -0.057887923 0.08665994 -0.05605492 0.018618183 -0.18598789 0.1174675 -0.22238466
0.22558539 -0.046936225 0.053346027 0.21042857 -0.0026607877 0.22501913 0.14075002 0.28552634
-0.071318276 -0.27066246 0.20750433 0.070907556 0.020454254 -0.079310134 -0.2553005 -0.0645219
0.17910273 -0.22447251 0.10827619 0.053564437 -0.17076284 -0.21426646 0.16336736 0.14822708
0.06984406 0.24420796 -0.20805521 -0.10709794 0.07103368 0.026339129 0.17830136 0.15121868
0.09550955 -0.03392956 0.024253214 0.118766755 -0.12021074 -0.11981323 0.25832272 -0.078374326
-0.078363925 0.20355885 -0.04668376 0.1714118 0.20092718 0.07046889 -0.15960616 -0.010601854
0.104817666 0.118298665 -0.044432547 0.24456963 0.19926688 0.2723182 0.033537116 0.0525058
0.22046451 -0.04378937 -0.15041715 0.15438345 -0.013319959 -0.021063743 0.15330309 -0.21228534
0.10723112 -0.028292468 -0.15870002 0.059751984 -0.010481681 0.01837523 -0.114241935 -0.106274456
-0.046904977 0.09330744 -0.24047232 0.014264397 -0.21322273 0.0340669 -0.13663319 -0.009275519
-0.11098069 -0.21305504 0.058303904 0.082436524 0.05024683 -0.20392585 -0.21312094 -0.044674568
-0.0073174904 0.19057429 0.25695986 -0.14373563 0.07672656 -0.254444 0.22638537 0.011153936
-0.10780623 -0.01822976 -0.2748556 0.06587669 0.17553729 -0.037018467 -0.18367022 0.0046057655
0.20671359 -0.2467465 0.24848753 -0.11139052 -0.19810143 0.05440216 0.113444485 0.044370025
0.26390037 0.091740936 0.16574739 -0.14617614 -0.070015885 -0.099259645 0.078625284 0.23742804
-0.06367444 0.2245311 0.19835532 -0.05483008 -0.107062906 0.25334865 -0.13259529 0.09369082
0.09575017 -0.066475615 0.10967839 -0.011957419 -0.0063873758 0.21907984 0.114690565 -0.111182734
-0.14296895 0.13163416 0.028360939 -0.05376279 0.07275943 -0.27335274 0.17586167 -0.045658037
-0.1689172 -0.007889772 -0.18675691 0.14654127 -0.1019353 0.20061174 -0.08154754 -0.2614341
0.068296276 -0.25132546 0.06759687 -0.022711975 0.13553214 0.19735733 0.19126718 0.011020358
0.0030718232 0.08367999 0.061804764 -0.045637637 -0.09154878 -0.283914 0.24589202 0.22999366
0.17108776 0.1207109 0.1910167 0.17084827 0.21628132 -0.10933696 0.050604198 0.0057522017
-0.11463603 0.17736107 -0.10335738 0.25722805 -0.24289034 -0.042508718 0.20585033 0.21516639
-0.10091332 -0.010553456 -0.21909404 0.25909612 0.006531714 -0.11836393 -0.015480767 -0.18553983
0.03932009 -0.14761302 -0.1873624 -0.11681135 -0.23629437 -0.0042991973 -0.2346937 -0.034571722
-0.10233822 -0.009314467 0.19573922 -0.006245131 -0.22788392 -0.005239869 -0.008651413 -0.039458185
0.15152298 -0.23003605 -0.06549461 -0.111849956 -0.061637517 0.21796475 0.09335455 0.07550303
0.0440027 0.14987503 0.0059462986 0.3197999 -0.14310819 0.17627876 0.0059796306 0.0015443012
-0.12540153 0.0065950514 0.047850385 -0.025190705 0.22064331 -0.19957174 -0.04129271 -0.08947525

mlp1.0.bias f4 [200]
00000000: 098f 0e3e 171f 263e 9d4e 063e f3bd 493e
00000010: 3530 163e 27bf 893e ca9a 65be ef42 ecbd
00000020: 8370 7fbd ea78 d4bc a33c 56bd cdcc 5ebe
00000030: 6490 4e3c d20a 8bbe d69e d0bd 7d04 483e
00000040: 853a 7cbe 8d93 b1bd e908 5a3e 32a0 7f3c
00000050: 3ebf 883d 8e06 363d 7b4f 41bd 61e8 7d3e
00000060: 4420 46be 6a65 183e e051 89be c61c 55bd
00000070: 336d 4fbe f1e4 0e3e 7539 b13c 7dea 5a3e
00000080: e1f5 f4bd 912c 7a3e c041 9dbd 2499 9cbd
00000090: 225e 263e dfd0 84be 183e 353e c9dc 42bd
000000a0: c1a9 833e 9dfc efbd 19be 893d 86fe 333b
000000b0: 368c 1dbe 1f65 2dbe 0fc4 143e d031 99bd
000000c0: dee5 26be 0791 2abe 4ef1 d2bd 3053 043d
000000d0: 2c40 e73c 63f3 283e ac8c 7cbe e8ec ad3d
000000e0: ad5d 36be 0aba 94bd 3c15 173e 287e f0bd
000000f0: 31d5 4c3d d9f9 8dbe 0d8c 4cbe 42ec f33d
00000100: b20c 863e 98e9 f8bd d484 6b3d 80d1 793e
00000110: 86d1 8cbe 1675 8a3d c574 8f3e c66e 6abd
00000120: 3111 8e3c eff1 693e 988b 503c 6301 10be
00000130: 63ff 84be 0d70 22bd ce17 fabd 8adf 4d3d
00000140: b7d1 18bd 7b14 343e 36e5 aa3d 9f04 adbd
00000150: c634 813d a510 1c3e 0d20 343d 3354 85bc
00000160: 8ca8 28be 1a33 11be 2861 8a3e 1061 2e3e
00000170: 0f76 043e 7962 b83d 3a7d c1bd 1851 21be
00000180: b74c 463e 68c8 7fbe 5afe 2cbe c4cd 48be
00000190: 4337 383c 3f64 5d3e 3130 04be 027d 843e
000001a0: 94b9 46be 3e13 02be 5152 d0bd 99a8 45be
000001b0: a8cf 303e 5ec7 023e 4275 6a3b 0702 823e
000001c0: 1c13 8d3d 5ea6 713e 0788 083e c294 06bd
000001d0: 8df5 81be d334 0cbe 6506 5abe 3ba4 c53d
000001e0: 49e2 21bc ef09 01be e7bc d9bd e955 663e
000001f0: 6dba 4ebe 5c3d 923d feea 653a 8903 4a3e
00000200: 9785 833e 3bf8 82bb e0e3 25be a5d6 16be
00000210: 917b 693e b440 543d 9938 183e 7aa5 093c
00000220: 28f5 6c3e c55b b5bd 473c 11be e16f 683e
00000230: d7e6 703d 218f 32be b44c 7abe 843d 1bbe
00000240: 633c 483e 4c4f efbd 3eff 543e 2718 323e
00000250: 3ba6 2dbd 9071 5dbd eb67 af3d 2997 29be
00000260: 8a10 293e 9faf d0ba ad71 e2bd c53b 8abe
00000270: 778e 323e 841c 83be ff05 4e3e 7571 f03d
00000280: 3d1f 2cbe 1989 0bbe d374 64bd d9ad 8f3c
00000290: da60 1f3e a9ed e6bd 9da8 2ebe a26c 073e
000002a0: cca0 2c3e f0c1 8cbd dff3 a63d 3587 9dbd
000002b0: 2701 08be a2d6 08be 269e 093e d161 47be
000002c0: cbe7 d63d 5205 1dbe f471 3ebe a094 8b3e
000002d0: 0bed 983d 6782 23be 592b c23d a6ff 2fbe
000002e0: 3021 2cbe 986c 5f3e 12bc 003e 2ec8 63be
000002f0: 9ed7 2e3e 5e82 8dbc 5d8a bb3d f32f d33d
00000300: d304 fbbd 5674 20be 6b7c 5abd 720e 283e
00000310: 5fea 94bd 729e 8dbe 922c 56be f13b 193e
0.13921751 0.16222797 0.13115926 0.19701366 0.14666827 0.2690365 -0.22422329 -0.11536204
-0.06236316 -0.025936563 -0.05230392 -0.21757813 0.012607668 -0.27156693 -0.101865456 0.19532962
-0.24631698 -0.08670721 0.21292461 0.015602158 0.066771016 0.044439845 -0.04719494 0.24795677
-0.19348246 0.14882436 -0.26820278 -0.052029394 -0.202565 0.13954522 0.021633843 0.21378513
-0.1196096 0.24431063 -0.076785564 -0.07646397 0.16246846 -0.25940606 0.17699468 -0.04757384
0.2571545 -0.11718104 0.067257114 0.002746494 -0.15385517 -0.16933106 0.14527915 -0.07480204
-0.16298625 -0.16656886 -0.102999315 0.032305896 0.028228842 0.16499095 -0.24663037 0.08492452
-0.17809172 -0.07262047 0.14754194 -0.117428124 0.050008003 -0.2772968 -0.199753 0.11910297
0.2618156 -0.121539295 0.05749972 0.24396324 -0.27503604 0.067606136 0.28018776 -0.057234548
0.017342182 0.22846197 0.012728594 -0.14063029 -0.25976095 -0.03965764 -0.12211572 0.05026201
-0.037309375 0.17585938 0.083445 -0.08448147 0.06308894 0.15240724 0.04397588 -0.0162755
-0.16470546 -0.1417965 0.2702725 0.17029214 0.12935661 0.09003157 -0.09447713 -0.15753591
0.19365202 -0.24978793 -0.16893902 -0.19609743 0.011243644 0.21620272 -0.12909009 0.25876623
-0.1940673 -0.12702653 -0.101719506 -0.19302596 0.17266715 0.12771365 0.0035775458 0.25392172
0.068884104 0.2359862 0.1333314 -0.03285671 -0.25382653 -0.13692026 -0.21291502 0.09650465
-0.009880611 -0.12601446 -0.106317334 0.2249371 -0.20188303 0.071406096 0.00087706733 0.19727911
0.25687858 -0.0039968765 -0.16200209 -0.14730318 0.22801043 0.05181952 0.1486534 0.008401269
0.23140395 -0.08855394 -0.1418315 0.22698928 0.058813896 -0.17437412 -0.24443322 -0.15160185
0.19554286 -0.116850466 0.20800492 0.17392026 -0.042394858 -0.05406338 0.08564743 -0.1656157
0.16510215 -0.001592148 -0.11056838 -0.26998726 0.17437159 -0.25607693 0.20119475 0.1174039
-0.16808791 -0.13626517 -0.055775475 0.017538952 0.1556429 -0.11275799 -0.17056508 0.13225034
0.16858214 -0.06872928 0.081519835 -0.07691804 -0.1328169 -0.13363126 0.13439235 -0.19470908
0.1049343 -0.15334061 -0.18598157 0.2726183 0.07467087 -0.15967713 0.09480924 -0.17187366
-0.16809535 0.21818769 0.12571743 -0.22244331 0.17074439 -0.017274078 0.0915725 0.1031188
-0.122567795 -0.15669379 -0.05334131 0.1641176 -0.07271265 -0.27659947 -0.2091544 0.14964272

mlp1.2.weight f4 [100, 200]
00000000: 60f9 b5bc 9063 023d c641 d33c 9016 43bd
00000010: 135e ff3a 9fca 103d ed86 06bd 327d 12bd
00000020: f7e2 c13c 0726 4e3d dcae 843d fb4e 09bd
00000030: acc8 34bc 4588 81bd 7402 28bc 108c be3c
00000040: 42bd 873d 9d98 353c 56f9 4e3d 6838 333d
00000050: bc32 8bbd a515 ee3a dfff 6ebd 25b0 80bd
00000060: 4ba7 4ebc 0f4b b3bc b843 c8bb 7e08 23bd
00000070: 8e39 d3bc 08a1 ebbc 310e 21bc c5f6 febc
00000080: 356f 5abd d076 a5bc 39ee 75bd eca1 63bd
00000090: 5c02 053d 8477 67bd 314e 0fbd 3e6d 80bd
000000a0: 5020 333c a876 843c e388 e03c 9620 db3c
000000b0: 8703 d9bc 2142 30bd 24a4 dd3c 4826 543c
000000c0: f16f 87bd 1019 adbb 2f17 22bd c1dd 823d
000000d0: 69d0 7f3d 183f 0cbd da7e 153d d59a 81bd
000000e0: 5899 403d 3d08 86bd 16ea b1bb 448f 8bbd
000000f0: 2a57 34bd 28e1 ee3c 4392 25bd 34db e2bc
00000100: c425 863d f4ee 27bd 691b c63c 6375 d9bc
00000110: a961 07bd 3213 6ebc 43ae bb3c 90f6 f63b
00000120: 48b7 f4bc 4be5 843d df36 7fbd 4927 86bd
00000130: 900e aabc 2eb8 133d 8bb1 483d 3ef3 613d
00000140: a697 693d 0123 f73c 8e36 80bb 01b3 5b3d
00000150: 7e7e 3b3c 3750 c03c cbb8 c2bb 4afa 12bb
00000160: 93bb 1fbd d1c3 42bd 2a3f 843d 8468 f8bc
00000170: 30b1 653d bba6 ba3c 28f2 8ebd 2da9 84bd
00000180: 7334 94bc 507b 1c3d 3ca9 eabc 2c09 063d
00000190: 5254 fb3c 0212 1cbd 571d 343b cdb7 1e3d
000001a0: 24d8 e3bc 59b9 3bbc 768a 2d3d a156 8bbc
000001b0: 0aa2 ae3c 7d67 59ba a829 5d3d caa4 ea3b
000001c0: 251e 4f3d cdd4 883d 9181 913d f83a ebbc
000001d0: e666 c73c 3317 c13b 0a36 edbc 91b2 96bc
000001e0: dde8 07bc d91a 0abd d7f9 353d d3a0 1abd
000001f0: 9536 853d 651d 7b3d 3d49 183c ea9d 523c
00000200: 7bb3 743d 5d03 793c 60be b9bb 8276 4d3d
00000210: 6a86 febc c0d7 2dbb f17f 4dbd 3772 d23b
00000220: 85f9 c8bb 778b 113d cc62 0f3d b3a1 85bd
00000230: 2d33 88bd 4dc5 873d d4f7 e13c 9d89 50bd
00000240: d8cb 69bc c116 403c 1717 e9bc 63b5 27bd
00000250: b467 21bd 7baa 85bd cc8d 7fbc 4b77 08bd
00000260: 83ae 10bc ad20 3dbd 8b62 4bbd 589e 60bd
00000270: b418 113d f200 e93c 006b 333c ae0b 6bbd
00000280: 230c eebc f5ad aa3c e65c 623d f5a7 0ebd
00000290: b3e1 1cbd 6a08 1bbd 2ff2 913c cd0a 9b3c
000002a0: 1ccf c33c 1cc3 833d 9d1e 17bd ab49 763c
000002b0: d29d 283d 9436 3a3b 0293 d43c a5f2 00bc
000002c0: 3a12 cdbb 29ba 5bbd 76b7 863c 0a5e 74bd
000002d0: 8115 32bd 739b 57bd 2514 3e3d e929 8dbd
000002e0: 508a 9fbc d915 143d 16bd adbc bba4 7a3c
000002f0: f372 953d d199 643d 7c9f 87bc 94f9 013b
00000300: c37a 92b7 864c ae3b 1f1a 8c3d b8b2 49bd
00000310: 456f 86bd b9e2 383d 9304 56bd 20a1 b6bb
00000320: 2047 24bd ed3e c03c db67 503c a449 88bd
00000330: c5bb 7f3d 90f1 74bd db5b 88bd feb9 52bd
00000340: c4b3 19bc 4cc5 4fbd d710 8f3d 2453 15bd
00000350: a359 abbc c462 3bbd 307f 27bd 6522 84bb
00000360: b104 393d e08c bd3c b444 283d 9933 1bbd
00000370: be14 45bd 48aa 8bbd c2a9 643d 5539 bd39
00000380: c305 1bbd 347e f73c d2f8 493a dea8 f13b
00000390: 20b8 a03c 5e9e 5bbd b261 193d 181d f8bc
000003a0: be44 2a3d 4905 973d 3d3b 083d 1ebe 283d
000003b0: 87a3 6fbd e07e b7bb d5fb c93a ff9c 4dbc
000003c0: c3d7 5abd f55e 46bd b93e 8dbd 3fb4 a8bb
000003d0: 1cba cfbc 1527 d53c 9194 e8bc 3756 533c
000003e0: 75c0 2abd 0f9f b43c 0588 21bd 5035 1cbd
000003f0: d2f6 02bd bd22 983c de19 1a3d 0ecc 133d
-0.022213638 0.03183323 0.0257882 -0.04762894 0.0019482992 0.035349485 -0.03284352 -0.035763927
0.023667796 0.050329234 0.06478664 -0.033522587 -0.011034172 -0.063248195 -0.010254491 0.023260146
0.06627895 0.011083749 0.050530754 0.043754965 -0.06796786 0.001816441 -0.058349486 -0.06283597
-0.012613128 -0.021886377 -0.0061115883 -0.03980302 -0.02578428 -0.02876331 -0.009830044 -0.031123528
-0.05332871 -0.020198256 -0.06004164 -0.055574343 0.032472953 -0.056510463 -0.03498668 -0.06270836
0.010932997 0.016169861 0.027409023 0.026748937 -0.02649094 -0.043031815 0.027055807 0.01294858
-0.06613148 -0.0052825287 -0.03957289 0.063899525 0.062454615 -0.03423986 0.03649793 -0.0632836
0.04702124 -0.0654454 -0.0054295165 -0.06814435 -0.04402844 0.029160097 -0.04042269 -0.027692415
0.06550172 -0.040999368 0.024182992 -0.026545232 -0.03305212 -0.014530944 0.022910243 0.0075367168
-0.029872552 0.06489047 -0.06230819 -0.06550462 -0.020758897 0.03606432 0.048997443 0.055163614
0.05702939 0.030168058 -0.0039127534 0.05363751 0.011443732 0.02347575 -0.005942439 -0.0022427016
-0.038997244 -0.047550026 0.0645736 -0.030323274 0.056077182 0.022784581 -0.069797814 -0.0647758
-0.018091416 0.038203537 -0.02864515 0.03272359 0.030679855 -0.03810311 0.0027483308 0.038749505
-0.027813025 -0.011457765 0.042368375 -0.017009081 0.0213175 -0.0008293314 0.053994805 0.0071607577
0.050565857 0.066812135 0.07104791 -0.028714642 0.024341058 0.005892658 -0.028956432 -0.018395694
-0.008295265 -0.03371701 0.04442772 -0.03775103 0.06504551 0.06130733 0.009294805 0.012855032
0.05974148 0.015198556 -0.0056684464 0.050161846 -0.031069953 -0.0026526302 -0.050170843 0.006422307
-0.0061332607 0.035533395 0.03500633 -0.06524982 -0.06650386 0.06629429 0.027583994 -0.05091249
-0.014269792 0.011724175 -0.028453393 -0.04094447 -0.03940554 -0.06526657 -0.015597772 -0.03331689
-0.008830669 -0.04617374 -0.049654525 -0.05483851 0.03542395 0.028442834 0.010950804 -0.057384185
-0.029058522 0.020834902 0.055264376 -0.034828145 -0.03830118 -0.03784982 0.017815677 0.018926049
0.023902468 0.064336985 -0.03689443 0.015032212 0.041166134 0.0028413879 0.025949005 -0.007870351
-0.0062582763 -0.053644333 0.016444903 -0.059659995 -0.04347754 -0.052638482 0.04640593 -0.06892759
-0.019475132 0.036153648 -0.021208327 0.015298064 0.072973154 0.055810753 -0.01655554 0.0019832598
-1.7461722e-05 0.005319181 0.0684092 -0.049242705 -0.06564192 0.045138095 -0.052250456 -0.005573407
-0.040106893 0.023467505 0.012720074 -0.06654671 0.06243493 -0.059800684 -0.06658145 -0.051446907
-0.009381238 -0.050725266 0.06985634 -0.036456242 -0.020916766 -0.045748487 -0.04089278 -0.0040324205
0.04517049 0.023138463 0.041081145 -0.037891004 -0.048115484 -0.06819588 0.055825956 0.00036091605
-0.03784729 0.030211546 0.00077046186 0.007374867 0.019619048 -0.053617828 0.037446685 -0.03028731
0.041569464 0.07374055 0.03325962 0.041196935 -0.05850556 -0.0055998415 0.0015410135 -0.012549638
-0.053428423 -0.0484304 -0.06896729 -0.00514844 -0.025357299 0.026019612 -0.028391154 0.012898973
-0.041687448 0.022048501 -0.03943636 -0.03813678 -0.031973667 0.018571252 0.037622325 0.036083274

mlp1.2.bias f4 [100]
00000000: 8b6f 6bbd 3c1a 87bd f5de 86bd dbbb 403d
00000010: 8cf4 c0bc ac29 29bd 4ef2 823d 17ee 4d3d
00000020: 9c87 fe3c c2de 5dbd b95d ec3b dcb6 09bd
00000030: 44ae eb3c 5e50 3e3d 1c40 fdbc 19fd 09bd
00000040: 6ab8 ffbc 9506 083c 708d 4e3d d996 803c
00000050: 715d 9abb 1ddd 4dbd 1710 15bd 729f 593d
00000060: cd8c 143d cd4d bcbb 8d0d 433d ce38 39bd
00000070: 789a 08bc bbee 76bc 060b 32bd 23ba d53c
00000080: 22a5 f9bc 58b7 48bd 75b5 723b 4820 21bd
00000090: 27fd 1dbd ae25 423d 9f2a c43c 728d 66bd
000000a0: 4b94 2ebd fd68 7abd 9bb3 82bd ab5e 513d
000000b0: c7cc df3c f947 d1bb 381f 243d dc90 7ebd
000000c0: d0ef 10bd 521e 453d a8d4 fa3b 773f 553d
000000d0: 3ceb 153d ff9a 3a3d 4bbf ccbc 7987 6ebd
000000e0: ba48 c9bc e4f1 fa3b 4131 953c e88b 473d
000000f0: 7fed 1e3d 1c73 083c eea8 d53c f5ca 023d
00000100: a580 8b3b 5d90 70bd e35e 583d 542e 7bbd
00000110: 261f 50bc 6ef1 69bb d8af debc c0c3 b63c
00000120: dfef 07bd ac12 c23c 4b62 18bd 9a47 c7bc
00000130: 31f7 8ebd e3f3 84bd 5b6c 583d 3026 fd3c
00000140: 7ce5 0f3d 5f78 883d c2f7 a03b efdd 83bb
00000150: 06fc 6dbd 74ba f2bb 7836 ca3c 692f d03b
00000160: 201b 5e3d 8ea1 023c b6c4 43bd 3555 4b3d
00000170: 4195 65bd fbcc 703d e489 6c3d 5d05 ba3c
00000180: 793a e9ba 84c8 29bc bdbe 8a3d be38 163d
-0.057479423 -0.06596801 -0.065854944 0.047054153 -0.023554109 -0.041299507 0.06393872 0.05027589
0.031070523 -0.054167517 0.007213321 -0.033621654 0.02876962 0.046463363 -0.030914359 -0.03368864
-0.031215865 0.0083023505 0.050427854 0.01569693 -0.004710846 -0.0502597 -0.036392298 0.053130575
0.03626709 -0.0057465793 0.047620345 -0.04522019 -0.0083376095 -0.015071566 -0.043467544 0.026089733
-0.03047425 -0.049002975 0.0037034426 -0.039337426 -0.038571503 0.047399215 0.023946105 -0.056287237
-0.042621892 -0.06113528 -0.06381913 0.051115673 0.027319325 -0.0063867536 0.040068835 -0.062149867
-0.035384953 0.04812462 0.007654745 0.052062478 0.03660129 0.045557972 -0.02499356 -0.058234666
-0.024570812 0.00765823 0.018211963 0.04871741 0.038800713 0.008328225 0.026081529 0.031931836
0.004257279 -0.058731426 0.052824866 -0.06132348 -0.012702739 -0.0035696882 -0.027183458 0.022310138
-0.033187743 0.023690544 -0.037203114 -0.024326134 -0.06980742 -0.0649183 0.05283771 0.030901998
0.035130963 0.06663584 0.0049123475 -0.0040242593 -0.058101676 -0.007407481 0.024684176 0.006353308
0.054225087 0.007973088 -0.04779502 0.049641807 -0.056050543 0.058789235 0.05774869 0.022707636
-0.0017793915 -0.010362748 0.06774662 0.036675207

mlp2.0.weight f4 [100, 100]
00000000: f3f1 933c eb17 7bbd 3b18 5f3c 55d8 ed3c
00000010: 5ceb bbbd 5318 953d 0a29 9a3d 6484 993c
00000020: a5d7 c43d d3f6 943d b935 0abd ac4d 6b3d
00000030: 8c4c 493d 932c 92bd f1fa f63c 4a99 443c
00000040: 1891 b3bd ec2d 99bd d675 91bb b570 4a3d
00000050: 73e2 94bc e604 bfbd 1ab8 933b 6fde 33bd
00000060: 5fee c63d b838 8dbd 6dea a4bd b03b 07bd
00000070: 2891 efbc bc93 13bd 1aa4 a4bd e048 54bd
00000080: cc56 10bd 965e 85bd 0da9 c63b 57e7 8b3d
00000090: 9db5 92bd 32b0 f83c 9f2f 1abd bbf2 a03d
000000a0: 2638 5ebd c182 a13d 487a 943c 1960 963c
000000b0: ea0f 9fbc 5f8a ad3c 23a3 c83d ae7f 40bc
000000c0: e6e1 5fbd da11 c5bd c892 10bd 6cb1 943c
000000d0: cdea b83d afc2 813d 2263 a7bd 42e0 af3d
000000e0: b6c0 c1bd 3abd 1dbd cdff 873b 830a 993d
000000f0: 990f 08bd 7e7e b43d 01f9 71bc 805a 4b3d
00000100: 1b8d a33c 0b1a c23d f897 e8bc 1c79 8d3d
00000110: a459 a83d d5bc 3d3d 93ad babb dd83 1abd
00000120: 00a2 913a 1480 24bd f4e0 ba3c e7c3 77bc
00000130: 15a5 6f3d e475 173d 3ce2 86bd e83f 183a
00000140: f3b2 ac3d 8aca 4b3d 1c49 a9bc eed7 8bbd
00000150: 22a5 da3c e2a9 d53c dbbf 54bd 0879 a7bd
00000160: 6293 5dbd 1cfc 733d 3021 36bd afdf 513d
00000170: 59a9 bb3d 9e5e bfbd 052e 8e3c 34e8 a73d
00000180: 8b7e c93d cb5f 453d f458 b7bd d704 e3bc
00000190: d747 cebd d9b8 50bc a578 1b3c 7053 ed3c
000001a0: fc22 933b 5368 42bd 7a3a 3ebb 2044 85bc
000001b0: f34e 6dbd 4a2f 6d3c c9e8 463d 8e9f 14bd
000001c0: 03d2 babc 0b4b 3cbc 4804 933c 7a89 2d3a
000001d0: a332 e03d 834b c2bc 6a97 f83a f704 9a3d
000001e0: 40cc 383c e8ac f4bd 9ba1 b5bd 8afa 823c
000001f0: e662 c93d 9c38 8bbd 8e50 1f3d a8fe 87bd
00000200: f18b 553d 8858 b2bc 2d60 8d3c 4650 f1bd
00000210: abc5 0fbd 8ef8 313d 7b7a 6b3d b0f8 57bd
00000220: 4913 8fbd e14a bc3c f584 f6bc 18fb 923d
00000230: d9ed 063d 6f8a a53d 0779 863d 9385 98bc
00000240: 7280 5abc af67 a9bd d23a 483d 4a37 9b3d
00000250: a401 953d 4263 fd3c dc4c 87bd 37f8 bc3c
00000260: 8813 8abd 12fe 843d 80c1 bbbd 1c38 8ebb
00000270: 4996 b93c 4b5d 90bd ef56 063e d622 7a3d
00000280: 0974 6e3d eba5 643d 43cd 6ebc d84d 823d
00000290: 58fc c7bd d57b 133e 31e2 0abd 9236 6abd
000002a0: 61ea de3b e6e2 013d 050c 313d f609 913d
000002b0: 8b0a c9bd f36c dbbc 4c1c 203c 93e2 b2bc
000002c0: 0699 8f3d 1f9a ad3d 2325 933d 8aad 023d
000002d0: 689c 333d d933 fcbc ec85 89bd 84e3 87bd
000002e0: 5979 893d 50b9 d5bd e808 623d 97ba a13d
000002f0: e440 083d 92ca 843d e064 273d dcf5 933c
00000300: 42df 95bd a848 903d 49cd 97bd 5c76 9ebd
00000310: 6cf2 15bc aa66 e1bd f82a 7d3d f04c ed3c
00000320: 1d22 833d dd78 febb 0a8a 853b 3796 513d
00000330: d9a6 73bd ad7a a0bc e03c 00bd 784d 2dbd
00000340: c8bf ab3d 2899 a63c 58f7 b7bd 19ba 743d
00000350: 6132 cd3c 02cf 7fbd 97f8 953b eddf ffbc
00000360: f4e8 2d3d 4f19 9e3c 8ceb 8e3d 01df 88ba
00000370: 7727 48bd 6739 b8bd abb6 8c3d f252 d6bd
00000380: b046 d6bc f5e4 9abd 9de1 c5bd dd48 8fbb
00000390: 660b fd3c 9e7f b73d cfb2 c93d f18f 863d
000003a0: abb4 89bd 8d72 62bd 92a4 bdbd c762 863c
000003b0: 98de 913d da6c 9c3d 14b2 823d 9831 21bb
000003c0: 91f5 13bd 5dbf 53bd df05 6bbd ad5a c9bc
000003d0: 5602 073d f503 1d3d 0174 90bd 6e16 e3bc
000003e0: d2e3 f4bc acc2 033d 64d3 7cbd 4817 04bd
000003f0: 4bed b43d d508 6a3d 02ff 8b3d 939b db3c
0.018059706 -0.061302107 0.013616617 0.02903382 -0.091757506 0.0728003 0.07527359 0.018739887
0.096114434 0.072736405 -0.03374264 0.05744712 0.049145266 -0.07137408 0.030148955 0.011999438
-0.08767909 -0.07479462 -0.004439096 0.049423892 -0.018174386 -0.09327106 0.0045080306 -0.0439133
0.097134344 -0.06895584 -0.08052526 -0.033015907 -0.02924402 -0.036029562 -0.080391124 -0.05182731
-0.035239026 -0.065121815 0.006062633 0.06831234 -0.07163546 0.030357454 -0.03764307 0.07858797
-0.054252766 0.078862675 0.018124714 0.01835637 -0.019416768 0.021184145 0.09796741 -0.011749191
-0.054658793 -0.096225455 -0.03529623 0.018151008 0.0902916 0.06335961 -0.08173205 0.08587696
-0.09460585 -0.03851054 0.004150367 0.07472708 -0.033218 0.08813189 -0.01476884 0.049646854
0.019964745 0.094776236 -0.028392777 0.069078654 0.082202226 0.046322662 -0.005696961 -0.03772341
0.0011110902 -0.040161207 0.022812344 -0.01512239 0.058507044 0.036977664 -0.065861195 0.00058078626
0.08432569 0.049753703 -0.020664744 -0.06828295 0.02669007 0.026081983 -0.05194078 -0.08177382
-0.054095633 0.059566602 -0.044465244 0.051238712 0.0916316 -0.09344219 0.017355928 0.08198586
0.09838589 0.04818706 -0.08952513 -0.027712269 -0.10072296 -0.012739384 0.009489213 0.02897045
0.0044902544 -0.047462773 -0.0029026554 -0.016267836 -0.05793662 0.014476607 0.048561845 -0.036284976
-0.02280522 -0.011492501 0.017946377 0.0006619912 0.10947158 -0.023717647 0.0018966023 0.07520478
0.011279166 -0.11947042 -0.088687144 0.015988607 0.098333165 -0.06797907 0.038895182 -0.06640369
0.05213541 -0.02177073 0.017257774 -0.11782889 -0.03510062 0.04344993 0.057489853 -0.0527274
-0.069861 0.022984924 -0.030092696 0.071767986 0.032941673 0.08083045 0.06566053 -0.01861838
-0.013336288 -0.08271729 0.04888422 0.07578905 0.072757035 0.030931119 -0.06606457 0.023067577
-0.067420065 0.064937726 -0.091677666 -0.004340185 0.02265467 -0.07049044 0.131191 0.06106838
0.05821613 0.055822294 -0.014575305 0.06362504 -0.097649276 0.14402707 -0.03390712 -0.05718095
0.0068028425 0.031710528 0.043224353 0.07081978 -0.09816464 -0.02678535 0.0097723715 -0.021836555
0.07011609 0.08476662 0.07184818 0.03190378 0.043850332 -0.030786442 -0.06714997 -0.06635192
0.06712598 -0.10435736 0.055184275 0.07896917 0.03326501 0.0648395 0.040867686 0.01806157
-0.07317974 0.07045108 -0.07412202 -0.07737419 -0.009152036 -0.1100591 0.061808556 0.02896735
0.06402991 -0.007765873 0.0040752934 0.051168647 -0.05948529 -0.019589746 -0.031308055 -0.042310208
0.08386189 0.020336702 -0.08982724 0.05974779 0.025048437 -0.062453277 0.0045767534 -0.031234706
0.04245849 0.019299177 0.06978521 -0.0010442437 -0.04886576 -0.08995324 0.06870779 -0.10465039
-0.026156753 -0.07563201 -0.09662173 -0.0043726997 0.030889224 0.08959888 0.09848558 0.065704234
-0.06723913 -0.055285025 -0.09259905 0.016404523 0.071225345 0.07637949 0.06381622 -0.002459621
-0.036122862 -0.05169617 -0.057378646 -0.02457937 0.032961212 0.03833385 -0.07053376 -0.027720656
-0.02989379 0.032168075 -0.061725035 -0.032248765 0.088343225 0.05713733 0.06835748 0.026807582

mlp2.0.bias f4 [100]
00000000: 061e a63d f2d8 83bd a073 d3bc a463 0bbd
00000010: 2d99 a7bd 0034 1b3d 02d2 57bc 764b b13c
00000020: 7a4a ba3d cee6 b03d 50e0 b3bd dd21 94bd
00000030: efc1 983d 3f72 e13c 3822 ca3d 60b4 b3bd
00000040: 9d5d 87bd 18cd 85bd bf5d 173d 2bfd a23d
00000050: 858e ce3b f99a 2ebd 75de 893d 3be8 27bd
00000060: 99d7 2bbd d0f1 36bd c468 24bc 5f14 9c3d
00000070: 7a8b b4bd 0927 53bd d5d2 263d e475 ca3c
00000080: 0ba0 b03d b92d eabc f0f1 793d e233 6fbc
00000090: d518 a4bd 8094 b13c a2d4 e7bc 0082 943c
000000a0: 17bb 4b3d 8a21 9abd e6b3 aebd cd03 e8bc
000000b0: f3a2 36bd 544d 41bd da93 a7bd 32bb 85bd
000000c0: d138 e83c 1876 05bc 9caa 333d 80c8 d7bc
000000d0: 9434 ae3c 9003 14bb d4a5 c63d 65eb 80bd
000000e0: 0235 86bc 3abe 803d 749e a3bd 3465 b0bd
000000f0: cc13 bf3d 6726 12bd d999 b13c f5a6 8f3d
00000100: 970f d93b d570 81bd 5312 923d aa01 3e3d
00000110: 12f2 013d 1cfc bc3d 271f ca3d c1dc 873d
00000120: 5c7a 5d3d 07df 9f3d 28dc aa3a 37a8 e1bc
00000130: 3544 613d c5b0 7d3d 98d8 11bc be96 143d
00000140: 966c 8dbd 4669 c7bc 743d d3bd 9bf9 85bd
00000150: 447c cf3c ab9e a3bd 2ef1 683d 5738 15bd
00000160: 4c6d f53b 8d3b bbbc 422b 44bd f31b 8e3d
00000170: 14cf c73c f1cf 993d c975 063c 4d82 00bd
00000180: 975a c2bd 3609 0e3d a81c 00bd 4e7c d8bc
0.08111195 -0.064378634 -0.02581197 -0.03403057 -0.08183513 0.037891388 -0.013172628 0.021642428
0.090962365 0.086377725 -0.087830186 -0.072330214 0.07458865 0.027520297 0.09869808 -0.08774638
-0.06609652 -0.06533259 0.036954638 0.07958444 0.0063036107 -0.042628262 0.067318834 -0.040992957
-0.041953657 -0.044664204 -0.010034744 0.07621073 -0.088156655 -0.0515509 0.04072841 0.024714418
0.08624276 -0.028586255 0.061021745 -0.014599772 -0.08012549 0.021677256 -0.028299633 0.018128395
0.04973897 -0.07525928 -0.08530407 -0.028322125 -0.044588994 -0.047192886 -0.08182497 -0.06529845
0.028347405 -0.0081458315 0.043863878 -0.026340723 0.021265306 -0.0022585131 0.09699598 -0.06294898
-0.016382698 0.06286283 -0.07989207 -0.08613053 0.09329948 -0.035681155 0.021679806 0.070142664
0.006624173 -0.06320349 0.07132401 0.046388306 0.031724997 0.092277735 0.09869223 0.06633902
0.05407177 0.07806211 0.0013035582 -0.027546031 0.054996688 0.06193616 -0.008901738 0.03627657
-0.06905477 -0.02434219 -0.10314456 -0.06541749 0.02532781 -0.07989248 0.056870632 -0.036430683
0.007489836 -0.022855544 -0.047892816 0.06938925 0.024390735 0.07510365 0.008206793 -0.031374265
-0.09489935 0.034676753 -0.03127733 -0.02642646

mlp2.2.weight f4 [50, 100]
00000000: 3ebd b2bc f1cd 27bd 8d93 953d 2a4b 23bd
00000010: 0fc9 a53d 66a3 923d e667 953d a7f6 74bd
00000020: 31cb b93d 3880 ed3d 7a84 8b3c 2481 563d
00000030: 1f92 65bd a0d6 2cbc fecd c13b 5c7c c4bd
00000040: 0088 b33b af86 d23c 036f 81bd 316c 1fbd
00000050: 91a6 343d e6d2 213d a6eb c0bd de1c 5ebd
00000060: fe58 3bbd b5d1 a53d 5057 83bd 95ef 0e3d
00000070: f397 45bd 8f95 0bbe 1d8d bf3d e1e5 913d
00000080: 6080 203d 7ad4 d93d b51b 573d b1df 83bc
00000090: 8fce 35bd 4977 2dbd d78b 3fbd 402f ad3b
000000a0: 1575 b03d 68c5 80bd d9ba 53bd b3fc 1cbd
000000b0: 2abc 863c df5e 9fbd 6314 54bd edaf 183c
000000c0: 7974 093d 307d e0bd d5f5 98bb 2c80 9d3d
000000d0: be7f 053d d28d 1e3d ca08 13be bb97 603d
000000e0: 6688 cbbd e876 933d 8c6e b23c be6e 3b3d
000000f0: 32cd 30bd c2d7 af3d 4509 a33c 29a9 21bd
00000100: 7471 8ebd 431b c7bd 853c 11be 92a4 163d
00000110: 6a09 5c3d ad72 ffbc ec56 f43c d571 1fbc
00000120: 0b9c bbbd a900 143d 8d53 0c3d 6981 ba3d
00000130: a0ec 50bd 2c5b ea3c 55f2 b93d 5de6 c0bd
00000140: a80d 253b 22fe 333d a786 a43d 207d b13d
00000150: 6322 90bc 8e18 6c3d 5ea5 c8bc ee06 efbd
00000160: a7bb ac3d 47e1 80bd 4d9a 163c 9d47 23bd
00000170: ef99 593d fcc3 063d 6a6c bc3c 4a46 ad3d
00000180: 9a52 cbbd 1f7d a83d a9d8 973c db39 83bd
00000190: 2acf 313d f8b3 53bc cfbb bf3c 0fb1 97bd
000001a0: ca07 7f3d 3baa 063d e146 cbbd 75e6 933d
000001b0: 3d72 7abd 2340 ed3b d0cf 913d dd62 b93c
000001c0: 0cdb 41bd 12f8 5c3d c6b6 b13d bc36 a0bd
000001d0: 3359 233b 289c 613d bb68 11bd 004d 38bd
000001e0: 9af9 92bc b08d 4cbd 99bf a4bc b23f 82bd
000001f0: 615d 823d 1a52 ffbb cfa5 bdbd 3105 c4bd
00000200: 2022 273d 51b7 5abb 1843 a23d 793b 8c3d
00000210: b609 c63d bd0d 8f3d a783 08bd c652 dfbb
00000220: bea5 b2bd bad5 523d 02a7 7b3d 2809 03bc
00000230: a585 a73c 83a3 1f3c 9177 b03c b390 a6bb
00000240: c146 d53c 2824 7dbd fb9c 9dbd a83c a33c
00000250: ad1a a53d 16a1 28bd 7e96 edba 32d1 963d
00000260: 7312 c1bc 262a a83c f00f 133d 674e a73d
00000270: 8fa8 93bd 256d da3c 06ff c0bd a202 b5bc
00000280: 6b4c 8b3d da7a 61bd 73f1 8a3d 59fc ebbb
00000290: 2c36 89bd 513a 20bd f8d9 0fbd 9a9e 0dbd
000002a0: c8cc a33c 66fb 403d a3a7 ca3d 7fce 6abd
000002b0: ed6b 7b3d 4634 b63d 1518 043c 7201 953d
000002c0: 9baf 943d b553 a7bc 5919 cdbb 7812 9bbd
000002d0: c511 9ebd 7198 573d 5b33 44bd c011 523c
000002e0: cb23 833d 8077 a53b f337 683d 9453 d2bd
000002f0: 49be 843d a06b fb3c c85e 89bd 38ad 163d
00000300: 6cd9 34bd 8c7d 9abd 4e89 98bb bbdb d2bd
00000310: ab1f 89bc cdad 173d 43aa aa3d 809e 473a
00000320: 0e36 a73d 6361 4cbd ff81 903c 0c7e 613d
00000330: ada9 ba3c 0926 35bd 9685 73bd f816 483d
00000340: de4e 2a3c 10fc bbbd f525 c13d b6b3 f33c
00000350: dd67 943d daa7 263d c868 23bd 36e9 cf3d
00000360: 6d86 c93d fd76 203d b704 ab3c 6a6f 63bd
00000370: ec28 d9bc 1104 293d eee7 43bd bdab 863d
00000380: c3fc acbd 5ad0 2f3c c52e c9bd efa7 82bd
00000390: 2d56 923c 55c3 23bd 5b03 9ebd 4dd5 40bd
000003a0: 1eb9 72bb 781c 913d 5408 1cbd ad3b 863d
000003b0: 18a1 c0bb 4f59 6bbd cc91 8cbd c8a7 b53c
000003c0: 5e6d 4b3d cdd6 c33d d003 a13d 770a 6c3d
000003d0: 716c 553d ca70 93bc 417c b4bd b02e b93c
000003e0: 740b 44bd 6d77 bf3d 7275 fe3c 7842 413d
000003f0: 2625 2cbd 576b efbc bc2b 4f3d 2eff 8a3d
-0.021818753 -0.040967885 0.07303534 -0.039866604 0.080949895 0.07160072 0.07295208 -0.05980554
0.09071959 0.115967214 0.017030943 0.05236925 -0.056047555 -0.010549217 0.0059144488 -0.09594032
0.005478859 0.025698988 -0.06320002 -0.03892154 0.044104163 0.03950777 -0.09419946 -0.05422675
-0.045739166 0.08096639 -0.06413138 0.034896452 -0.048240613 -0.13631271 0.09353087 0.07123924
0.039184928 0.1063623 0.052516658 -0.016097875 -0.044386443 -0.042350087 -0.04676422 0.0052851737
0.086160816 -0.06287652 -0.051691864 -0.03832693 0.016447145 -0.07781767 -0.051777255 0.009319288
0.033558343 -0.109613776 -0.0046679773 0.076904625 0.032592528 0.03870947 -0.14358822 0.0548322
-0.09938125 0.07200414 0.021781228 0.04575991 -0.04316444 0.085860744 0.019901881 -0.039467964
-0.06955233 -0.09721997 -0.14183243 0.03677804 0.053719915 -0.031182611 0.029826604 -0.0097317295
-0.09160622 0.036133442 0.034259368 0.09106714 -0.051006913 0.028607927 0.09079424 -0.09418938
0.0025185142 0.04394353 0.080334954 0.08666444 -0.017594522 0.057640605 -0.024492916 -0.116712436
0.08434229 -0.06292968 0.009192062 -0.039863218 0.05312532 0.03290175 0.023000915 0.08460672
-0.099278644 0.0822699 0.018535929 -0.064075194 0.043410458 -0.012921326 0.023404984 -0.07406818
0.062263288 0.03287719 -0.099256285 0.072216906 -0.061144102 0.0072403117 0.07119715 0.02263015
-0.04732804 0.053947516 0.086774394 -0.0782294 0.0024924993 0.055080563 -0.03550027 -0.044995308
-0.017941285 -0.04993981 -0.020110892 -0.06359805 0.06365467 -0.0077917697 -0.09260141 -0.09571303
0.04080403 -0.0033373425 0.07922953 0.06847281 0.09669821 0.06985042 -0.03332868 -0.0068152873
-0.08723019 0.051473357 0.061438568 -0.0079977885 0.020449469 0.009743574 0.021541389 -0.0050831675
0.026034715 -0.06180206 -0.07695957 0.019926384 0.080617286 -0.04116925 -0.0018126515 0.073641196
-0.023568368 0.02052791 0.03590387 0.08169251 -0.072098844 0.026663372 -0.09423642 -0.022095982
0.06801685 -0.0550488 0.06784334 -0.007201713 -0.066997856 -0.039118115 -0.03511998 -0.034575082
0.019995108 0.047114752 0.098952554 -0.057325836 0.061382223 0.08896689 0.008062382 0.07275666
0.072600566 -0.020425657 -0.006259125 -0.07571882 -0.07718233 0.052635614 -0.04790054 0.012821615
0.06403311 0.005049646 0.056693982 -0.102698475 0.064816065 0.030690968 -0.06707531 0.036786288
-0.044152662 -0.075434774 -0.00465504 -0.102958165 -0.016738733 0.037030984 0.08333256 0.0007614866
0.08164607 -0.049897563 0.017640112 0.05505185 0.022785986 -0.044225726 -0.05945357 0.04885003
0.01039478 -0.091789365 0.09431068 0.029748779 0.07246373 0.04068742 -0.03989485 0.10151903
0.09840093 0.039175976 0.020876272 -0.055526175 -0.02650877 0.041263644 -0.047828607 0.06575725
-0.08446648 0.010730827 -0.09823374 -0.06379687 0.017863357 -0.039981205 -0.07715484 -0.04707842
-0.0037036608 0.07085508 -0.03809388 0.06554351 -0.005878579 -0.05745822 -0.06863746 0.02217473
0.049664848 0.095624544 0.07862055 0.057627168 0.05210537 -0.017998118 -0.08812762 0.02260527
-0.047862485 0.093489505 0.031061862 0.04718253 -0.042027615 -0.029225988 0.050578818 0.06786953

mlp2.2.bias f4 [50]
00000000: e670 b13d 50bd a93d f228 9cbd 4a61 6d3c
00000010: 2bbf cfbd bb4c 98bd 672f 5abc e57f a0bd
00000020: 735e c0bd ec2c b13d b1dc 8ebd ca6c d13d
00000030: 3712 3c3d a0dd a5ba f7d2 86bd ace9 2cbd
00000040: 533b 933d 169d 973d a32b eebc 8db2 0bbd
00000050: 077c 34bd c26d 403b e94f 21bc 5f89 75bd
00000060: dc7a 6f3d 5073 77bd 52dc 273d fa0d 683d
00000070: ec9e b43d a1b7 2e3d 60ed 61bd f0f8 a33d
00000080: f04a 183d 4e0e 233b d16d d5bb 445f 1c3d
00000090: cc3a 533c 2aa5 863c aa14 9d3d 7814 28bd
000000a0: 32b9 78bd c390 56bd 9414 8dbd 69a3 8f3d
000000b0: 9fd9 89bd b108 21bd 637e 543c 0852 39bd
000000c0: 3b16 933d 24dd d03d
0.08664112 0.082880616 -0.07624997 0.014488528 -0.10143884 -0.0743651 -0.013316966 -0.07836894
-0.09393015 0.08651146 -0.06975687 0.10225828 0.04591581 -0.001265455 -0.06583207 -0.042215034
0.071890496 0.07403009 -0.029073542 -0.034105826 -0.044063594 0.0029362296 -0.009845712 -0.05994546
0.058466777 -0.060412705 0.0409816 0.056653954 0.088193744 0.04265559 -0.05515802 0.080064654
0.03718084 0.0024880352 -0.0065133353 0.03817679 0.012892436 0.016436178 0.07669957 -0.041035146
-0.06072349 -0.05238415 -0.068886906 0.0701359 -0.06730961 -0.03931493 0.012969586 -0.045244247
0.071819745 0.10198429

attention.0.weight f4 [100, 200]
00000000: fd6f 30bd 0240 08bd 6a06 a1bc 00b7 34bd
00000010: a4ed cabc c4ab 0ebc ea76 8dbd f09a d6bc
00000020: 4f3b 823b 8649 8b3d 2167 873d bc6c 863d
00000030: d2ad ddbb f7c2 1dbd ddc9 653d 3a6f 8ebd
00000040: 5a50 47bd 5769 833d 7ed9 903d defd a9bc
00000050: d58a ce3b ed6c b1bb 9b66 833d ebcf 933d
00000060: 2db0 ed3a 19b3 073d f5ab 423d f24d 283d
00000070: 4d1c 9fbc 94b3 abbc a201 7c3d c756 1ebd
00000080: 0fcd 2fbd c6ed 2f3c b3d4 33bd a72d 873d
00000090: 690e 943d f845 b03c 7be1 653d c05b 14bd
000000a0: 64a8 083c 9100 4c3d c89a 03bd 1ed8 603d
000000b0: 8261 0abd f6be 88bd 50c6 8dbd 5ce0 583d
000000c0: a5f8 3b3c e0c6 bd3c 7e16 02bd 6f6f 2e3d
000000d0: a8c4 823d 9f87 29bd 1313 53bd d9d0 4b3d
000000e0: 2081 84ba 66c7 613d 64cc c3bc b537 33bd
000000f0: 9a04 353a 7534 203c 47fd 223a 26a9 e43a
00000100: 3fcc a43c 0ce0 393b 6e1a 553d da3c b9bc
00000110: e806 21bd 7a0a 903d f28a fd3c 266e 0c3d
00000120: 0add 873d 7a5b 52bd d496 723b 0f9f e0b9
00000130: 2741 043c 8648 eb3c 1fb9 25bc ffef d73a
00000140: 8bdd 80bc 27cd cfbb 6c49 19bc f320 5b3d
00000150: 3f02 2fbc 658e a8bc 68d6 75bd 7990 8abc
00000160: 7784 d4bc 7113 8a3d 2903 d1bc a040 c63b
00000170: 3792 54bb 54b1 8ebd 3eae 0f3d 159e cebc
00000180: b96d 41bd e805 3bbd 976b 303d dcdb b63b
00000190: ec51 4c3d ba00 01bd 6230 f2ba 2659 3f3d
000001a0: 8bdd 13bd 678c 0ebd ac05 2f3d d988 603d
000001b0: 42e7 633d b0a5 1d3d c266 133c ee6b 733c
000001c0: c5f8 1abd b301 29bd 2146 913d 1506 49bc
000001d0: 56c2 a83c 0e98 423d a594 6abc 1de2 59ba
000001e0: 3c01 32bd 0b4f b7bc dba8 5abd 63cb 1cbd
000001f0: 63ef 5ebd 2b75 6dbc 3071 abba 79e8 c73c
00000200: b0ce 6fbb f101 cfbc b1ad 66bd 96e2 4fbd
00000210: 9ba3 ae3c 001e c03c 092d 3fbd 29e2 173d
00000220: 90b7 a3bc bd45 7f3d c2a2 653d 0990 443c
00000230: b403 2a3d 76a8 8a3d d3a5 873d 6fa5 3bbd
00000240: fedc 363c 0f20 7fbc e3bb 80bb ea36 903c
00000250: c2bf 353b cf3d aa3b d986 47bd 6631 62bd
00000260: 2b31 1cbd 6874 0a3d e296 5b3d cc52 ca3b
00000270: 914f f7bc 057b 833d a40a e73b 406c 6fbd
00000280: e102 8abc d500 ccbc 237c 123c 1aad 40bd
00000290: 1333 6a3d d5bf 6e3c 35c8 453d 5cde 6e3d
000002a0: 610c 9cbc 2221 5dbd 6ee0 083d d567 ac3c
000002b0: cf74 54bd 4836 d53c c791 82bd 407c 743c
000002c0: 94fc b5ba ab0a 4c3d b04f 343c e8cb 4f3d
000002d0: 4ae9 363d 8761 5a3d b871 8b3d e110 56bc
000002e0: 89c4 34bd 17a3 b7bb 0b6e 35bd 5b07 c93c
000002f0: b508 74bd 1148 73bd 536f ebbc 6d5e 9dbb
00000300: e9bf 80bc 94a4 a6bb fff5 c93c bc54 c93c
00000310: 1c3a 1d3d 3a2f 893d 7915 453d 3355 403d
00000320: 36e0 1c3d f4cb 843d a1fe c4bc 7031 d53c
00000330: 760e 803b 2ecd 48bc fcb9 25bd 443d 6a3d
00000340: 8ccd 4ebc 85ea 39bd bebb 133d 4d10 beba
00000350: df34 3bb8 8a21 1ebd ca9c 3c3b 9347 703c
00000360: c501 4dbd 8ec0 0dbd 6802 633d bbcf e3bc
00000370: f081 313d b8b8 7f3d 10f8 efbc 76e5 32bd
00000380: b450 bc3b c472 543c 2669 60bd 34be ad3c
00000390: 6597 61bb cd14 5f3d 5f8b 423b 76fc 523d
000003a0: 75ac 763b 1d95 603d 5e6a cb3c 24d1 9a3c
000003b0: 346c 263d 5617 413d 6267 89bc fc0d 153d
000003c0: c2d7 383d 5444 e839 ecbb 5b3d 50e8 413c
000003d0: f52e 74bd 1f8a db3b 90dc b0bc 7192 583d
000003e0: 00cf debc e3d7 663c d115 4abd 66d5 bfbc
000003f0: 82a1 14bd ad59 19bd 16b4 ec3b f7f8 753d
-0.04307555 -0.033264168 -0.019656379 -0.044119835 -0.024771519 -0.008707944 -0.06907447 -0.026196927
0.0039743553 0.06801133 0.06611467 0.06563708 -0.0067651058 -0.03851601 0.056100715 -0.069548085
-0.048660614 0.06416576 0.07072733 -0.020750936 0.006303171 -0.0054145963 0.06416055 0.072173916
0.001813417 0.033129785 0.047527272 0.04108996 -0.019422675 -0.020959653 0.061524995 -0.038656976
-0.04292017 0.010737842 -0.043904018 0.06600504 0.07229311 0.021517739 0.056123238 -0.036220312
0.008340929 0.049805228 -0.032130033 0.054893605 -0.033784397 -0.06677048 -0.06922591 0.05294834
0.011472856 0.02316612 -0.03175973 0.04258674 0.063851655 -0.041389104 -0.051531862 0.04975972
-0.0010109283 0.0551218 -0.023901172 -0.0437543 0.0006905288 0.009778132 0.0006217551 0.001744543
0.020116923 0.0028362302 0.05202716 -0.022612024 -0.039313227 0.07033248 0.030950043 0.034284733
0.06633957 -0.05135677 0.003701617 -0.00042843117 0.008072174 0.028721105 -0.010114937 0.0016474723
-0.01573064 -0.0063415947 -0.009355884 0.05349822 -0.010681688 -0.020575712 -0.060018927 -0.016914593
-0.02594207 0.067419894 -0.025514202 0.0060501844 -0.0032435784 -0.069674164 0.03507828 -0.025221864
-0.04722378 -0.04565993 0.043071356 0.0055804085 0.049882814 -0.031494834 -0.0018477554 0.046715878
-0.03609995 -0.034801867 0.04273002 0.054818008 0.055640467 0.03848809 0.008996667 0.014857275
-0.0378349 -0.041261386 0.07093454 -0.0122695165 0.02060048 0.047508292 -0.014317666 -0.00083115866
-0.04345821 -0.022376558 -0.05338369 -0.038279902 -0.054427516 -0.014493267 -0.0013079997 0.024402844
-0.0036591701 -0.02526948 -0.05631799 -0.0507532 0.021318248 0.023451805 -0.04667381 0.037080918
-0.01998499 0.062322367 0.05606342 0.011997231 0.041507438 0.067704126 0.06623425 -0.045812067
0.011161087 -0.015571608 -0.003928648 0.01760431 0.0027732705 0.0051953564 -0.048712585 -0.05522289
-0.038132828 0.03380242 0.05361069 0.006174421 -0.030189307 0.064199485 0.007050829 -0.058452845
-0.016847076 -0.02490274 0.008940729 -0.047040083 0.057177614 0.0145721035 0.048286635 0.058317527
-0.019048871 -0.053986676 0.033417158 0.021045605 -0.05186921 0.02602686 -0.06375461 0.014922202
-0.0013884478 0.04981486 0.011005327 0.05073157 0.044656076 0.053315666 0.068087995 -0.013065548
-0.044132743 -0.0056041586 -0.0442944 0.02453964 -0.059578616 -0.0593949 -0.028739607 -0.004802516
-0.01571651 -0.005085537 0.024653433 0.024576537 0.038385496 0.06698461 0.04811618 0.046956252
0.03829976 0.064842135 -0.024047198 0.02602455 0.003907974 -0.01225595 -0.04046057 0.057187334
-0.012622248 -0.04538967 0.036067717 -0.0014500708 -4.4633514e-05 -0.038606204 0.0028779977 0.014665502
-0.050050516 -0.034607463 0.055422217 -0.027809015 0.04333681 0.06243202 -0.02929309 -0.043675862
0.0057469252 0.012966815 -0.054787777 0.02120886 -0.0034422514 0.054463197 0.0029685122 0.051510297
0.0037639413 0.054829706 0.024830993 0.018898554 0.040630534 0.047141396 -0.01677293 0.03639029
0.045127638 0.00044301397 0.053646013 0.011835173 -0.059615094 0.006699815 -0.021589547 0.052874032
-0.027198315 0.014089557 -0.049337212 -0.023417186 -0.03628684 -0.037439037 0.0072236164 0.060051885

attention.0.bias f4 [100]
00000000: f632 dc3c d1dd 1b3d f3cf 6abc 0a97 263c
00000010: 0d3b c2bc 3b7b 513d c70a 3dbd 8225 50bd
00000020: 3cf0 aebc 0e25 7a3d 60eb 8b3d fdd4 2dbc
00000030: fe7d 5fbd d504 273d 4e74 513d 5913 3e3b
00000040: a7ed 17bd 3da3 f739 05fe 11bb b27e 2d3c
00000050: 15b6 92bc 988e 7abd 5171 5e3d 6d27 87bd
00000060: aad6 dfbc 083d 7a3d e617 27bd 6edb 643d
00000070: 214e ab3c 1ebf 013c 1d22 273d 1885 92bc
00000080: f44d 24bd 16d6 c2bc 419b 11bd 1162 01bd
00000090: f9ec 5fbd f7e4 5cbc ab6e 70bd d7fe 2fbd
000000a0: b52d dcbc e180 2bbd 11e7 3ebc 0a88 053c
000000b0: 16cb ca3c 1bc0 3b3d 5ecd 78bd 97ff ffbc
000000c0: 8015 cfbc 03b1 26bd a174 5e3c 8ab3 2b3d
000000d0: dfd3 933d 1d69 303d 02aa 513d 564a 0bbd
000000e0: 344e bd3c 7b1f ad39 9210 693d 1707 f33a
000000f0: 61a7 29bd e3c2 7a3d 14ec 3b3d ad07 45bd
00000100: 9f28 823d 11cd b8bc 5196 87bd d450 8e3d
00000110: 13a1 6d3d 12d4 f13c 8fc5 193b f7d9 f7bc
00000120: 6239 8dbc bd62 853d e5a7 123d 14d7 79bd
00000130: 0ff3 e9bc 200a 963d 5c2b 39bd e6e3 833c
00000140: da3f c4bc f291 24bb 626e 3fbd 475b 873b
00000150: d20f babc 5ad5 de3c 70f7 59bd ce14 95ba
00000160: 2d57 6f3d a650 023d b66b 673d b783 093c
00000170: ba44 f2ba 090e d93c c1e9 23bd ace1 81bd
00000180: 43f2 873d c186 5cbd d007 11bc 8f14 5ebd
0.026879769 0.038053337 -0.0143318055 0.010167846 -0.023709798 0.051142912 -0.046152856 -0.05081702
-0.021354787 0.061070494 0.068320036 -0.010609862 -0.054563515 0.040776093 0.051136307 0.0029003231
-0.037091877 0.00047233133 -0.0022276652 0.010589289 -0.01790909 -0.061171144 0.054307286 -0.06599317
-0.02732404 0.06109336 -0.040794276 0.055873327 0.020911278 0.007919101 0.040804017 -0.01788573
-0.040113404 -0.023783725 -0.035548452 -0.031587664 -0.054669354 -0.013482324 -0.05869929 -0.042967644
-0.026877264 -0.041870955 -0.01165177 0.00815011 0.024755042 0.045837503 -0.06074273 -0.031249804
-0.025278807 -0.040696155 0.013577611 0.04191927 0.072181456 0.043068994 0.051187523 -0.03400644
0.02310858 0.00033020586 0.05690057 0.0018541542 -0.04141939 0.061221015 0.04587944 -0.048103023
0.06355404 -0.02255872 -0.066204675 0.069490105 0.05801494 0.029520068 0.0023463701 -0.0302553
-0.017239276 0.065129735 0.035804648 -0.06099613 -0.028558282 0.0732615 -0.045207366 0.016099881
-0.023956228 -0.0025111404 -0.04673613 0.004130754 -0.022712622 0.027201343 -0.05321449 -0.0011373998
0.058432747 0.031815194 0.056499206 0.00839322 -0.0018483617 0.02649595 -0.040017847 -0.063418716
0.06638005 -0.05383945 -0.00885196 -0.054218825
