crowd_nav/data/output/rl_model.pth (torch, 415203 bytes, 20 tensors)

mlp1.0.weight f4 [200, 13]
0	0x3e08f7b0	0.13375735
1	0x3df4b95d	0.11949418
2	0xbdb8698c	-0.090045065
3	0x3e673f04	0.22582632
4	0xbda224be	-0.07917164
5	0xbd094d4f	-0.033520993
6	0xbdb29656	-0.087200806
7	0xbd9daaa5	-0.076985635
8	0xbe206053	-0.15661745
9	0xbdd7d7e4	-0.10539225
10	0xbe381ce2	-0.17979768
11	0xbded71f3	-0.11594
12	0x3e0faf97	0.14031826
13	0xbe4c059d	-0.19924016
14	0xbe80fce3	-0.25192937
15	0xbda71730	-0.081587195
16	0x3e882c5d	0.26596346
17	0xbd77be5c	-0.060484275
18	0x3db024a6	0.0860074
19	0xbd74d6fc	-0.059775338
20	0x3c68fdbf	0.014220654
21	0xbe3f071c	-0.18655056
22	0x3deea068	0.11651689
23	0xbe631ad7	-0.22178207
24	0x3e7182ad	0.23585005
25	0xbd3b48cf	-0.045723733
26	0x3d41a542	0.047276743
27	0x3e6b18b0	0.22958636
28	0xbb2e609c	-0.0026607877
29	0x3e6c4c63	0.23076014
30	0x3e200d9c	0.15630192
31	0x3e90f1b8	0.28309417
32	0xbdb1778a	-0.086653784
33	0xbe8d8149	-0.276377
34	0x3e3f830b	0.18702333
35	0x3d92e9f0	0.07173526
36	0x3cd6a124	0.026199885
37	0xbdbc5c4b	-0.09197291
38	0xbe79a8f3	-0.24380855
39	0xbd196ec3	-0.037459146
40	0x3e46ad74	0.19402105
41	0xbe65dc1f	-0.22447251
42	0x3de6eab2	0.11275233
43	0x3d5f9163	0.05458201
44	0xbe3976b0	-0.18111682
45	0xbe64319f	-0.22284554
46	0x3e1f782b	0.15573184
47	0x3e0c7a3a	0.137185
48	0x3d9921ef	0.074771754
49	0x3e7ea929	0.24869217
50	0xbe616036	-0.22009358
51	0xbdc8ff12	-0.09814276
52	0x3d8943c9	0.06702382
53	0x3d06af8e	0.032882266
54	0x3e3694a2	0.17830136
55	0x3e1cda93	0.15317754
56	0x3dbf7b36	0.093496725
57	0xbd20ca3b	-0.039255362
58	0x3ccaa368	0.024736121
59	0x3de978e6	0.11400013
60	0xbe0a1fa9	-0.1348864
61	0xbdd921e9	-0.10602171
62	0x3e854434	0.26028597
63	0xbdc7f646	-0.0976377
64	0xbd987235	-0.07443658
65	0x3e44d58b	0.19222085
66	0xbd7a65c4	-0.061132208
67	0x3e2f8693	0.1714118
68	0x3e49507f	0.19659613
69	0x3d802353	0.062567376
70	0xbe2efb77	-0.17088114
71	0x3ba41477	0.0050073224
72	0x3dd461cb	0.10370215
73	0x3e079fdb	0.13244574
74	0xbd2ea995	-0.042642195
75	0x3e76011a	0.24023858
76	0x3e68761d	0.22701307
77	0x3e86fdf0	0.26365614
78	0x3d18d08c	0.03730826
79	0x3d5dd77d	0.054160584
80	0x3e61c173	0.22046451
81	0xbd31546b	-0.043293398
82	0xbe1da073	-0.15393238
83	0x3e1afae6	0.15134773
84	0xbcb7df61	-0.022445383
85	0xbc842547	-0.016131056
86	0x3e1ad42e	0.15120003
87	0xbe5b563c	-0.21419615
88	0x3ddca024	0.10772732
89	0xbd02a3df	-0.03189456
90	0xbe217e1b	-0.15770762
91	0x3d920085	0.07129005
92	0xbc5cf26b	-0.013485531
93	0x3c9687a6	0.01837523
94	0xbdebd096	-0.11514394
95	0xbdfc3c0a	-0.12316139
96	0xbc9d480c	-0.019199394
97	0x3dce6766	0.100783154
98	0xbe8185cf	-0.252974
99	0x3d1d08bf	0.03833842
100	0xbe4eabd6	-0.20182738
101	0x3d07d70c	0.03316407
102	0xbe0532e2	-0.13007692
103	0xbc357e33	-0.0110774515
104	0xbde35a8b	-0.11101254
105	0xbe5a7c85	-0.21336563
106	0x3d6ed013	0.058303904
107	0x3da8b4db	0.082376204
108	0x3d4b6e52	0.049665757
109	0xbe509b97	-0.20371853
110	0xbe591218	-0.21198308
111	0xbd350e3a	-0.04420302
112	0xbbeeb982	-0.007285298
113	0x3e431f4c	0.19054908
114	0x3e838d99	0.25693968
115	0xbe14a51d	-0.1451611
116	0x3d9cb592	0.07651819
117	0xbe75c05b	-0.23999159
118	0x3e7a6a3d	0.24454589
119	0x3c36bf00	0.011153936
120	0xbdd1a142	-0.102358356
121	0xbb9abf4b	-0.004722511
122	0xbe8a50fd	-0.27014914
123	0x3db85faa	0.090026215
124	0x3e38480e	0.17996237
125	0xbd02375b	-0.031791072
126	0xbe3da59a	-0.18520203
127	0x3c24af0c	0.0100515
128	0x3e6609f6	0.22464737
129	0xbe7182dc	-0.23585075
130	0x3e6f8ead	0.2339427
131	0xbde42992	-0.111407414
132	0xbe4adb1a	-0.19810143
133	0x3d5ed13c	0.05439876
134	0x3de5ad6a	0.11214717
135	0x3d5972a2	0.053087838
136	0x3e89d865	0.26922908
137	0x3dc8582e	0.09782444
138	0x3e26f09b	0.16302721
139	0xbe15ecfd	-0.14641185
140	0xbd8f6651	-0.07001937
141	0xbdfd958e	-0.12382041
142	0x3da102b7	0.07861846
143	0x3e6f0d1d	0.23344846
144	0xbda01b14	-0.07817665
145	0x3e65eb7b	0.2245311
146	0x3e46a739	0.19399728
147	0xbdb7b6d3	-0.08970418
148	0xbdcebae0	-0.10094237
149	0x3e77f96d	0.24216242
150	0xbe01e87b	-0.1268634
151	0x3e005fe4	0.1253658
152	0x3dd4e571	0.10395325
153	0xbd910cb9	-0.07082505
154	0x3dfd6cf2	0.12374295
155	0xbca940fc	-0.02066087
156	0x3c9ae0fc	0.018906109
157	0x3e64e44d	0.22352715
158	0x3deae2e3	0.114690565
159	0xbde0f93f	-0.1098504
160	0xbe2bd760	-0.16781378
161	0x3df10a14	0.117695004
162	0x3d58172b	0.05275647
163	0xbdc885b8	-0.0979113
164	0x3dea7c7c	0.11449525
165	0xbe81e0cf	-0.25366828
166	0x3e3572ab	0.17719524
167	0xbd1c0c9c	-0.038097963
168	0xbe2a3e1b	-0.16625254
169	0xbd0a79a6	-0.03380742
170	0xbe42f423	-0.19038443
171	0x3e160eea	0.14654127
172	0xbdd2ff89	-0.10302646
173	0x3e4739a3	0.1945558
174	0xbda123f1	-0.078681834
175	0xbe8735a9	-0.26408127
176	0x3d853a2b	0.06505235
177	0xbe7cd26c	-0.24689645
178	0x3d88c511	0.066782124
179	0xbcc2fbf3	-0.02380178
180	0x3e15815f	0.14600132
181	0x3e47dbf6	0.19517502
182	0x3e36742f	0.17817758
183	0x3c1f12ff	0.009709119
184	0x3b4950a4	0.0030718232
185	0x3daa92f5	0.08328811
186	0x3d8705d7	0.06592911
187	0xbd6aaad4	-0.05729182
188	0xbdba7d66	-0.09105949
189	0xbe953496	-0.29141682
190	0x3e7c02db	0.24610464
191	0x3e6effac	0.23339719
192	0x3e2ecab3	0.17069511
193	0x3dd7cece	0.10537492
194	0x3e42cc6f	0.19023298
195	0x3e250815	0.16116364
196	0x3e5c150d	0.21492405
197	0xbddfec0e	-0.10933696
198	0x3d4d9bc6	0.050197385
199	0x3be7d47f	0.007074892
200	0xbdd609aa	-0.10451062
201	0x3e3115e6	0.1729351
202	0xbdcd6297	-0.1002857
203	0x3e86f950	0.26362085
204	0xbe8008db	-0.25006756
205	0xbd2fc832	-0.04291553
206	0x3e50ae12	0.20378903
207	0x3e5b7db1	0.21434666
208	0xbdceab51	-0.1009127
209	0xbc2cd476	-0.0105487015
210	0xbe605a30	-0.21909404
211	0x3e84a83f	0.25909612
212	0x3bd684ea	0.0065466063
213	0xbdf268ca	-0.11836393
214	0xbc7d8f56	-0.0154760685
215	0xbe3e0f39	-0.18560494
216	0x3d210e1a	0.03932009
217	0xbe1727de	-0.14761302
218	0xbe3fdbee	-0.1873624
219	0xbdef19da	-0.11674853
220	0xbe71f727	-0.23629437
221	0x3cda7f18	0.026671931
222	0xbe68eefa	-0.22747412
223	0xbd0d9b14	-0.034571722
224	0xbdcd27cd	-0.10017357
225	0xbc17e1ff	-0.00927019
226	0x3e57060f	0.20998405
227	0xbbcdf678	-0.006285485
228	0xbe6e2be2	-0.23258927
229	0x3c1d57f6	0.009603491
230	0xbc0480bc	-0.008087333
231	0xbd18c066	-0.03729286
232	0x3e265728	0.16244185
233	0xbe671fac	-0.22570676
234	0xbdc92fa2	-0.09823538
235	0xbe0d21a2	-0.13782361
236	0xbd7c779f	-0.061637517
237	0x3e5736e5	0.21017034
238	0x3dc479b4	0.095935255
239	0x3d8a46e4	0.067518026
240	0x3cb4b940	0.02206099
241	0x3e399bfb	0.18125908
242	0x3cad6ecc	0.021170996
243	0x3ea212f4	0.31655085
244	0xbe1a8636	-0.1509026
245	0x3e30fb90	0.17283463
246	0xbc1d5c5c	-0.00960454
247	0x3a77e4c1	0.0009456389
248	0xbdfe8571	-0.12427796
249	0x3bd81b4d	0.0065950514
250	0x3d45619d	0.048188794
251	0xbaa97faf	-0.001293173
252	0x3e6e5cc7	0.23277579
253	0xbe7396ca	-0.2378799
254	0xbe049b20	-0.129498
255	0xbdd635d5	-0.104594864

mlp1.0.bias f4 [200]
0	0x3e16b74c	0.1471836
1	0x3e2830cd	0.16424866
2	0x3e19ecb5	0.15031703
3	0x3e5904b0	0.21193194
4	0x3e1ce3a1	0.15321209
5	0x3e825c05	0.2546083
6	0xbe63ea82	-0.22257426
7	0xbdf26a2c	-0.11836657
8	0xbd808e52	-0.062771454
9	0xbbff0fbe	-0.007783859
10	0xbd564b75	-0.052318055
11	0xbe6da87d	-0.23208804
12	0x3c8badbf	0.017050622
13	0xbe8ce75b	-0.2752026
14	0xbdd34f0b	-0.103178106
15	0x3e46a0b5	0.19397242
16	0xbe7c3a8e	-0.24631712
17	0xbda2ccb9	-0.07949204
18	0x3e3f7045	0.18695171
19	0x3c8907c8	0.016727343
20	0x3d862b14	0.06551185
21	0x3cfdc676	0.030978423
22	0xbd7058fb	-0.05867861
23	0x3e801b01	0.25020602
24	0xbe50cd73	-0.20390873
25	0x3e19daea	0.15024915
26	0xbe87db3a	-0.26534444
27	0xbd56ac20	-0.052410245
28	0xbe4ee9b8	-0.20206344
29	0x3e0de77d	0.13857837
30	0x3c544c25	0.012957607
31	0x3e5d4cc8	0.21611321
32	0xbdf4f5e1	-0.1196096
33	0x3e843d91	0.2582822
34	0xbd93a698	-0.072095096
35	0xbd2e7b14	-0.042597845
36	0x3e2570cb	0.16156308
37	0xbe8479c4	-0.2587415
38	0x3e35736a	0.17719808
39	0xbd4398c0	-0.047753096
40	0x3e90f67d	0.28313056
41	0xbdeaa93b	-0.114580594
42	0x3d8a22be	0.06744908
43	0x3b16a10f	0.0022984182
44	0xbe0c7bc0	-0.13719082
45	0xbe2ff14b	-0.1718189
46	0x3e15605e	0.14587542
47	0xbdb08cf0	-0.08620632
48	0xbe27e568	-0.16396105
49	0xbe33b2b4	-0.17548639
50	0xbda5d392	-0.080969945
51	0x3cc17d67	0.023619367
52	0x3ca5d377	0.020242436
53	0x3e34b16b	0.17645805
54	0xbe7de1b4	-0.2479313
55	0x3dd031cb	0.10165747
56	0xbe362ff2	-0.17791727
57	0xbd98755e	-0.07444261
58	0x3e105185	0.14093597
59	0xbdef79c4	-0.11693147
60	0x3d80391f	0.06260895
61	0xbe91d667	-0.28483889
62	0xbe506550	-0.20351148
63	0x3dd29477	0.10282224
64	0x3e809756	0.2511546
65	0xbe06a0f5	-0.13147338
66	0x3d91e4fa	0.07123752
67	0x3e704394	0.23463279
68	0xbe8ccbef	-0.2749934
69	0x3d81b5b4	0.06333485
70	0x3e95e169	0.29273537
71	0xbd6a760e	-0.057241492
72	0x3cb591a7	0.022164179
73	0x3e714698	0.23562086
74	0x3c62a3e4	0.01383302
75	0xbe100555	-0.14064534
76	0xbe83ef5e	-0.2576856
77	0xbd2729fa	-0.040811516
78	0xbdf403b1	-0.119147666
79	0x3d41c267	0.047304537
80	0xbcf27688	-0.029597536
81	0x3e32a402	0.17445377
82	0x3db88234	0.09009209
83	0xbda500db	-0.08056804
84	0x3da45e29	0.08025772
85	0x3e1b9bfb	0.1519622
86	0x3d25de60	0.040495276
87	0xbc83a063	-0.01606769
88	0xbe2d5caa	-0.1692988
89	0xbe0b203a	-0.13586512
90	0x3e929772	0.2863117
91	0x3e2e969e	0.17049643
92	0x3e045359	0.1292242
93	0x3db66a52	0.08906998
94	0xbda77479	-0.08176512
95	0xbe1a60d3	-0.15075998
96	0x3e40f0b4	0.18841821
97	0xbe87378f	-0.26409575
98	0xbe31caea	-0.17362562
99	0xbe465ed1	-0.19372107
100	0x3bf27312	0.0073989714
101	0x3e5dce27	0.21660672
102	0xbe03ffca	-0.12890545
103	0x3e80f4e8	0.2518685
104	0xbe43e128	-0.19128859
105	0xbe025c58	-0.12730539
106	0xbdcc6575	-0.09980289
107	0xbe38df05	-0.18053825
108	0x3e3347e2	0.1750789
109	0x3e0f4fbb	0.13995259
110	0x38a35455	7.788154e-05
111	0x3e820517	0.25394508
112	0x3d7cdc2b	0.061733406
113	0x3e61b898	0.22043073
114	0x3e098e24	0.13433129
115	0xbd00c23b	-0.031435233
116	0xbe818762	-0.252986
117	0xbe07cc1b	-0.13261454
118	0xbe5c9c27	-0.21543942
119	0x3ddb1ef8	0.10699266
120	0xbbde609a	-0.006786418
121	0xbdc9d820	-0.09855676
122	0xbddc692b	-0.10762247
123	0x3e691521	0.22761966
124	0xbe458528	-0.19289076
125	0x3d6e6e28	0.058210522
126	0xbbde9b7b	-0.006793437
127	0x3e4468b4	0.19180566
128	0x3e7e4593	0.24831228
129	0x3b871aa5	0.0041230493
130	0xbe319687	-0.17342578
131	0xbe1722f8	-0.14759433
132	0x3e68f543	0.2274981
133	0x3d7b2573	0.06131501
134	0x3e19f700	0.1503563
135	0xbc406396	-0.011742493
136	0x3e6d8b08	0.23197567
137	0xbda9813e	-0.08276604
138	0xbe054766	-0.13015518
139	0x3e65267b	0.2237796
140	0x3d708ba3	0.058726918
141	0xbe1e64cc	-0.15468138
142	0xbe7f6a01	-0.24942781
143	0xbe1518b3	-0.14560203
144	0x3e4118ea	0.1885716
145	0xbded9ad4	-0.11601797
146	0x3e4a5a81	0.19761087
147	0x3e2f2516	0.17103991
148	0xbd31ae58	-0.043379158
149	0xbd588a73	-0.05286641
150	0x3db1ae8b	0.086758696
151	0xbe2c3088	-0.16815388
152	0x3e287538	0.16450965
153	0xbc347352	-0.011013823
154	0xbde0b162	-0.10971333
155	0xbe8d722a	-0.27626163
156	0x3e32138e	0.17390272
157	0xbe836ef3	-0.25670585
158	0x3e4da85a	0.20083752
159	0x3dd0173c	0.101606816
160	0xbe2dbadd	-0.16965814
161	0xbe09b239	-0.13446893
162	0xbd4d8db3	-0.050183963
163	0x3cc71e52	0.02430645
164	0x3e1f50a7	0.1555811
165	0xbdd2a8f4	-0.102861315
166	0xbe24dbd4	-0.16099483
167	0x3e00e6ab	0.12587993
168	0x3e2132d8	0.15742052
169	0xbd8a31fc	-0.06747815
170	0x3da5728a	0.08078487
171	0xbdac876b	-0.084242664
172	0xbe07ff22	-0.13280919
173	0xbe0e42b0	-0.13892627
174	0x3e010e2e	0.12603065
175	0xbe525e1a	-0.2054371
176	0x3dc82cf8	0.09774202
177	0xbe1ce0ac	-0.1532008
178	0xbe5386f3	-0.20656948
179	0x3e8c6116	0.2741782
180	0x3d9732ef	0.07382762
181	0xbe234daf	-0.15947603
182	0x3dc6b3ec	0.09702286
183	0xbe2efeed	-0.17089434
184	0xbe32a4eb	-0.17445724
185	0x3e6dd0c2	0.23224166
186	0x3dff4ddb	0.124660216
187	0xbe63856e	-0.22218868
188	0x3e2ac559	0.16676845
189	0xbc8d9eec	-0.017287694
190	0x3dc98f94	0.098418385
191	0x3ddc291b	0.10750028
192	0xbdfde7d2	-0.12397732
193	0xbe1fa4dc	-0.15590233
194	0xbd56c51d	-0.052434076
195	0x3e280969	0.1640984
196	0xbd736eef	-0.059431966
197	0xbe92a492	-0.28641182
198	0xbe4dbc6b	-0.20091407
199	0x3e1d50f7	0.15362917

mlp1.2.weight f4 [100, 200]
0	0xbcb202e7	-0.0217299
1	0x3d0686ba	0.03284333
2	0x3d01391e	0.03154861
3	0xbd4891c6	-0.048967145
4	0x397991a9	0.00023800753
5	0x3d0698e7	0.032860663
6	0xbd026d78	-0.03184268
7	0xbd08ef97	-0.033431616
8	0x3cc2539e	0.023721512
9	0x3d4b0103	0.04956151
10	0x3d870e92	0.06594576
11	0xbd0498d4	-0.03237231
12	0xbc0f359e	-0.008740811
13	0xbd81a0eb	-0.06329521
14	0xbbf25ce0	-0.0073963255
15	0x3cdea749	0.027179377
16	0x3d87bd42	0.06627895
17	0x3c7fc5b3	0.0156111
18	0x3d4813d3	0.04884703
19	0x3d39c9f0	0.0453586
20	0xbd8c75da	-0.06858416
21	0x3aee28a1	0.0018170067
22	0xbd725834	-0.05916615
23	0xbd82d242	-0.0638776
24	0xbc202f73	-0.009776938
25	0xbcb13d40	-0.021635652
26	0xbbcd16e6	-0.006258833
27	0xbd23087e	-0.03980302
28	0xbcea1280	-0.028573275
29	0xbcf8486b	-0.03030797
30	0xbb9a9736	-0.004717733
31	0xbd1215d8	-0.035665363
32	0xbd5a6f35	-0.05332871
33	0xbca84ed5	-0.020545403
34	0xbd6f399d	-0.058404554
35	0xbd607c57	-0.05480608
36	0x3cfff3f1	0.03124425
37	0xbd678d27	-0.056531098
38	0xbcd5735f	-0.02605599
39	0xbd784359	-0.060611103
40	0x3c307152	0.010769205
41	0x3c82e249	0.015977042
42	0x3ce03ee6	0.027373742
43	0x3cde70aa	0.027153332
44	0xbcbcf345	-0.023065219
45	0xbd393cf7	-0.045224156
46	0x3cd280da	0.025696207
47	0x3cae9ce3	0.021315044
48	0xbd8e1fc6	-0.06939654
49	0xbc26af91	-0.010173694
50	0xbd22007b	-0.03955124
51	0x3d96b838	0.07359356
52	0x3d750abf	0.0598247
53	0xbce00bd8	-0.027349398
54	0x3d11cdd2	0.035596676
55	0xbd83b51b	-0.064310275
56	0x3d4015cc	0.046895787
57	0xbd68efb4	-0.056869224
58	0xbb0eefb2	-0.002181035
59	0xbd8b123f	-0.067905895
60	0xbd23ba2a	-0.03997246
61	0x3cd9470d	0.026523137
62	0xbd2dfc63	-0.042477023
63	0xbcf4546a	-0.029825408
64	0x3d87bcf5	0.066278376
65	0xbd261913	-0.040551256
66	0x3cce6bb0	0.025197834
67	0xbcbccf61	-0.023048105
68	0xbd077b84	-0.033076778
69	0xbc8f7956	-0.017513912
70	0x3cd17723	0.025569504
71	0x3bf6f690	0.0075367168
72	0xbd077530	-0.033070743
73	0x3d85deaa	0.065366104
74	0xbd7b49fb	-0.06134985
75	0xbd85497b	-0.06508156
76	0xbcd4d5d1	-0.025980862
77	0x3d12c0b6	0.035828315
78	0x3d48b18b	0.048997443
79	0x3d637558	0.05553183
80	0x3d69a531	0.057042304
81	0x3cd4f89b	0.02599745
82	0xbb8088cc	-0.0039225575
83	0x3d6565b2	0.056005187
84	0x3c1432f6	0.009045353
85	0x3cbbcf4a	0.022925992
86	0xbc30d4e6	-0.010792946
87	0xbb161c71	-0.0022905136
88	0xbd30db46	-0.043177865
89	0xbd45e261	-0.048311595
90	0x3d834bbb	0.06410929
91	0xbcfedf5b	-0.031112364
92	0x3d5a1fe7	0.05325308
93	0x3cb9670c	0.022632144
94	0xbd8a824e	-0.06763135
95	0xbd80fbdf	-0.062980406
96	0xbc95a59a	-0.018267442
97	0x3d09a32d	0.033602882
98	0xbcecc452	-0.028902207
99	0x3d1103a5	0.035403866
100	0x3cf94280	0.030427217
101	0xbd1c2b95	-0.0381275
102	0xba3f4fad	-0.00072979444
103	0x3d2e03f5	0.042484242
104	0xbd08a9c6	-0.033365034
105	0xbc3a689b	-0.011377479
106	0x3d37904e	0.044815354
107	0xbc9ae32d	-0.018907154
108	0x3cb74371	0.022371026
109	0x38654302	5.466026e-05
110	0x3d5b000f	0.053466853
111	0x3c1e5c26	0.009665525
112	0x3d4b9998	0.049707025
113	0x3d8da29a	0.069157794
114	0x3d8d6c56	0.06905429
115	0xbce91950	-0.028454453
116	0x3cc63ad4	0.024197973
117	0x3bd8153f	0.0065943296
118	0xbcc12551	-0.023577364
119	0xbc6fe74f	-0.014642551
120	0xbc0ca86f	-0.00858508
121	0xbcfa7655	-0.030574003
122	0x3d192277	0.037386384
123	0xbd1c0dae	-0.038098983
124	0x3d7a5309	0.061114345
125	0x3d8b9dee	0.06817232
126	0x3bcb5bdb	0.0062060184
127	0x3c802bb9	0.015645849
128	0x3d7eb350	0.062182724
129	0x3c6124ef	0.013741716
130	0xbbb2cf52	-0.0054568434
131	0x3d497253	0.049181294
132	0xbcfde8e4	-0.03099484
133	0x38bbb0a4	8.949757e-05
134	0xbd429c04	-0.04751207
135	0x3c19f645	0.009397094
136	0xbc1271c3	-0.008938256
137	0x3d1840f2	0.03717131
138	0x3d206b56	0.039164864
139	0xbd823b41	-0.06358958
140	0xbd88332d	-0.06650386
141	0x3d88213a	0.066469625
142	0x3ce22929	0.027607517
143	0xbd5b6bf6	-0.053569756
144	0xbc6b6f5b	-0.014369811
145	0x3c41761c	0.011807945
146	0xbcd88c2b	-0.026434025
147	0xbd2a5329	-0.041583214
148	0xbd19f8a4	-0.037590638
149	0xbd903955	-0.07042185
150	0xbc82735d	-0.01592415
151	0xbd15f917	-0.036614504
152	0xbc12ff07	-0.008971936
153	0xbd3a9c2c	-0.045559093
154	0xbd673516	-0.05644711
155	0xbd75e3e0	-0.06003177
156	0x3d0e6e1d	0.03477298
157	0x3ced7355	0.028985659
158	0x3c374a2e	0.011187119
159	0xbd6a8218	-0.057252973
160	0xbcedac8a	-0.029012937
161	0x3c976fee	0.01848599
162	0x3d688fac	0.05677764
163	0xbd1d425b	-0.03839336
164	0xbd1e21b2	-0.038606353
165	0xbd23ca80	-0.03998804
166	0x3c9514c1	0.018198373
167	0x3c6575d2	0.014005141
168	0x3c9fca75	0.019505719
169	0x3d849bcb	0.06475028
170	0xbd095600	-0.03352928
171	0x3be6b2c7	0.007040355
172	0x3d28d74a	0.04122094
173	0xba480ee5	-0.0007631614
174	0x3ce64dd6	0.028113287
175	0xbba6529c	-0.005075766
176	0xbc223984	-0.009901408
177	0xbd5bcb2f	-0.053660568
178	0x3c896f7b	0.01677679
179	0xbd748051	-0.059692685
180	0xbd3206ca	-0.043463506
181	0xbd5983ef	-0.053104337
182	0x3d5d5cbb	0.054043513
183	0xbd8ebc0a	-0.06969459
184	0xbcafb2b5	-0.021447519
185	0x3d22f33f	0.03978276
186	0xbcae6e71	-0.021292897
187	0x3c792c61	0.015208335
188	0x3d938ce7	0.07204609
189	0x3d604956	0.05475744
190	0xbc5f49c2	-0.013628425
191	0x3c1d4074	0.009597886
192	0xba9c27bd	-0.0011913698
193	0x3b7aee65	0.0038289067
194	0x3d8cdf23	0.068784975
195	0xbd4b5d42	-0.049649484
196	0xbd86d7d8	-0.06584138
197	0x3d2ae5a5	0.041722912
198	0xbd570f8d	-0.052505065
199	0xbbb6a120	-0.005573407
200	0xbd1a08cc	-0.037606046
201	0x3cd014e9	0.025400596
202	0x3b84221e	0.0040323874
203	0xbd91f3de	-0.07126592
204	0x3d957dba	0.07299371
205	0xbd7d05bb	-0.061773043
206	0xbd915c49	-0.0709768
207	0xbd74d7a0	-0.05977595
208	0xbc190aa6	-0.009340918
209	0xbd289e76	-0.041166745
210	0x3d939d17	0.07207697
211	0xbd38d56e	-0.045125417
212	0xbca40d32	-0.020025823
213	0xbd270e9c	-0.040785417
214	0xbd8519d7	-0.06499069
215	0xbc1d6a50	-0.009607866
216	0x3d3904b1	0.04517049
217	0x3cc0272f	0.023456184
218	0x3d34f62d	0.044180084
219	0xbd0fc23e	-0.035097353
220	0xbd45c99c	-0.048287973
221	0xbd8c07ef	-0.06837451
222	0x3d7babeb	0.06144325
223	0xbc0cc341	-0.008591474
224	0xbd3f2f01	-0.046675686
225	0x3cf77e34	0.030211546
226	0x3b731bf3	0.0037095516
227	0x3bf1fb4a	0.0073846923
228	0x3cf70e97	0.030158324
229	0xbd9cd770	-0.07658279
230	0x3d3a61fc	0.0455036
231	0xbcddd01e	-0.027076777
232	0x3d2a44be	0.041569464
233	0x3da445f4	0.08021155
234	0x3d05e48a	0.032688655
235	0x3ce27ec7	0.027648343
236	0xbd6fa8a0	-0.058510423
237	0xbbb77ee0	-0.0055998415
238	0x3c5551a6	0.013019955
239	0xbc4d9cff	-0.012549638
240	0xbd2cecf9	-0.042218182
241	0xbd48161e	-0.048849218
242	0xbd8d3fc8	-0.06896931
243	0xbba8b43f	-0.00514844
244	0xbd03e61e	-0.03220188
245	0x3cb904e3	0.022585338
246	0xbcebcbe2	-0.028783742
247	0x3bc8f93e	0.0061332276
248	0xbd1f1782	-0.03884078
249	0x3cfeae47	0.031088961
250	0xbcd59463	-0.026071733
251	0xbd45a232	-0.048250385
252	0xbd04eb0b	-0.032450717
253	0x3cec929a	0.028878499
254	0x3d273854	0.040825203
255	0x3cfadcd3	0.030622875

mlp1.2.bias f4 [100]
0	0xbd5afe1d	-0.053464998
1	0xbd8066b6	-0.062695906
2	0xbd16fef9	-0.036864255
3	0x3d338161	0.043824557
4	0xbd0b24b5	-0.033970553
5	0xbd299849	-0.041404996
6	0x3d8204d0	0.06348574
7	0x3d4f6624	0.05063452
8	0x3cfe879c	0.031070523
9	0xbd541a4a	-0.051782884
10	0x3b5234a5	0.0032074836
11	0xbcf17a1e	-0.029477175
12	0x3cf2963a	0.02961265
13	0x3d17baf7	0.037043538
14	0xbd08296a	-0.03324262
15	0xbd1c717b	-0.03819416
16	0xbc781d80	-0.015143752
17	0x3b9f0ed6	0.0048540635
18	0x3d3ed749	0.04659203
19	0x3c8fcaed	0.017552817
20	0xbb9a5d71	-0.004710846
21	0xbd4ec22b	-0.05047814
22	0xbd151017	-0.036392298
23	0x3d615412	0.055011816
24	0x3d866948	0.065630496
25	0xbca68f69	-0.020332055
26	0x3d549928	0.051903874
27	0xbd631af4	-0.055445626
28	0x3ba97645	0.0051715695
29	0xbc0f432d	-0.008744043
30	0xbd31fe43	-0.043455373
31	0x3d094dd4	0.03352149
32	0xbcff3cb6	-0.031156879
33	0xbd4afda2	-0.04955829
34	0x3c7909e3	0.015200111
35	0xbd211cbf	-0.039334055
36	0xbd4e1696	-0.05031451
37	0x3d1dbaae	0.03850811
38	0x3cc310a9	0.023811655
39	0xbd5c19e5	-0.053735632
40	0xbd35b57f	-0.04436254
41	0xbd6abb5e	-0.057307594
42	0xbd32b0d9	-0.043625686
43	0x3d740028	0.05957046
44	0x3d148572	0.036260076
45	0xbbc36920	-0.0059634596
46	0x3d5762a9	0.052584324
47	0xbd62b5a7	-0.05534902
48	0xbd2ff85b	-0.04296146
49	0x3d4170d5	0.047226746
50	0x3bef56be	0.0073040416
51	0x3d86d455	0.06583468
52	0x3d466418	0.0484353
53	0x3d675c4d	0.05648451
54	0xbd149ffa	-0.036285378
55	0xbd6ba29a	-0.057528116
56	0xbcae8625	-0.0213042
57	0x3c01c87e	0.007921336
58	0x3d1f4b7f	0.038890358
59	0x3d44e4e2	0.048069842
60	0x3d322607	0.043493297
61	0x3cdba6b3	0.026812887
62	0x3cc2730b	0.023736497
63	0x3d594c86	0.053051494
64	0xbbd49e45	-0.0064885938
65	0xbd3e9c81	-0.046535973
66	0x3d4c26a0	0.049841523
67	0xbd8264fa	-0.06366916
68	0x3c11b481	0.008893133
69	0x3a8fb68c	0.0010964437
70	0xbcb52867	-0.022113992
71	0x3d6c5f99	0.057708357
72	0xbd0e3c5f	-0.034725543
73	0x3d7609c0	0.060067892
74	0xbd1b6ced	-0.037945677
75	0xbcc61286	-0.024178755
76	0xbd9262af	-0.07147729
77	0xbd7770ba	-0.06041024
78	0x3d53cbd7	0.05170807
79	0x3cb17116	0.021660369
80	0x3d586ebf	0.05283999
81	0x3d888813	0.06666579
82	0xbb1376bc	-0.002250119
83	0xbc50f49e	-0.012753634
84	0xbd724fe9	-0.05915824
85	0xbcb5bebc	-0.022185676
86	0x3d025951	0.03182346
87	0x3b7a4354	0.0038187103
88	0x3d9040bf	0.07043599
89	0x3ce8fa8b	0.02843978
90	0xbd429877	-0.047508683
91	0x3d7508cf	0.059822854
92	0xbd60bd50	-0.054868042
93	0x3d6a4aa2	0.05720008
94	0x3d3c9af4	0.046046212
95	0x3cf09069	0.029365735
96	0xbc858c57	-0.01630227
97	0xbd2f419e	-0.042787187
98	0x3d959882	0.07304479
99	0x3d048751	0.03235561

mlp2.0.weight f4 [100, 100]
0	0x3c91991b	0.017773202
1	0xbd7ec92a	-0.062203564
2	0x3c5d7c85	0.013518457
3	0x3cfa020d	0.030518556
4	0xbdb96803	-0.09053042
5	0x3d951853	0.0728003
6	0x3d9a290a	0.07527359
7	0x3c995836	0.01871882
8	0x3dc4d7a5	0.096114434
9	0x3d922e6c	0.071377605
10	0xbd07f67a	-0.033194043
11	0x3d6b0ff1	0.05738825
12	0x3d48a83e	0.048988573
13	0xbd946bd9	-0.07247133
14	0x3cefac1a	0.02925687
15	0x3c3ad48e	0.011403216
16	0xbdb15ff1	-0.086608775
17	0xbd99bfab	-0.07507261
18	0xbb25cf76	-0.0025300658
19	0x3d4a1fac	0.04934661
20	0xbc94e273	-0.018174386
21	0xbdb9a7cc	-0.09065208
22	0x3b93b81a	0.0045080306
23	0xbd3633ce	-0.044483
24	0x3dc70a58	0.0971877
25	0xbd8d4340	-0.068975925
26	0xbda70a91	-0.08156312
27	0xbd0891a2	-0.03334201
28	0xbcdbf49f	-0.026850043
29	0xbd1e11d9	-0.03859124
30	0xbda4a41a	-0.080391124
31	0xbd53def4	-0.051726297
32	0xbd103937	-0.035210814
33	0xbd85b78c	-0.065291494
34	0x3c1909ef	0.009340747
35	0x3d8be757	0.06831234
36	0xbd94cdc0	-0.07265806
37	0x3cf78049	0.030212538
38	0xbd16e2ea	-0.036837496
39	0x3da03e43	0.078243755
40	0xbd5912b0	-0.052996337
41	0x3da25029	0.079254456
42	0x3c917dec	0.01776024
43	0x3c99c2c3	0.018769627
44	0xbca1199f	-0.019665537
45	0x3caedc00	0.021345139
46	0x3dc7fa2a	0.09764512
47	0xbc46e123	-0.012138638
48	0xbd619f93	-0.055083822
49	0xbdc511b4	-0.09622517
50	0xbd0fc817	-0.03510293
51	0x3c9e8ccd	0.019354248
52	0x3dbc3028	0.091888726
53	0x3d83fbde	0.06444524
54	0xbda7de81	-0.08196736
55	0x3dafea04	0.08589557
56	0xbdbe027b	-0.09277817
57	0xbd1e4f50	-0.038649857
58	0x3b613f2e	0.0034369933
59	0x3d990a3d	0.07472656
60	0xbcfc3e62	-0.030791465
61	0x3db33f30	0.087522864
62	0xbc4a7a8f	-0.012358322
63	0x3d47f238	0.048814982
64	0x3c9d7ea1	0.01922542
65	0x3dc0277b	0.0938253
66	0xbcf8695d	-0.030323679
67	0x3d8f1a43	0.06987431
68	0x3da508fc	0.08058354
69	0x3d4057b0	0.046958625
70	0xbbaac499	-0.0052114245
71	0xbd1ff803	-0.03905488
72	0x3aa26cf4	0.001239209
73	0xbd329a69	-0.04360429
74	0x3cbbea84	0.022938974
75	0xbc77ca6a	-0.015123943
76	0x3d6fa515	0.058507044
77	0x3d13f557	0.036122646
78	0xbd8970dc	-0.06710979
79	0x3b429d5d	0.0029695847
80	0x3da60cdf	0.08107924
81	0x3d4bbdf1	0.04974169
82	0xbcc53e5e	-0.02407759
83	0xbd8ca9bd	-0.068683125
84	0x3cda1475	0.026621083
85	0x3cbca554	0.023028053
86	0xbd54c574	-0.05194612
87	0xbda8794d	-0.08226261
88	0xbd7099b3	-0.05874033
89	0x3d756493	0.05991037
90	0xbd36f133	-0.04466362
91	0x3d46c5a0	0.048528314
92	0x3dbbaa48	0.09163338
93	0xbdc191cf	-0.09451639
94	0x3c9bab0f	0.019002466
95	0x3d9b6b9c	0.07588884
96	0x3dcac9a7	0.099017434
97	0x3d49cb9a	0.049266435
98	0xbdb5d465	-0.08878402
99	0xbce18cee	-0.02753302
100	0xbdccb561	-0.09995533
101	0xbc0a9cdd	-0.008460251
102	0x3ce39a1d	0.027783448
103	0x3c95694b	0.018238684
104	0xbc7a8eec	-0.015292864
105	0xbd426853	-0.047462773
106	0xbb3e3979	-0.0029025956
107	0xbbb1ac3e	-0.005422144
108	0xbd6d4ef3	-0.05793662
109	0x3c6d512f	0.014484688
110	0x3da22299	0.07916755
111	0xbd15b367	-0.036548045
112	0xbcb697ab	-0.022289118
113	0xbc4b3a08	-0.012403972
114	0x3c67fe54	0.014159758
115	0x3a92347f	0.0011154561
116	0x3ddd170b	0.10795411
117	0xbd03d5ff	-0.032186504
118	0x3bbeae47	0.0058191153
119	0x3dae4fbe	0.08511303
120	0x3c38cc40	0.011279166
121	0xbe02327a	-0.12714568
122	0xbdb5a19b	-0.088687144
123	0x3b9ed45d	0.004847093
124	0x3e176d24	0.14787728
125	0xbda0e03e	-0.07855271
126	0x3d6dbae3	0.058039557
127	0xbd962c60	-0.073326826
128	0x3d7cc2ad	0.061709095
129	0xbd2059c9	-0.039148126
130	0x3c8d602d	0.017257774
131	0xbdcdf47a	-0.10056396
132	0xbd0ffb6b	-0.03515188
133	0x3d31f88e	0.04344993
134	0x3d04740d	0.032337237
135	0xbd57f8b0	-0.0527274
136	0xbdb1c6b3	-0.08680477
137	0x3d457c93	0.048214506
138	0xbc8cafef	-0.017173735
139	0x3d9a1a41	0.07524539
140	0x3c905a92	0.017621312
141	0x3dcf791f	0.10130524
142	0x3d940b84	0.07228759
143	0xbc9a57de	-0.018840726
144	0xbc97d5bf	-0.01853454
145	0xbd6ec92a	-0.058297314
146	0x3d8c2dbb	0.0684466
147	0x3d873e2e	0.06603657
148	0x3d94e9f9	0.07271189
149	0x3cfd427b	0.03091549
150	0xbd82ba61	-0.06383205
151	0x3cbefe11	0.023314508
152	0xbd392625	-0.045202393
153	0x3d7565d4	0.059911564
154	0xbdcdb94b	-0.100451075
155	0xbb8ce1fe	-0.0042994013
156	0xbc227cea	-0.009917477
157	0xbd906270	-0.070500255
158	0x3e1dad0b	0.15398042
159	0x3d79ed4b	0.061017316
160	0x3d6f98a5	0.058495183
161	0x3d9ea8fb	0.07747074
162	0xbd08d6b3	-0.033407878
163	0x3dad2929	0.08455116
164	0xbe0c62f6	-0.13709626
165	0x3e2146b8	0.15749633
166	0xbd0f7145	-0.03502013
167	0xbd8561c7	-0.0651279
168	0x3c5d1091	0.013492719
169	0x3bc9e4c4	0.006161304
170	0x3d465dd3	0.04842932
171	0x3dced506	0.10099225
172	0xbdc90a8b	-0.09816464
173	0x3d42b4fb	0.047535878
174	0x3c201c4c	0.0097723715
175	0xbcb2e293	-0.021836555
176	0x3d90b825	0.07066373
177	0x3dad9a1f	0.08476662
178	0x3df2303c	0.11825606
179	0x3d3fc4b8	0.046818465
180	0x3dfe1b22	0.12407519
181	0xbcfc33d9	-0.030786442
182	0xbd92d0b7	-0.071687154
183	0xbda52e54	-0.08065477
184	0x3d8982af	0.06714379
185	0xbdf88edd	-0.12136624
186	0x3d87379e	0.06602405
187	0x3da2114b	0.079134546
188	0x3d21c14e	0.03949099
189	0x3da5a82c	0.08088717
190	0x3cfc105e	0.030769523
191	0x3c978b5d	0.01849907
192	0xbd958796	-0.073012516
193	0x3da1e5ec	0.07905182
194	0xbdc5fd4d	-0.09667454
195	0xbdd1ec0e	-0.10250102
196	0xbd13c767	-0.036078837
197	0xbe1db42b	-0.1540076
198	0x3da67d1d	0.08129332
199	0x3c851d8a	0.016249437
200	0x3d8041fc	0.062625855
201	0xbc0b3f2f	-0.008498951
202	0x3b7ec995	0.0038877476
203	0x3d56250f	0.052281436
204	0xbd6e6cd1	-0.058209244
205	0xbca07aad	-0.019589746
206	0xbd003ce0	-0.031308055
207	0xbd3356d0	-0.043783963
208	0x3dabbfc8	0.08386189
209	0x3ca7dfa4	0.020492382
210	0xbdb64ff9	-0.08901972
211	0x3d73ffe6	0.059570216
212	0x3ccd31e9	0.025048213
213	0xbd7a7f53	-0.061156582
214	0x3bc83f6b	0.0061110756
215	0xbcffdfed	-0.031234706
216	0x3d2df300	0.04246807
217	0x3c99edc2	0.01879013
218	0x3d8dadc9	0.069179125
219	0x3af7d1e2	0.0018907154
220	0xbd482777	-0.04886576
221	0xbdb3390f	-0.087511174
222	0x3d8cb6ab	0.06870779
223	0xbddc1ff1	-0.1074828
224	0xbce2f185	-0.027703056
225	0xbd9a7c2e	-0.07543217
226	0xbdcbc5a7	-0.099498086
227	0xba91e770	-0.0011131596
228	0x3cf1b927	0.029507233
229	0x3db8e477	0.09027951
230	0x3dc9b2cf	0.09848558
231	0x3d8b2905	0.06794933
232	0xbd89c614	-0.067272335
233	0xbd627c50	-0.055294335
234	0xbdb9f310	-0.090795636
235	0x3c8662c7	0.016404523
236	0x3d94b165	0.07260398
237	0x3da0daa6	0.07854204
238	0x3d84ee73	0.06490793
239	0xbb5153fe	-0.0031940932
240	0xbd0d4ab6	-0.034495078
241	0xbd50a8a6	-0.050942086
242	0xbd6b2bb8	-0.05741474
243	0xbcd48e86	-0.025946867
244	0x3d0a19c4	0.03371598
245	0x3d1e63e4	0.038669482
246	0xbd91f802	-0.07127382
247	0xbccecf02	-0.025245193
248	0xbcf3c5fb	-0.02975749
249	0x3d03c687	0.032171752
250	0xbd7d8214	-0.06189163
251	0xbd0c7b72	-0.034297414
252	0x3db37feb	0.08764633
253	0x3d69ffcd	0.057128716
254	0x3d8c6bd8	0.06856507
255	0x3cdb9c13	0.02680782

mlp2.0.bias f4 [100]
0	0x3dad0d4a	0.084498
1	0xbd04486e	-0.032295637
2	0xbcc74fd9	-0.024330067
3	0xbce7d69b	-0.028300574
4	0xbda5f64e	-0.081036195
5	0x3d1e55e0	0.038656116
6	0xbc85bcdc	-0.016325407
7	0x3b3a6de6	0.0028446852
8	0x3dd93498	0.106057346
9	0x3da52afe	0.08064841
10	0xbdb11883	-0.08647253
11	0xbd9e9e99	-0.07745094
12	0x3df11bb4	0.11772862
13	0x3cc94564	0.02456922
14	0x3da98600	0.082775116
15	0xbda95bfc	-0.08269498
16	0xbd875d9d	-0.06609652
17	0xbd889bc3	-0.06670334
18	0x3d116c3d	0.035503615
19	0x3dce9477	0.10086911
20	0x3bc77703	0.0060871853
21	0xbd0111f8	-0.031511277
22	0x3d8c8fa9	0.068633385
23	0xbd27a6a9	-0.040930424
24	0x3c01f0db	0.00793096
25	0xbd36f1d0	-0.044664204
26	0xbb48112c	-0.0030527813
27	0x3d8f9959	0.070116706
28	0xbdb48b7a	-0.088156655
29	0xbc6c9588	-0.014439948
30	0x3d240c7c	0.04005097
31	0x3d0681ec	0.032838747
32	0x3db07092	0.08615221
33	0xbcea501e	-0.028602656
34	0x3d9f4694	0.077771336
35	0xbc6fc10a	-0.014633426
36	0xbda4986a	-0.08036883
37	0x3cafeeda	0.021476198
38	0xbcf3585e	-0.029705223
39	0x3ccb82be	0.024842616
40	0x3d3a1576	0.045430623
41	0xbd979930	-0.07402265
42	0xbda35904	-0.07975963
43	0xbce803cd	-0.028322125
44	0xbd4d8e18	-0.05018434
45	0xbd132c86	-0.035931133
46	0xbdd49a9f	-0.10381054
47	0xbd801890	-0.06254685
48	0x3ce670bf	0.028129933
49	0x3c8c8c08	0.017156616
50	0x3d65afda	0.05607591
51	0xbbd3eb29	-0.0064672423
52	0x3c843e8a	0.016143102
53	0xbb90d27d	-0.0044196234
54	0x3dd401ec	0.10351929
55	0xbd4c033f	-0.049807783
56	0xbc9c1dda	-0.019057203
57	0x3d7878a1	0.060661916
58	0xbd9d0caa	-0.07668431
59	0xbdb07965	-0.08616904
60	0x3db2fd22	0.087396875
61	0xbd122667	-0.035681155
62	0x3ca2b17e	0.019860025
63	0x3d44946f	0.04799312
64	0x3bcde42a	0.006283303
65	0xbd9b112d	-0.075716354
66	0x3dbdeefa	0.09274097
67	0x3d4a0b45	0.049327154
68	0x3d1c7600	0.03819847
69	0x3df35f56	0.11883418
70	0x3dcbf0e1	0.099580534
71	0x3d830bef	0.063987605
72	0x3d3a666d	0.045507837
73	0x3dab1025	0.08352689
74	0xbcac612a	-0.021042425
75	0xbca97f1c	-0.020690493
76	0x3d60f801	0.054924015
77	0x3dab0b2a	0.08351739
78	0xbc4720db	-0.012153829
79	0x3d2b8692	0.041876383
80	0xbd9e22fb	-0.07721516
81	0xbd0a588c	-0.03377585
82	0xbdc1056b	-0.094248615
83	0xbd8625ed	-0.065502025
84	0x3c220883	0.009889725
85	0xbd9fcdea	-0.07802947
86	0x3d0e9b57	0.034816112
87	0xbd26b6aa	-0.040701546
88	0x3c7e7d89	0.01553286
89	0xbcbad68d	-0.022807384
90	0xbd556721	-0.052100305
91	0x3d9a8763	0.07545354
92	0x3cf207b9	0.029544698
93	0x3d9650a5	0.073396005
94	0x3d2d4fa2	0.042312272
95	0xbcee4af7	-0.02908848
96	0xbdc1eeda	-0.094693854
97	0x3d2c6e00	0.04209709
98	0xbcab2b6b	-0.020894727
99	0xbccc541a	-0.024942447

mlp2.2.weight f4 [50, 100]
0	0xbcc013a7	-0.023446871
1	0xbda4bea5	-0.08044175
2	0x3d9715fd	0.07377241
3	0xbd3d6223	-0.04623617
4	0x3da5c8f5	0.0809497
5	0x3d3d2d6d	0.0461859
6	0x3d92b58d	0.07163534
7	0xbd887085	-0.066620864
8	0x3dde65ab	0.108592354
9	0x3de05d11	0.10955251
10	0x3c812bcc	0.015767954
11	0x3d59586b	0.053062838
12	0xbdd6013d	-0.10449455
13	0xbc9ec0cc	-0.019379042
14	0xbbcf2934	-0.0063220505
15	0xbdd2562f	-0.102703445
16	0x3bb38800	0.005478859
17	0x3cc8e98a	0.024525423
18	0xbda7756f	-0.081766956
19	0xbd18e8b6	-0.037331305
20	0x3d34a659	0.044103954
21	0x3d336f39	0.043807242
22	0xbdc0fa9d	-0.09422801
23	0xbd5e3bd0	-0.05425626
24	0xbda6d9d1	-0.08147014
25	0x3da5d1b5	0.08096639
26	0xbd879377	-0.066199236
27	0x3d26163d	0.04054855
28	0xbd4597f3	-0.048240613
29	0xbe2f63a3	-0.17127852
30	0x3dbf553d	0.0934243
31	0x3d7f6066	0.062347792
32	0x3d029344	0.031878725
33	0x3dd8cb2a	0.105856255
34	0x3ce6f51d	0.028193051
35	0xbc83dfb1	-0.016097875
36	0xbd4048c1	-0.046944384
37	0xbd37a97f	-0.04483938
38	0xbd4f160d	-0.05055814
39	0x3c17e4fe	0.009270905
40	0x3da4c22d	0.080448486
41	0xbda01fce	-0.07818566
42	0xbd501122	-0.05079759
43	0xbd1cfcb3	-0.03832693
44	0x3bf15c32	0.007365727
45	0xbdbed3eb	-0.09317764
46	0xbd9fc01d	-0.078003146
47	0x3c0c0394	0.008545775
48	0x3d044d83	0.032300483
49	0xbdfbe303	-0.122991584
50	0xbbda1f5d	-0.006656571
51	0x3d997712	0.07493414
52	0x3d121417	0.03566369
53	0x3d0732c5	0.033007402
54	0xbe45020f	-0.19239067
55	0x3d7cbe40	0.061704874
56	0xbdc95bd8	-0.09831971
57	0x3d8ae923	0.067827486
58	0x3c38a501	0.011269809
59	0x3d3b99ea	0.04580108
60	0xbd610cb9	-0.054943774
61	0x3dafd7c2	0.085860744
62	0x3c6e0fc2	0.014530124
63	0xbd5364dc	-0.05160986
64	0xbd8d7d74	-0.06908694
65	0xbdd0ac6b	-0.10189136
66	0xbe3b2286	-0.18274888
67	0x3cfeac32	0.031087968
68	0x3d7fa814	0.06241615
69	0xbd086879	-0.033302758
70	0x3d01ead6	0.031718098
71	0xbcb31bb5	-0.021863798
72	0xbdbcf5da	-0.0922658
73	0x3d20f07a	0.039291836
74	0x3d02970b	0.031882327
75	0x3da7dde9	0.08196623
76	0xbd50eb46	-0.051005624
77	0x3cdeee09	0.027213113
78	0x3dbb73d5	0.091529526
79	0xbdd0bd7d	-0.10192392
80	0x3b059e89	0.0020388684
81	0x3d2de39f	0.042453405
82	0x3db36e23	0.08761241
83	0x3db17dfc	0.08666608
84	0xbc9215f7	-0.01783274
85	0x3d70ea0c	0.058816954
86	0xbd0bd653	-0.034139942
87	0xbe0ca846	-0.13736066
88	0x3da989e9	0.082782574
89	0xbd866cf3	-0.06563749
90	0x3bcae79b	0.0061921603
91	0xbd30e91c	-0.04319106
92	0x3d80ee4e	0.06295453
93	0x3d101aa3	0.035181653
94	0x3cb18167	0.02166815
95	0x3d95f788	0.073226035
96	0xbdd50af3	-0.10402479
97	0x3daaf2a0	0.08347058
98	0x3cdb3e0c	0.026762985
99	0xbd994526	-0.07483892
100	0x3d30de2e	0.043180637
101	0xbcd675d3	-0.02617923
102	0x3cb6d4ff	0.022318361
103	0xbd9ab4b4	-0.07553998
104	0x3d7f07ca	0.062263288
105	0x3cc869b3	0.024464464
106	0xbdcc42a5	-0.09973649
107	0x3d8e54cb	0.06949767
108	0xbd5ce0ff	-0.05392551
109	0x3b3f5cad	0.0029199526
110	0x3d942160	0.07232928
111	0x3cbb2671	0.022845479
112	0xbd81d34c	-0.0633913
113	0x3d524ba4	0.051341668
114	0x3daa6e1b	0.08321782
115	0xbda4691e	-0.08027862
116	0x3b235933	0.0024924993
117	0x3d612385	0.054965515
118	0xbd2dd598	-0.042440027
119	0xbd285e44	-0.041105524
120	0xbc92f999	-0.017941283
121	0xbd46b6f6	-0.04851433
122	0xbca4c352	-0.020112667
123	0xbd8240e5	-0.06360034
124	0x3d5165e8	0.051122576
125	0xbbff521a	-0.0077917697
126	0xbdb82899	-0.089921184
127	0xbdc381e9	-0.09546263
128	0x3d272220	0.04080403
129	0xbc76c012	-0.015060442
130	0x3da232fe	0.07919882
131	0x3d8b0ccd	0.06789551
132	0x3dc27e6c	0.09496769
133	0x3d88d773	0.06681719
134	0xbd21362a	-0.039358296
135	0xbbdf52c6	-0.0068152873
136	0xbdb4fe51	-0.088375695
137	0x3d4b4fec	0.049636766
138	0x3d76c9ba	0.060250975
139	0xbbdb142f	-0.0066857557
140	0x3ca1c79e	0.019748505
141	0x3b4e1b28	0.0031449292
142	0x3cb2d9f7	0.02183245
143	0xbba690b3	-0.0050831675
144	0x3ccecb32	0.025243375
145	0xbd88c8ef	-0.0667895
146	0xbdb2e285	-0.087346114
147	0x3ca10649	0.019656317
148	0x3da6ae6f	0.08138739
149	0xbd40b439	-0.047046874
150	0xbafd5a7d	-0.0019329336
151	0x3d94924e	0.07254468
152	0xbcbbfa0b	-0.022946378
153	0x3c98ccff	0.018652437
154	0x3c9da3ba	0.01924311
155	0x3da923ca	0.08258779
156	0xbd920a2b	-0.07130846
157	0x3ccf2f2e	0.025291052
158	0xbdcb6312	-0.099310055
159	0xbcb5030d	-0.022096181
160	0x3d830314	0.063970715
161	0xbd617ada	-0.0550488
162	0x3d853dc8	0.065059245
163	0xbc2b4f22	-0.010455878
164	0xbd892dc4	-0.06698182
165	0xbd22a0f3	-0.039704274
166	0xbd49b1f7	-0.049241986
167	0xbd0ab049	-0.033859525
168	0x3cb97b6a	0.022641856
169	0x3d433458	0.04765734
170	0x3dce46a5	0.10072068
171	0xbd75a4ff	-0.059971806
172	0x3d7a0b13	0.061045717
173	0x3dbca33c	0.09210822
174	0x3c270dd7	0.010196171
175	0x3d976f4a	0.073942736
176	0x3d94af9b	0.072600566
177	0xbcb2dd89	-0.021834152
178	0xbbc683cd	-0.0060581923
179	0xbda2ba22	-0.07945658
180	0xbda3bd4b	-0.07995089
181	0x3d53ad75	0.051679093
182	0xbd36344a	-0.04448346
183	0x3c521d0e	0.01282431
184	0x3d8204be	0.06348561
185	0x3bb29209	0.0054495377
186	0x3d4fe326	0.050753735
187	0xbde227c1	-0.11042739
188	0x3d7bee66	0.06150665
189	0x3cf36dc6	0.02971543
190	0xbd8c1bff	-0.06841277
191	0x3d1b2f93	0.037887167
192	0xbd260fc0	-0.040542364
193	0xbd93f227	-0.07223921
194	0xbbbfcc1a	-0.005853188
195	0xbdda5e91	-0.10662568
196	0xbc9b6925	-0.018971035
197	0x3d206fef	0.03916925
198	0x3db00c96	0.085961506
199	0xbbb027e6	-0.00537585
200	0x3da77d33	0.08178177
201	0xbd389bdd	-0.045070518
202	0x3c8d6a2a	0.017262537
203	0x3d64e1c0	0.055879354
204	0x3cbaa9b2	0.022785995
205	0xbd27f203	-0.041002285
206	0xbd742812	-0.059608527
207	0x3d47c0d9	0.0487679
208	0x3c094130	0.008377358
209	0xbdbba365	-0.091620244
210	0x3dc0dc79	0.09417052
211	0x3cf36ac7	0.029714001
212	0x3da0f759	0.07859678
213	0x3d2a31da	0.04155145
214	0xbd229f7a	-0.03970287
215	0x3dd0dbe5	0.101981916
216	0x3dc9866d	0.09840093
217	0x3d18a1dd	0.03726374
218	0x3caed2e8	0.021340802
219	0xbd536f1f	-0.051619645
220	0xbcd928ec	-0.02650877
221	0x3d266420	0.04062283
222	0xbd43dcfe	-0.047818176
223	0x3d86abbd	0.06575725
224	0xbda41941	-0.08012629
225	0x3c2fd05a	0.010730827
226	0xbdca31e1	-0.09872795
227	0xbd87ddb0	-0.066340804
228	0x3c92562d	0.017863357
229	0xbd1333bd	-0.035938013
230	0xbd9dfe2d	-0.07714496
231	0xbd3846cb	-0.04498939
232	0xbbc85f3e	-0.0061148694
233	0x3d8f2950	0.069903016
234	0xbd1165bd	-0.035497416
235	0x3d863bad	0.06554351
236	0xbbba3fc2	-0.00568387
237	0xbd69c8c4	-0.05707623
238	0xbd8b7770	-0.0680989
239	0x3cb4694a	0.022022862
240	0x3d45ed26	0.048321865
241	0x3dbd2277	0.09235089
242	0x3da0b7f3	0.078475855
243	0x3d6c0a77	0.057627168
244	0x3d58550f	0.052815493
245	0xbc8a5193	-0.0168846
246	0xbdb1284f	-0.086502664
247	0x3cba3ad3	0.022733128
248	0xbd57c560	-0.052678466
249	0x3dba03f5	0.09082786
250	0x3d0104a5	0.03149857
251	0x3d3fd09d	0.04682981
252	0xbd3490bc	-0.044083342
253	0xbcf44c2f	-0.029821483
254	0x3d68c6ca	0.056830205
255	0x3d842f47	0.0645433

mlp2.2.bias f4 [50]
0	0x3d8e6c5e	0.06954263
1	0x3dab71c4	0.083713084
2	0xbdac545d	-0.084145285
3	0x3c602edf	0.01368305
4	0xbdcc40b2	-0.09973277
5	0xbd9f7c38	-0.07787365
6	0xbaca55ba	-0.0015436925
7	0xbda1f849	-0.07908685
8	0xbdbc662f	-0.091991775
9	0x3db5a430	0.08869207
10	0xbd92ef7f	-0.071745865
11	0x3ddaaaf3	0.10677137
12	0x3d55f367	0.05223408
13	0x3c0261a3	0.007957849
14	0xbd974594	-0.07386318
15	0xbd31eafb	-0.043436985
16	0x3d748b69	0.059703264
17	0x3d9aad26	0.07552557
18	0xbd21bb57	-0.0394853
19	0xbd21dce2	-0.03951729
20	0xbd254624	-0.040350094
21	0x3a4e140f	0.00078612653
22	0xbc936e44	-0.017996915
23	0xbd45215c	-0.048127517
24	0x3d728bb3	0.05921526
25	0xbd6a67e9	-0.057228003
26	0x3d22286c	0.03958933
27	0x3d738f53	0.059462857
28	0x3d9fed56	0.0780894
29	0x3d30a85e	0.043129317
30	0xbd225649	-0.03963307
31	0x3dace9df	0.08443045
32	0x3cbd9b0a	0.023145217
33	0xbbf5f9e5	-0.0075065964
34	0xbc0512a8	-0.008122124
35	0x3d389782	0.045066364
36	0x3c18781a	0.009305978
37	0x3c6ed32d	0.014576715
38	0x3da2ac3a	0.07943006
39	0xbd411399	-0.04713783
40	0xbd3ff0de	-0.04686057
41	0xbd36dcd1	-0.04464418
42	0xbd8c7010	-0.06857312
43	0x3d986502	0.07441141
44	0xbd8a6876	-0.067582056
45	0xbd1823c0	-0.03714347
46	0x3ce1ec7e	0.027578589
47	0xbd4184e9	-0.047245894
48	0x3d986089	0.074402876
49	0x3dd9a0b2	0.10626353

attention.0.weight f4 [100, 200]
0	0xbd2fb8eb	-0.04290096
1	0xbd0d8dd2	-0.03455908
2	0xbcb07bd0	-0.021543413
3	0xbd34ab4a	-0.044108666
4	0xbca704f4	-0.020388104
5	0xbc0eabc4	-0.008707944
6	0xbd8d76ea	-0.06907447
7	0xbccbdcd5	-0.024885574
8	0x3b823b4f	0.0039743553
9	0x3d8ca0e0	0.06866622
10	0x3d84f390	0.06491768
11	0x3d867b1f	0.06566452
12	0xbbda54fa	-0.006662962
13	0xbd132d4a	-0.035931863
14	0x3d75037f	0.059817787
15	0xbd8e197f	-0.06938457
16	0xbd6584a8	-0.056034714
17	0x3d8761b1	0.0661043
18	0x3d931d92	0.071833745
19	0xbcb8921e	-0.022530612
20	0x3bce8ad5	0.006303171
21	0xbaeaeacd	-0.0017922759
22	0x3d83669b	0.06416055
23	0x3d9eb15f	0.077486746
24	0xbb60fcde	-0.0034330408
25	0x3d153ab8	0.03643295
26	0x3d39d55c	0.04536949
27	0x3d3307fb	0.043708783
28	0xbcd43701	-0.025905134
29	0xbca1691d	-0.019703442
30	0x3d7c01a2	0.061524995
31	0xbd19a60b	-0.037511867
32	0xbd2f8b8d	-0.042857695
33	0x3c2fad55	0.010722478
34	0xbd33f231	-0.043932144
35	0x3d872da7	0.06600504
36	0x3da7b951	0.08189643
37	0x3ccbf1fc	0.02489566
38	0x3d57465d	0.052557338
39	0xbd187818	-0.037223905
40	0x3c41ff37	0.011840633
41	0x3d3ede66	0.046598814
42	0xbd08266e	-0.033239774
43	0x3d64231d	0.05569755
44	0xbd095106	-0.033524536
45	0xbd8d6f2f	-0.06905972
46	0xbd8ed0d2	-0.06973423
47	0x3d5a8eab	0.053358715
48	0x3c37108f	0.0111733815
49	0x3cbdcd3a	0.023169149
50	0xbd01619b	-0.031587224
51	0x3d355970	0.044274747
52	0x3d882bac	0.06648955
53	0xbd34a66b	-0.04410402
54	0xbd4abef9	-0.049498532
55	0x3d4bd8c4	0.04976727
56	0x3bcd9b67	0.006274629
57	0x3d622f4e	0.055220895
58	0xbd005b90	-0.03133732
59	0xbd33373c	-0.043753847
60	0xba769856	-0.0009406855
61	0x3bf05752	0.007334628
62	0x3ab124b9	0.0013514973
63	0xb9d04628	-0.00039725122
64	0x3cdff838	0.02734004
65	0x3989ea6f	0.00026305343
66	0x3d683513	0.05669124
67	0xbcbc3fe7	-0.02297969
68	0xbd203ab2	-0.039118476
69	0x3d9dd73e	0.0770707
70	0x3d05923d	0.032610167
71	0x3cfd832e	0.03094634
72	0x3d880044	0.06640676
73	0xbd6af74e	-0.057364754
74	0x3b708adc	0.003670386
75	0xb9e0860f	-0.0004282449
76	0x3c064158	0.00819429
77	0x3cecd13f	0.02890837
78	0xbc62b9a6	-0.013838207
79	0xb9afee85	-0.00033556312
80	0xbcb70309	-0.022340314
81	0xbbcf97d9	-0.0063352403
82	0xbbd6449a	-0.0065389397
83	0x3d660cc2	0.05616451
84	0xbc2c6ffc	-0.010524746
85	0xbc229c87	-0.009925014
86	0xbd7eadce	-0.06217747
87	0xbc7a9572	-0.01529442
88	0xbc9dcd17	-0.019262834
89	0x3d82c4eb	0.06385215
90	0xbcbc1986	-0.02296139
91	0x3c3092be	0.010777174
92	0xbb53389d	-0.003222979
93	0xbd9895a3	-0.07450416
94	0x3d37d793	0.044883322
95	0xbc7042d5	-0.0146643715
96	0xbd2dcd0f	-0.042431887
97	0xbcdea101	-0.027176382
98	0x3d272f0a	0.040816344
99	0x3c15ddb9	0.009147101
100	0x3d4c60b4	0.04989691
101	0xbd00d8df	-0.031456824
102	0xbaeff610	-0.0018307585
103	0x3d3fdcba	0.04684136
104	0xbd11ed1a	-0.03562651
105	0xbd0e8c67	-0.034801867
106	0x3d2f05ac	0.04273002
107	0x3d61a983	0.0550933
108	0x3d63e742	0.055640467
109	0x3d1f4e9d	0.03889333
110	0x3c134cea	0.008990506
111	0x3c737c1b	0.014861132
112	0xbd1af1ab	-0.03782813
113	0xbd272157	-0.04080328
114	0x3d92edc8	0.071742594
115	0xbc485935	-0.0122283
116	0x3ca97e55	0.020690123
117	0x3d42b78c	0.047538325
118	0xbc63982c	-0.013891261
119	0xba4d40c3	-0.00078297796
120	0xbd32013c	-0.04345821
121	0xbcb359c6	-0.021893393
122	0xbd5aa8db	-0.05338369
123	0xbd1a9966	-0.03774395
124	0xbd5ec350	-0.054385483
125	0xbc6af4ac	-0.014340561
126	0xbaa9dc4f	-0.0012959334
127	0x3ccb34f6	0.024805527
128	0xbb6b6665	-0.0035919186
129	0xbccadb81	-0.02476287
130	0xbd66adb1	-0.05631799
131	0xbd4f6f02	-0.050642975
132	0x3caebfeb	0.021331748
133	0x3cc05813	0.023479497
134	0xbd3d8715	-0.046271402
135	0x3d17e229	0.037080918
136	0xbc9903fc	-0.018678658
137	0x3d80a921	0.06282259
138	0x3d65a0da	0.056061603
139	0x3c45aa43	0.012064519
140	0x3d2b7148	0.04185608
141	0x3d8a9a5a	0.067677215
142	0x3d87a5d3	0.06623425
143	0xbd3ba0a2	-0.04580749
144	0x3c37a1ca	0.011208007
145	0xbc800d99	-0.015631484
146	0xbb79ae2b	-0.0038098197
147	0x3c95fa1b	0.018307736
148	0x3b3b5466	0.002858424
149	0x3baa3dcf	0.0051953564
150	0xbd474329	-0.048648033
151	0xbd617858	-0.05504641
152	0xbd1ae072	-0.037811704
153	0x3d0a8132	0.033814617
154	0x3d5bf0a4	0.05369629
155	0x3bca4e7a	0.006173906
156	0xbcf3960b	-0.029734632
157	0x3d8382f8	0.06421465
158	0x3be772c7	0.007063243
159	0xbd6f6c40	-0.058452845
160	0xbc88644f	-0.016649393
161	0xbccbed61	-0.024893465
162	0x3c14414b	0.00904877
163	0xbd40ab94	-0.04703863
164	0x3d6d9bd2	0.05800993
165	0x3c6ee3f1	0.014580713
166	0x3d480300	0.048830986
167	0x3d6f22dc	0.058382854
168	0xbc9a7364	-0.01885385
169	0xbd5a5a99	-0.053309057
170	0x3d0b9597	0.034078207
171	0x3cac7348	0.021051064
172	0xbd546640	-0.051855326
173	0x3cd59ca7	0.026075674
174	0xbd8291ef	-0.06375491
175	0x3c747c40	0.014922202
176	0xbab0b823	-0.0013482611
177	0x3d4c4ed6	0.04987987
178	0x3c3473da	0.011013949
179	0x3d4fab3b	0.050700407
180	0x3d3730e8	0.044724375
181	0x3d5a6187	0.053315666
182	0x3d8c3bbc	0.06847331
183	0xbc51b898	-0.012800358
184	0xbd34c482	-0.044132717
185	0xbb8b1f84	-0.0042457003
186	0xbd357424	-0.044300213
187	0x3cc99113	0.02460531
188	0xbd7013d8	-0.058612674
189	0xbd72f24a	-0.059313096
190	0xbce97c74	-0.028501727
191	0xbb8ae709	-0.0042389673
192	0xbc80be40	-0.015715718
193	0xbba7dd27	-0.005122799
194	0x3cd476ff	0.025935648
195	0x3cd3b418	0.025842711
196	0x3d1eb62c	0.03874795
197	0x3d8d6c9b	0.069054805
198	0x3d453f4c	0.048156068
199	0x3d427e98	0.04748401
200	0x3d1ce036	0.03829976
201	0x3d84cbf4	0.064842135
202	0xbcc4fea1	-0.024047198
203	0x3cd53170	0.02602455
204	0x3b800e76	0.003907974
205	0xbc48cd2e	-0.01225595
206	0xbd25b9fc	-0.04046057
207	0x3d6a3d44	0.057187334
208	0xbc4ecd8c	-0.012622248
209	0xbd39ea85	-0.04538967
210	0x3d13bbbe	0.036067717
211	0xbabe104d	-0.0014500708
212	0xb83b34df	-4.4633514e-05
213	0xbd1e218a	-0.038606204
214	0x3b3c9cca	0.0028779977
215	0x3c704793	0.014665502
216	0xbd4d01c5	-0.050050516
217	0xbd0dc08e	-0.034607463
218	0x3d630268	0.055422217
219	0xbce3cfbb	-0.027809015
220	0x3d3181f0	0.04333681
221	0x3d7fb8b8	0.06243202
222	0xbceff810	-0.02929309
223	0xbd32e576	-0.043675862
224	0x3bbc50b4	0.0057469252
225	0x3c5472c4	0.012966815
226	0xbd606926	-0.054787777
227	0x3cadbe34	0.02120886
228	0xbb619765	-0.0034422514
229	0x3d5f14cd	0.054463197
230	0x3b428b5f	0.0029685122
231	0x3d52fc76	0.051510297
232	0x3b76ac75	0.0037639413
233	0x3d60951d	0.054829706
234	0x3ccb6a5e	0.024830993
235	0x3c9ad124	0.018898554
236	0x3d266c34	0.040630534
237	0x3d411756	0.047141396
238	0xbc896762	-0.01677293
239	0x3d150dfc	0.03639029
240	0x3d38d7c2	0.045127638
241	0x39e84454	0.00044301397
242	0x3d5bbbec	0.053646013
243	0x3c41e850	0.011835173
244	0xbd742ef5	-0.059615094
245	0x3bdb8a1f	0.006699815
246	0xbcb0dc90	-0.021589547
247	0x3d589271	0.052874032
248	0xbcdecf00	-0.027198315
249	0x3c66d7e3	0.014089557
250	0xbd4a15d1	-0.049337212
251	0xbcbfd566	-0.023417186
252	0xbd14a182	-0.03628684
253	0xbd1959ad	-0.037439037
254	0x3becb416	0.0072236164
255	0x3d75f8f7	0.060051885

attention.0.bias f4 [100]
0	0x3ce87fc7	0.028381241
1	0x3d1bddd1	0.038053337
2	0xbc694da8	-0.014239706
3	0x3c81236c	0.01576396
4	0xbcc7ab5b	-0.0243737
5	0x3d491a07	0.049097087
6	0xbd37c7e0	-0.04486835
7	0xbd5ad22d	-0.053423095
8	0xbc8f4901	-0.017490866
9	0x3d87ae69	0.06625063
10	0x3d9dea03	0.0771065
11	0xbc2dd234	-0.010609198
12	0xbd5de0de	-0.05416953
13	0x3d2deefa	0.042464234
14	0x3d4a85ca	0.049443997
15	0x3b946c11	0.004529484
16	0xbd17eda7	-0.037091877
17	0x39fa9675	0.00047795815
18	0xbb10fc73	-0.0022123128
19	0x3c331a93	0.010931629
20	0xbc85ef02	-0.01634932
21	0xbd7ad542	-0.061238535
22	0x3d5b2396	0.053500734
23	0xbd875703	-0.06608393
24	0xbcdfd6aa	-0.02732404
25	0x3d8b977a	0.06816001
26	0xbd328784	-0.04358627
27	0x3d8ce57b	0.068797074
28	0x3cad0fad	0.021125639
29	0x3c38bd27	0.011275566
30	0x3d24b59a	0.04021225
31	0xbca2b87f	-0.019863365
32	0xbd2f79a8	-0.04284063
33	0xbc9d6057	-0.019210977
34	0xbd113181	-0.0354476
35	0xbccc85ef	-0.024966208
36	0xbd53fbc7	-0.051753785
37	0xbc6fc99e	-0.014635472
38	0xbd703fad	-0.058654476
39	0xbd30002e	-0.04296892
40	0xbcc718a5	-0.024303744
41	0xbd073266	-0.033007048
42	0xbc1daec5	-0.009624188
43	0x3c834443	0.01602376
44	0x3cb4f23a	0.022088159
45	0x3d341b2e	0.043971233
46	0xbd6d7121	-0.057969216
47	0xbcec180e	-0.028820064
48	0xbcd92ced	-0.02651068
49	0xbd26b103	-0.040696155
50	0x3c4a61a9	0.012352386
51	0x3d2bc740	0.041938066
52	0x3d8a7045	0.06759695
53	0x3d3d46f1	0.046210233
54	0x3d509928	0.05092731
55	0xbd0a3527	-0.033742096
56	0x3cdfa64c	0.027300976
57	0x399ec061	0.00030279442
58	0x3d8f14f9	0.06986422
59	0x3b2f6727	0.0026764364
60	0xbd1cdb15	-0.03829487
61	0x3d821c62	0.0635307
62	0x3d497dc2	0.049192198
63	0xbd44a7d2	-0.04801161
64	0x3d98d377	0.07462209
65	0xbcb52e93	-0.022116935
66	0xbd854535	-0.06507341
67	0x3d9f9c60	0.07793498
68	0x3d65a9ed	0.056070257
69	0x3d059363	0.032611262
70	0x3b19dc9c	0.002347744
71	0xbcdbdbb5	-0.026838163
72	0xbc3f4d5a	-0.011676157
73	0x3d8a8863	0.06764295
74	0x3d085bc2	0.033290632
75	0xbd4a2b48	-0.049357682
76	0xbce8e8dc	-0.028431349
77	0x3daa489d	0.08314631
78	0xbd2cae58	-0.042158455
79	0x3c76a544	0.015054051
80	0xbcafabb9	-0.021444188
81	0x39973657	0.0002884145
82	0xbd4f9aa4	-0.050684586
83	0x3b654ae1	0.0034987258
84	0xbcca188d	-0.02466991
85	0x3d0612d9	0.03273282
86	0xbd59f6b6	-0.053213798
87	0xb612855c	-2.183332e-06
88	0x3d7e0309	0.062014613
89	0x3d19053b	0.037358504
90	0x3d654730	0.055976093
91	0x3c0983b7	0.00839322
92	0xbb58c1cf	-0.0033074503
93	0x3d28a723	0.04117502
94	0xbd2e4206	-0.042543434
95	0xbd833779	-0.06407065
96	0x3d8f822e	0.07007252
97	0xbd5cea47	-0.05393436
98	0xbc1107d0	-0.00885196
99	0xbd5ac3b0	-0.05340928
