crowd_nav/social_module_4hz.pth (torch, 42699 bytes, 19 tensors)

gru.weight_ih_l0 f4 [48, 4]
000000 d5 db f5 bd f9 d7 63 bd 8f 79 81 3e 12 67 19 bd
       -0.1200482 -0.05562589 0.25288054 -0.03745181
000010 2e 5f 90 be ec cc 1f 3d db 8e 6a 3d 7a 7a 17 3e
       -0.28197616 0.039013788 0.057265144 0.14792815
000020 66 2a 87 be 80 b7 c2 3d 68 ff 75 bd 80 77 d0 3d
       -0.26399535 0.09507656 -0.060058028 0.10179043
000030 97 16 a5 be 62 f1 44 be 90 55 87 3c 7c 03 1c 3e
       -0.32243797 -0.19232705 0.016520292 0.15235704
000040 60 ef 4a 3c 4d 7f 0f 3e dd 97 02 3e a7 b4 01 bf
       0.012386173 0.14013405 0.12753244 -0.5066628
000050 d1 c0 c3 be 00 d5 84 bd ef 29 f2 3e ee 74 06 bf
       -0.38233045 -0.06485939 0.47297618 -0.5252217
000060 6f 11 50 be 5a 52 81 bd 17 a9 0f be 06 84 2a b9
       -0.2031915 -0.063145354 -0.14029346 -0.00016261646
000070 09 63 6e 3e 57 3e a6 3d 5a ad 2f 3f c9 56 98 bd
       0.23279966 0.08117359 0.6862389 -0.07438428
000080 d8 9a 50 3e 31 70 6c 3d 35 b2 bb 3e 32 89 73 bd
       0.20371568 0.05772418 0.366594 -0.05945701
000090 7d 55 e1 3b ac 78 17 bd 52 36 8f bd b5 3c db 3c
       0.006876646 -0.036980316 -0.06992783 0.026762346
0000a0 73 f1 53 3d 85 43 fc be 23 2c e7 bd 51 38 fe bd
       0.051743936 -0.49270263 -0.11287715 -0.12413085
0000b0 fc 27 8e 3f 23 f3 11 3d 8b 71 3a 3e 07 45 84 bc
       1.1105952 0.035632264 0.18207376 -0.016146196
0000c0 0f c4 84 3d 16 90 f9 bc d1 0d e6 3e e1 a5 e3 bd
       0.06482708 -0.030464213 0.44932416 -0.11115623
0000d0 d1 f7 a9 3e e5 9b b5 3d b6 25 60 be f7 75 95 3d
       0.3319688 0.08867625 -0.21889386 0.07297891
0000e0 96 4e da 3e 57 74 39 3f 35 e0 8f 3f 15 c6 94 3f
       0.4263808 0.72443146 1.1240298 1.162295
0000f0 bc 05 f2 3e 37 a1 3a bd 39 43 e4 bd 08 76 97 be
       0.4727 -0.045563903 -0.11145634 -0.29582238
000100 ab 84 7c 3e 88 96 64 3c c5 ca bc bd 37 ae c2 bc
       0.24659984 0.013951905 -0.09218363 -0.023764713
000110 44 80 50 bd aa 0d d1 3a 87 d4 89 bc 2d ca 86 bb
       -0.050903574 0.0015949507 -0.016824974 -0.0041134567
000120 02 0b 65 3d 09 52 06 bd 0c a9 b7 3b e6 75 03 bc
       0.0559187 -0.03279308 0.0056048688 -0.008023715
000130 46 11 69 bd 1b 3c b5 3c 44 c3 ff bc ab 1e 2c bd
       -0.05690124 0.022123387 -0.03122104 -0.042021435
000140 f3 3f a3 3d 4e 7c 07 be a4 cc 6b 3d 81 11 8d 3e
       0.07971182 -0.13231012 0.057568207 0.27552417
000150 63 71 32 be 10 2b 82 3b 3f 44 bd be 84 17 3d 3e
       -0.17426066 0.0039724186 -0.3696613 0.18466002
000160 e7 4a ad 3e 72 a4 e8 3d cb 49 5d bd 67 8a 20 3c
       0.33846208 0.113594905 -0.054025453 0.009798623
000170 25 54 ed be 91 0a a9 3c bf e1 90 3d 25 66 92 bd
       -0.4635326 0.020634921 0.07074308 -0.07148389
000180 dd c6 a3 3d bc 75 ff bb a2 8c c9 be f1 90 82 3d
       0.079969145 -0.0077960175 -0.39365107 0.06375302
000190 4d 32 94 bd ae fd 2d ba 06 44 0c 3d 8b e1 e9 3b
       -0.072361566 -0.00066372275 0.03424456 0.0071374825
0001a0 40 c0 fa 3c 57 2f 09 bc fd 47 6a 3c e4 09 1c 3c
       0.03060925 -0.008373103 0.01429939 0.0095238425
0001b0 3f d3 cf be 06 48 69 bd 6d e6 12 3e 12 cc 6d bc
       -0.40590855 -0.056953453 0.14345713 -0.014513986
0001c0 08 65 52 bd e3 20 6e 3d cc de cf bd dc c4 38 3e
       -0.051365882 0.058136832 -0.10149917 0.18043846
0001d0 38 6d 03 3e a6 12 39 3e 92 8d 5d be 1b 91 c6 bd
       0.12834632 0.1807352 -0.21636036 -0.096956454
0001e0 c1 30 44 be f6 52 29 3e dc 42 fa 3d ed eb 36 be
       -0.19159223 0.16535553 0.12219784 -0.17863436
0001f0 cf 50 23 be d5 1f ac 3a 18 03 10 3f 13 cc 84 bd
       -0.15948795 0.0013132045 0.5625472 -0.064842366
000200 89 1f d9 be 9f 55 18 be 87 1a 91 3d ef f6 9d bd
       -0.42406872 -0.14876412 0.07085138 -0.077131145
000210 5f d3 94 be d3 d7 03 3d ea 94 61 bd 6b 7f 0d be
       -0.29067513 0.032188248 -0.055073656 -0.13818137
000220 4a 64 07 bd 54 8c 9c 3c 29 ff f4 3d a0 cb 88 bd
       -0.033054627 0.019109882 0.119627304 -0.066794634
000230 c4 3f 65 3e 61 0c 52 be 1f 94 82 bd 86 a7 b9 3e
       0.22387606 -0.20512535 -0.06375908 0.36260623
000240 32 a3 9c 3e a1 21 3e bd a9 88 9d 3d d1 05 05 be
       0.30593258 -0.04641879 0.076920815 -0.129905
000250 71 fe 08 be 08 58 95 3d 2b 18 3d 3d 44 ab eb 3c
       -0.13378312 0.07292181 0.046165626 0.02876819
000260 2f e7 04 bd 84 e2 b6 bc bf 5c 02 3e d2 61 2b 3d
       -0.032447036 -0.022324808 0.12730692 0.041841336
000270 5e 6f 29 be 7e 77 f7 3d 8b 3c db 3e de e0 25 be
       -0.1654639 0.12083338 0.42819628 -0.16199061
000280 b4 8b ac be dd 38 82 bc 0e 07 df bb e2 51 30 be
       -0.33700335 -0.015896255 -0.006806261 -0.17218736
000290 4a ed 70 3e c9 8c 39 3c db e1 60 be 52 ab 38 bd
       0.23528019 0.01132507 -0.21961157 -0.04508526
0002a0 61 be dc 3e fa 1c 36 bd 8b e1 60 bd 89 56 ec 3d
       0.43113998 -0.044461228 -0.054902595 0.11539943
0002b0 f5 77 dc be e1 85 84 bc 88 e4 1a be be 42 97 bd
       -0.4306027 -0.01617712 -0.1512624 -0.07385777
0002c0 50 41 87 bc d4 09 e4 bc 26 ab 59 3d 73 b9 40 bc
       -0.016510636 -0.027836718 0.053141735 -0.011762965
0002d0 77 8a e4 bd 77 7e 05 be 91 87 2e 3e fa a4 a2 3c
       -0.111592226 -0.13036524 0.17043902 0.019854058
0002e0 4f a1 94 be a0 a8 bb 3d 74 2b f1 bd e2 e3 cd 3d
       -0.2902932 0.09163022 -0.11775866 0.10053231
0002f0 83 5e 8b 3e a1 3d d4 bd 58 05 bb 3e b2 4c 8b 3d
       0.27220544 -0.10363317 0.36527514 0.06801738

gru.weight_hh_l0 f4 [48, 16]
000000 58 45 8e 3e f9 2d e1 3e 28 87 23 3f d7 f7 5c 3f
       0.2778728 0.43980387 0.6387811 0.86315674
000010 f8 15 1f 3f 2e 96 47 bf c0 84 8c 3f 63 b2 9d 3e
       0.62142897 -0.7796353 1.0978012 0.3080016
000020 fc 99 47 be 7f 06 4e bf 04 af cb 3e 91 2a 42 be
       -0.19492334 -0.8047866 0.39781964 -0.1896155
000030 84 7b 94 be d6 e0 a5 3e b7 2a 46 3d 27 10 d5 3e
       -0.29000485 0.323981 0.04838058 0.41613886
000040 9d 24 46 bc 0f a2 02 3f c1 0a d4 be 86 be 6d bf
       -0.01209369 0.5102853 -0.41414455 -0.9286884
000050 df 40 9a bf b6 78 d0 3e a3 e7 9d be c0 0a 96 bf
       -1.2051047 0.40717095 -0.30840787 -1.1722031
000060 df 04 84 3e c1 c5 d9 3e aa c7 18 bf fa 47 9f be
       0.25784966 0.42533687 -0.59679663 -0.311096
000070 0f 7c 84 3e 60 7d 2e bf 28 c4 b1 3f f1 bb 8c bf
       0.258759 -0.6816006 1.3887987 -1.0994855
000080 46 a3 3a 3f 4a fb f0 3e ac 78 06 bf 90 8c 84 bf
       0.72905385 0.47066718 -0.5252788 -1.0355396
000090 4a a8 95 be 0e de a9 be c3 cd d1 be f7 87 23 bf
       -0.29229957 -0.33177227 -0.40977296 -0.6387934
0000a0 b5 1f 79 3f 8b 17 5a be b5 33 b6 bf c6 49 f0 3e
       0.97314006 -0.21298043 -1.423453 0.46931285
0000b0 7d 54 f1 bd 06 cb 95 3e 9b dc 65 3f 35 a7 ed bf
       -0.11783693 0.29256457 0.8978974 -1.8566653
0000c0 fd c9 ff bd 8e f6 99 3e b0 90 89 bd c2 50 ed be
       -0.12489698 0.3007092 -0.0671705 -0.46350676
0000d0 1e 2e dd be 2c d3 9a bf 3e 18 e5 3d b5 21 7a 3e
       -0.43199247 -1.2095695 0.111862645 0.2442692
0000e0 78 37 07 3d 2e 75 b8 bf 0f 0f 8d bf 3a 35 41 3f
       0.033011883 -1.441076 -1.102022 0.7547184
0000f0 ac 49 97 be f5 b4 a3 3f 3d 1c 28 3e c0 fd 6d bf
       -0.29548395 1.2789599 0.16417022 -0.92965317
000100 0e d2 1d 3e 76 a8 5f 3e 40 95 1b 3f 20 ec 9c be
       0.15412161 0.21841606 0.6077461 -0.306489
000110 37 79 45 3f 67 82 2e bf b5 9e d1 3e 9d f1 60 3e
       0.77138084 -0.6816773 0.40941396 0.21967168
000120 82 94 35 3e 2c aa a2 bf 94 b2 9e bf 27 c9 2d 3e
       0.17732432 -1.2708182 -1.2398248 0.16971265
000130 ac 7d f0 be 33 3e 38 3f eb 88 a4 3d 2b bc b9 bf
       -0.4697088 0.7196991 0.080339275 -1.4510549
000140 09 4b b9 be 14 29 c6 3f c5 c7 db 3e fc 44 54 bf
       -0.3619006 1.5481286 0.4292585 -0.8291776
000150 d5 f7 80 bf 20 ce 03 3f 23 93 5d 3f 79 ce e7 bc
       -1.0075632 0.51486397 0.8655264 -0.028296696
000160 80 ac a0 3f 79 1b 8c be df 80 24 3f 31 1a 89 3e
       1.2552643 -0.2736471 0.6425914 0.26777795
000170 9a f9 9a 3f 4b e2 66 be a0 39 69 3e 7c f8 70 bd
       1.2107422 -0.22547261 0.22775888 -0.058830723
000180 58 e5 93 3e 2e 08 75 3f 08 98 0f bf 3e e5 9b bf
       0.28885913 0.95715606 -0.56091356 -1.2179334
000190 28 b6 57 be a2 22 05 bf 66 14 95 3d 3b b9 8a bf
       -0.21065581 -0.5200597 0.07279281 -1.0837778
0001a0 8c ce ce 3f 99 15 85 bf 51 94 c8 bf a5 62 8e 3e
       1.6156783 -1.0397216 -1.5670263 0.27809635
0001b0 9e 98 b6 bc 58 e9 32 3f 75 73 22 3f 3b 4c f9 bf
       -0.02228957 0.69887304 0.63457423 -1.9476389
0001c0 7c 32 09 bf 89 68 45 be a4 57 a2 bd c0 da 17 bf
       -0.5359266 -0.19278158 -0.079268724 -0.5931816
0001d0 53 4d 7d 3e b0 8b 0a bc f1 43 02 bf 9c eb bf 3c
       0.24736528 -0.008456156 -0.5088492 0.023427777
0001e0 9d 26 22 3e 44 8d aa bc 26 7f 25 bb 6f d6 e0 3e
       0.15835042 -0.020819314 -0.0025252788 0.439136
0001f0 00 c9 3a bf 1d 98 e5 3e a6 b7 08 3e 1c bb e8 bd
       -0.7296295 0.44842616 0.13351306 -0.11363813
000200 08 42 f5 3e 0a ad 1d be 61 5a da 3e 72 84 aa 3e
       0.4790194 -0.1539804 0.4264708 0.33304173
000210 df f5 ea 3e 45 c1 97 bf 35 ef 9e 3e 07 1e 2d 3f
       0.4589071 -1.1855856 0.31041875 0.67623943
000220 fc 8b 20 be d2 f4 9a bf d2 c0 40 bf 1e dc aa 3f
       -0.156784 -1.2105963 -0.7529422 1.3348424
000230 44 c0 d6 bd 91 79 c7 3f 86 6b 6d bf df 8e fa be
       -0.104858905 1.5583974 -0.9274219 -0.48937127
000240 98 2c aa 3d 1c 81 08 3f d2 f7 80 bf c5 c5 a8 be
       0.08309287 0.53322005 -1.0075629 -0.32963386
000250 d9 71 68 bf b1 73 9c bf 1c 48 f0 bc 55 85 ee bf
       -0.9079872 -1.2222806 -0.02933126 -1.863444
000260 b7 b4 eb 3e 36 82 0c bf 0b ae 84 bf 9d 41 61 3f
       0.46036312 -0.54886186 -1.0365614 0.8799074
000270 04 f2 8c be a1 6c 57 3f ad 64 b3 3f 96 bc cc bf
       -0.27528393 0.8415013 1.4015099 -1.5995052
000280 e6 c3 1c bf ae ec 2a 3f 47 42 a9 3f 77 42 ad be
       -0.6123642 0.66767395 1.3223351 -0.3383977
000290 b4 24 90 3e 15 10 a4 bd a4 3d 3c 3f 7a f5 2b 3f
       0.28153002 -0.0801088 0.73531556 0.6717144
0002a0 e8 5d ab 3e 95 66 e0 3e f0 c8 34 3f 31 6e a4 3d
       0.33470082 0.43828264 0.70619106 0.0802883
0002b0 ba 31 45 3f d8 c3 4f bd 54 50 4a bf 5a b1 37 3f
       0.77029 -0.05072388 -0.7902882 0.7175499
0002c0 2b a2 25 bf a2 19 19 bf f3 b2 34 bf 11 12 23 bf
       -0.64700574 -0.5980474 -0.70585555 -0.6369944
0002d0 21 0c e9 3d ae 36 ef bd 71 ed 9f 3d 0f fd 9a be
       0.113792665 -0.11680351 0.0780896 -0.30271193
0002e0 1e b2 8a 3e 80 59 e5 3e bf ae 80 be 9c 95 c8 bd
       0.27089018 0.44794846 -0.2513332 -0.09794161
0002f0 d6 e4 fe 3d 21 36 b3 be 67 50 49 3d 85 f9 5c bf
       0.12445991 -0.35002235 0.049148943 -0.86318237
000300 c3 74 09 bd e4 88 88 be 82 43 e0 3e 92 76 77 3e
       -0.03355862 -0.2666694 0.43801504 0.24166325
000310 1e 8b bb 3d 7f 97 95 bf db b3 30 3f 35 65 10 bf
       0.09157394 -1.1686858 0.6902444 -0.5640443
000320 f6 af d1 bd 5f 9e 1c bf 80 4c f0 be 16 a3 04 3f
       -0.1023864 -0.61179155 -0.46933365 0.5181135
000330 12 25 30 bf 62 af d2 3f e4 8a da 3e f1 f9 58 bf
       -0.68806565 1.6459773 0.4268409 -0.8475638
000340 fc ea 2c bf 38 24 93 bf 4a 8d f3 3e 5a 3f a6 3f
       -0.6754606 -1.1495428 0.47568733 1.2988083
000350 22 fc 0c 3f c7 13 c2 be a7 9e 1e 3f ff 8b 4b bf
       0.55072224 -0.37905714 0.61960834 -0.7951049
000360 a3 61 05 bf fe f7 6d 3e 9d 7a db 3f b3 18 aa be
       -0.52102107 0.23239133 1.7146794 -0.3322197
000370 14 a1 0e bf 3a 46 ae be f1 25 f7 be 11 a0 80 3f
       -0.55714536 -0.34037954 -0.48271134 1.0048848
000380 e7 52 24 bf 48 5a ae be 14 a1 0c 3e d7 28 49 ba
       -0.64189 -0.34053254 0.13733321 -0.0007673627
000390 bf 41 02 3f e8 9f 06 bf 0e 3e d8 be ec 21 64 3f
       0.5088157 -0.5258775 -0.42234844 0.8911426
0003a0 9f 32 16 bf d4 ed d9 bd 1d 26 85 be 32 f4 0b 3f
       -0.5867099 -0.10641065 -0.2600564 0.5466949
0003b0 8d 86 47 bf db 5b 38 3f ee 91 57 be 95 dc 93 be
       -0.77939683 0.7201516 -0.21051762 -0.28879228
0003c0 8e b5 3a 3e 24 ff 91 be 65 61 e3 3d 22 ea b7 3e
       0.1823332 -0.2851497 0.11102561 0.35920817
0003d0 89 03 27 3a bd 3c 4c bf 34 63 f7 3d b6 05 a5 3e
       0.0006371071 -0.7978018 0.12079468 0.3223092
0003e0 f0 52 69 be 82 8c 22 bf dd 47 35 bf 73 82 c1 be
       -0.22785544 -0.6349565 -0.7081278 -0.37794837
0003f0 77 e1 0f 3e be 64 4e 3f 9c d7 55 be 50 c9 29 bf
       0.14050852 0.8062247 -0.2088303 -0.66322803

gru.bias_ih_l0 f4 [48]
000000 6d fa 3b bd ff 1b d0 3f 5a 67 a1 3f 89 c8 41 3e
       -0.04589312 1.6258544 1.2609665 0.18924154
000010 23 5a f4 3e 37 ac 33 3f bd 74 8b 3f e6 c7 1f 3f
       0.4772502 0.70184654 1.0895001 0.62414396
000020 f2 cc 9e 3e 7c c2 11 3f 32 68 91 3f e9 4b dc be
       0.31015736 0.56937385 1.1359923 -0.43026665
000030 82 e5 83 3f 72 f9 41 3f 50 df 6d 3f f0 63 3e 3f
       1.0304415 0.7577125 0.9291887 0.7437124
000040 f2 ee 16 40 fe d0 0f c0 d5 ac c1 bf 4b fd f4 bf
       2.358334 -2.2471309 -1.5130869 -1.9139799
000050 46 25 85 be 13 11 8b bf a1 b5 ec bf 1b a5 e1 bf
       -0.26005 -1.0864586 -1.8492929 -1.7628511
000060 eb 50 ab be 5b cc 40 be 29 01 04 c0 c0 b4 22 3e
       -0.33460173 -0.18827955 -2.0625708 0.15889263
000070 cd 84 e4 bf e3 e7 c4 be ac 90 a1 bf 86 14 d3 be
       -1.7853028 -0.38458166 -1.2622275 -0.41226596
000080 e0 57 80 3f 21 ec a9 bf 31 98 0f bf 2f 9b d1 3c
       1.0026817 -1.3275186 -0.560916 0.025586693
000090 bf f3 9f 3e c4 03 ae bf ff 52 e0 be 50 18 40 bf
       0.3124065 -1.3594899 -0.4381332 -0.750371
0000a0 4b 97 d6 be fe df 3a bf bb 03 49 bf b5 04 24 be
       -0.41912302 -0.72998035 -0.7852132 -0.1601742
0000b0 62 3b bd bf 68 eb 2a 40 d4 29 8e 3f c3 b3 0e bf
       -1.4783747 2.670618 1.1106515 -0.55743045

gru.bias_hh_l0 f4 [48]
000000 58 e4 93 3d cd aa bb 3f ad bf ba 3f fa 25 e5 3e
       0.072212875 1.4661499 1.4589745 0.44755536
000010 f2 e0 d1 3e e3 03 4d 3f 03 61 91 3f b6 b9 19 3f
       0.40991932 0.80084056 1.1357731 0.60049
000020 0a 35 b1 bd 2c df c6 3e 77 70 9d 3f ea 72 8e be
       -0.086526945 0.38842142 1.2299947 -0.27822047
000030 b0 be 96 3f 0f 68 83 3f 54 1b a3 3f 90 61 44 3f
       1.1776943 1.0266131 1.2742715 0.7671137
000040 7e fc 11 40 ab 5d 18 c0 c3 62 c6 bf 8f 5f de bf
       2.281036 -2.380717 -1.549889 -1.7372912
000050 31 f5 06 bf 19 36 8a bf d2 13 e8 bf 96 2c db bf
       -0.5271788 -1.0797759 -1.8131049 -1.7122982
000060 02 bc 81 be e6 fa 10 bf cd 5f 01 c0 57 d0 38 3e
       -0.2533875 -0.5663284 -2.0214722 0.18048225
000070 66 f4 f6 bf 74 25 c4 be e6 1d b8 bf 82 43 fb be
       -1.9293334 -0.38309824 -1.4384124 -0.49074942
000080 1e 74 10 3f 32 55 a7 bf 62 0f 7c bf 4f 19 a5 3e
       0.5642718 -1.3072875 -0.9846097 0.3224587
000090 f1 82 cb 3e e4 c1 f2 bf e4 7f f1 be b7 92 1f bf
       0.39748338 -1.8965421 -0.47167885 -0.62333244
0000a0 25 6c 28 be 03 03 85 bf 2b 3d 96 bf fd 47 53 3d
       -0.16447504 -1.0391544 -1.1737417 0.051582325
0000b0 ef 39 dd bf f5 ae 11 40 be d3 26 3f 1a c0 00 bf
       -1.7283305 2.2763035 0.6516684 -0.50293124

gru.weight_ih_l1 f4 [48, 16]
000000 ce 17 86 3e 10 ca 91 be 94 93 04 bf 46 3f 0f 3e
       0.26190037 -0.28474474 -0.51787686 0.1398898
000010 3f 06 ec 3e 1b 20 8c be 6e 40 5f 3f ff 2e ad 3e
       0.46098515 -0.27368245 0.87207687 0.33824918
000020 b8 db ca be 04 f4 61 3d 39 cb d1 bc 4b b7 0e bf
       -0.39620757 0.055164352 -0.0256096 -0.5574843
000030 8e d1 03 3f ac 9c cd bc d5 e4 e7 be df c5 17 3f
       0.5149163 -0.025099121 -0.45291772 0.592863
000040 69 e9 f7 3d 3b df 83 3e ca ba 44 3c e1 0f 9f 3e
       0.12105066 0.2575625 0.012007425 0.31066802
000050 ec 7f 06 bf bc 8d f7 bd 00 07 c5 be 74 e3 b3 be
       -0.52538943 -0.120875806 -0.38481903 -0.3513447
000060 9a f6 ea 3c e9 6a a4 3d 63 ed ed 3e cf 8f 42 3e
       0.028682042 0.08028204 0.46470174 0.19000171
000070 12 31 bd be 61 be 80 3e 7b 69 33 be 7d 01 ab 3d
       -0.369515 0.25145248 -0.17520706 0.08349893
000080 c7 8e 0e be 49 1f 2d bf ad 2e 4c bd 5b 3f 93 bd
       -0.13921653 -0.6762586 -0.0498492 -0.071898185
000090 c2 85 11 be 19 07 fd bc ae 6b d8 3e da 2f 7e 3d
       -0.14211181 -0.030887173 0.42269653 0.062057354
0000a0 7b 21 0e be e2 d8 d3 3e ac 08 98 3e 57 f9 1e be
       -0.1387996 0.41376406 0.29694116 -0.15524803
0000b0 ae 78 79 3e 8f 88 52 be ca 45 9f bd 43 d5 c1 3d
       0.24362442 -0.20559905 -0.07776983 0.094645046
0000c0 61 f2 58 3f ac 26 41 bf 20 20 af 3e 5d c9 16 bf
       0.8474484 -0.75449634 0.34204197 -0.58901006
0000d0 bc b5 4c 3e 7d 08 82 3e a5 b4 48 be ce f2 c0 3e
       0.19991201 0.253971 -0.1960016 0.37685245
0000e0 5f ec 78 3c ea 28 0d be 27 e2 44 3e e7 c1 5d be
       0.015193074 -0.13785139 0.19226895 -0.21655999
0000f0 0c 39 39 bd 6f 90 9d 3e 82 d8 f7 3d a8 7a a2 be
       -0.04522042 0.30774257 0.121018425 -0.31734204
000100 7f e0 ae bf 94 c6 29 bf 68 19 08 be 2f c8 92 be
       -1.3662261 -0.6631863 -0.13290942 -0.28668353
000110 11 2e 48 3f 18 7b 52 3d 09 8e e3 3e 67 9f 43 3f
       0.7819529 0.051386923 0.44444302 0.76415104
000120 72 ee a7 3b fd fa 9b 3e d3 58 0b 3f 63 ce 6c bf
       0.0051248604 0.30464926 0.5443241 -0.9250242
000130 fc c3 45 3e 1c 23 99 bc 97 f5 cd be d6 d0 6b 3e
       0.19313043 -0.0186935 -0.40226433 0.23028883
000140 24 13 6c 3f 3d 14 54 bb 24 3e 8f 3e 87 05 81 3c
       0.92216706 -0.0032360696 0.27977097 0.015749706
000150 35 b3 1c 3e 03 a0 93 3e a9 56 ec bc 91 6b 0f be
       0.15302737 0.28833017 -0.028849917 -0.14005877
000160 45 f3 a7 3e 00 67 1c 3f 44 50 0f bf 1f 43 ec bd
       0.32802787 0.61094666 -0.5598185 -0.1153624
000170 dc 2b da 3d 5f 41 0c bd fb 30 04 bf 33 13 27 3f
       0.10652897 -0.03424203 -0.5163724 0.6526367
000180 fa 78 63 b9 f5 70 5b be 2e e4 82 3f 6e 4e f1 3d
       -0.00021693474 -0.21429808 1.0225885 0.117825374
000190 06 91 79 be 0f a0 32 3d ec 0e 23 3e e6 e1 42 be
       -0.24371728 0.043609675 0.15923661 -0.19031486
0001a0 13 d3 18 3d 3d 45 47 3f 54 98 c1 3d 28 2d 75 3d
       0.03731067 0.77840024 0.094528824 0.059857517
0001b0 d5 93 12 3d 25 fc 50 be b4 cc 59 3e dc 3b dd be
       0.035785515 -0.20408686 0.21269494 -0.43209732
0001c0 ba 30 06 3e 06 c5 97 3d d8 7d 48 3f e5 82 04 bf
       0.13104525 0.07410626 0.7831702 -0.5176223
0001d0 4d f7 01 3e 6f 1c 31 3f c6 c3 1e 3f a6 00 3c bf
       0.12691994 0.6918401 0.62017477 -0.7343849
0001e0 62 bc 93 3f a8 dd 1a be 0d 28 ff 3d 78 83 a8 3e
       1.1541865 -0.15123618 0.12458811 0.32912803
0001f0 74 e8 85 be 6a 50 62 3e df f7 bc 3d 53 b1 6a 3e
       -0.2615391 0.22100988 0.09226965 0.22919206
000200 aa c4 18 3e c7 e0 6d 3d a4 22 f5 3d 6c fb e7 3d
       0.14918771 0.058075693 0.11969498 0.11327252
000210 c5 bc 6e be 3a 49 b1 3e 78 3e ab 3d 4d 10 85 3e
       -0.23314197 0.3462618 0.08361524 0.25989
000220 74 98 70 3e 25 1d 0e c0 7a b3 7e be f9 b1 49 3e
       0.23495656 -2.2205288 -0.24873152 0.19696797
000230 f9 fb 53 3c 4b 59 3b 3e 13 a1 c1 3d a5 c5 2d be
       0.012938493 0.18295781 0.094545506 -0.16969927
000240 81 0d 58 be 9b d9 14 be 0b 98 09 3f 56 6f 47 40
       -0.21098901 -0.14536135 0.53747624 3.1161704
000250 39 8a 67 3e dd 3b 9c 3e f6 8d 15 3f 45 14 e0 3d
       0.22611322 0.30514422 0.5841974 0.10941366
000260 3e 76 2d 3e c2 0a a9 be 37 66 9a 3e f0 e6 09 bd
       0.16939637 -0.3301602 0.3015611 -0.033667505
000270 ab c4 30 3e 71 c5 b7 3e 15 41 29 be 2d 9e 39 3e
       0.17262523 0.35892823 -0.16528733 0.18126746
000280 7f b4 2a 3e 61 12 91 bf 57 b4 22 3e 3b 00 15 bf
       0.16670416 -1.1333734 0.15889107 -0.58203477
000290 ae c0 6f bd 03 bd e9 bd 67 9e 13 3e 19 69 45 3f
       -0.058533363 -0.11413004 0.14415894 0.7711349
0002a0 24 8e bd 3d d0 7a 67 bf 22 58 c0 bd 8c 82 6b be
       0.09255627 -0.9042177 -0.0939181 -0.22999018
0002b0 b7 b2 38 be 3f a5 82 3b 10 49 03 be 82 ec 60 be
       -0.18036924 0.003986984 -0.1282084 -0.2196522
0002c0 26 97 42 3d 8d 6f ea be de 84 6d be d0 62 09 3e
       0.047507428 -0.45788231 -0.23195216 0.134166
0002d0 3b f7 0d 3e 8e e4 b8 3d 9b 8b 7f bf 86 e9 d0 bd
       0.13863842 0.09027968 -0.99822396 -0.10200791
0002e0 a0 06 ea 3e 8e 03 1a 3f 7f df 21 bd 27 71 86 be
       0.4570818 0.60161674 -0.039519783 -0.26258203
0002f0 6e cd 98 3e b8 54 15 bf ba 97 84 be 3b 7c dd 3d
       0.2984423 -0.58332396 -0.25897008 0.10814711
000300 47 dc 3f 40 ba 8f 86 bd a0 00 b4 be 2c 6b a5 be
       2.9978197 -0.065703824 -0.35156727 -0.32308328
000310 21 ad 45 bd 72 f7 32 3d e4 c6 a5 3e 28 88 0b 3f
       -0.04826081 0.043693013 0.32378304 0.5450463
000320 26 01 4a 3e 08 a3 9a 3c 19 a9 41 3b 82 b8 b2 bc
       0.19727 0.018876567 0.0029550253 -0.021816496
000330 fe 16 0f be d1 0d f1 3c fa 61 22 3d ad 2f 7d be
       -0.13973615 0.029425533 0.03964422 -0.24725218
000340 bd 92 2a 3f 94 69 26 3e e1 d0 e9 3e 2d 16 8b 3f
       0.66630155 0.16251212 0.45667174 1.0866143
000350 76 cd 0c be 94 b4 34 3c 37 f4 a6 be 8c 14 f3 3e
       -0.13750252 0.011029381 -0.32608196 0.47476614
000360 0a c8 b9 3d 36 c0 97 be ec 9b ed bb dc 43 bf bd
       0.090713575 -0.29638833 -0.0072512534 -0.09339115
000370 de 02 b6 3d 8b 93 94 be 64 05 d8 3d 3b 8e ae bd
       0.088872656 -0.29018816 0.10547903 -0.08523222
000380 fb 19 cd 3e cd 49 17 bf 4a 2e 12 be bf a8 40 bf
       0.40058884 -0.59096986 -0.1427547 -0.75257486
000390 5c 90 0c 3e 56 dc 20 be b2 86 ab be b7 83 b1 3d
       0.13726944 -0.15709051 -0.33501202 0.08667701
0003a0 90 aa f2 3d c0 f6 73 3d b8 66 a6 3e 9d 80 fb 3d
       0.118489385 0.05956149 0.32500243 0.122803904
0003b0 a2 37 93 be 0c 79 0c 3f ea 58 0a be 5b b0 29 be
       -0.28753382 0.548722 -0.1351048 -0.1657118
0003c0 d3 53 0c bc 27 51 81 be ee 1c 4d 3f 3d 1f 9d 3e
       -0.008564907 -0.25257227 0.8012227 0.30687895
0003d0 b9 a2 76 3e 6b ce d9 3e fa 53 13 3f 71 eb 97 be
       0.24085511 0.42540297 0.57550013 -0.29671815
0003e0 67 0d 9b 3e 64 f8 b2 bd 7a fc 19 bf f5 ce ba bd
       0.30283663 -0.08738783 -0.60150874 -0.09121505
0003f0 89 6e 80 3d 76 f4 88 3e 12 22 1d 3d 63 da e9 3d
       0.06271083 0.2674901 0.03836257 0.11418607

gru.weight_hh_l1 f4 [48, 16]
000000 a3 a2 f8 be 2e f9 8b be ff e7 66 3e 8e d5 1a bf
       -0.48561582 -0.27338547 0.22549437 -0.6048211
000010 d5 07 b4 be fd 5a 61 3c 50 5e 63 3d 37 6b 2a 3d
       -0.35162225 0.013754603 0.055509865 0.041606154
000020 50 a7 14 3f 32 62 94 3e 2c 44 49 bd 11 89 a0 be
       0.580678 0.28981167 -0.04913728 -0.31354573
000030 d1 7e 05 3e ae a5 61 be 0d 7e bf 3e f0 03 17 3f
       0.13036658 -0.22035858 0.37400857 0.58990383
000040 bf fc c1 be db 17 a5 be af 46 7c be 54 52 3c bf
       -0.37888142 -0.32244763 -0.24636339 -0.7356312
000050 4d ad 95 3e e4 d1 34 be c9 f2 24 3e 76 c7 34 be
       0.2923378 -0.17658192 0.1610824 -0.17654213
000060 ed ac 3e 3e 69 95 d0 3e 29 dc 73 be 77 b2 e6 be
       0.18620653 0.4073899 -0.23814453 -0.45058033
000070 8e bc 14 bf b6 46 4d 3e 70 64 10 3e 58 f2 47 3e
       -0.5810021 0.20046505 0.14100814 0.1952604
000080 de c5 c3 3e 34 99 d5 be a7 fe ba 3c bd 28 8d be
       0.38236898 -0.41718447 0.022826506 -0.27570143
000090 3d 98 56 3e ab 69 09 bf a6 5b 7a 3e 7d 2b 98 bd
       0.20956512 -0.5367686 0.24449024 -0.0743017
0000a0 9d e7 f5 3d e7 6e 54 3e b0 ff e8 3d 3d 3c d8 3e
       0.12007067 0.20745431 0.113768935 0.42233458
0000b0 b0 26 50 3c 1e 79 29 bf f3 c6 fa 3d fb 6b d1 3e
       0.012704536 -0.66200435 0.12244978 0.40902695
0000c0 3a 6e 89 3e f2 7d 81 3b c5 d7 73 be 49 e0 10 bf
       0.2684191 0.0039517814 -0.23812778 -0.5659223
0000d0 9c 5c 2d 3f c0 43 55 be 31 93 be bc fd 36 ac 3e
       0.67719436 -0.20826626 -0.023263546 0.33635703
0000e0 72 02 f7 3e 13 3e dc 3e 1f 47 4a 3e 2d 2b 88 3e
       0.48244053 0.4301611 0.19753693 0.2659544
0000f0 a7 30 23 bf 91 ab 28 bf 55 b7 6f 3e 52 56 b6 3e
       -0.6374611 -0.6588679 0.2340978 0.35612732
000100 06 d3 f1 be fa c6 20 3f 01 81 1d 3f 56 06 1c bf
       -0.4723131 0.62803614 0.6152497 -0.6094717
000110 b3 4a af be 48 16 8e 3e 98 eb 0b 3f fe 21 00 bf
       -0.34236678 0.27751374 0.5465636 -0.5005187
000120 f3 a7 9f 3e 3c 16 08 bf 28 0d 19 3f 59 6c 91 be
       0.31182823 -0.53158927 0.597857 -0.28402975
000130 db 5f 54 3f 9a 29 b7 be 88 84 20 3f 09 0c 88 3e
       0.82958764 -0.35773927 0.62702227 0.26571682
000140 70 11 cd 3d fa 13 29 3e 1f b2 be 3e 04 f0 ae be
       0.100130916 0.16511527 0.3724527 -0.34167492
000150 08 09 90 39 e3 71 c4 3e a3 98 0f 3f df b2 cb bd
       0.0002747255 0.3836814 0.5609228 -0.09946226
000160 2e 1f ef bd 5f 83 e2 3c 88 74 25 3c 22 ce 94 be
       -0.11675869 0.027650533 0.010098584 -0.29063517
000170 3c 8b dc 3d 7f 76 f3 3d fd 0f 6e bd d2 e9 94 bc
       0.10768744 0.11887836 -0.058120716 -0.0181779
000180 19 34 81 be 61 a0 3d bd e9 01 4a be e5 2d 95 3e
       -0.2523506 -0.046295527 -0.19727291 0.29136577
000190 cc cd 70 bc f4 ff 27 be 59 94 06 3d 66 02 97 be
       -0.014697503 -0.16406232 0.03285632 -0.29494017
0001a0 90 43 a2 3e 4e a6 1e bf ad 3a a1 3e 95 d2 99 be
       0.3169217 -0.6197251 0.3149008 -0.30043474
0001b0 dc e6 90 bd 05 b2 0e bd f3 19 21 be e3 49 e2 bd
       -0.07075283 -0.03483774 -0.15732555 -0.11049249
0001c0 db a3 88 be d1 f0 3b bc 15 50 03 be cb 8c b0 bc
       -0.26687512 -0.011470989 -0.12823518 -0.02155151
0001d0 48 a1 6a bd 77 45 72 3f ff e8 aa be bf 97 b8 be
       -0.057282716 0.94637245 -0.33380887 -0.36053273
0001e0 79 69 e2 be 19 64 93 bf b8 f3 24 be d7 24 8c bd
       -0.44221094 -1.1514922 -0.16108596 -0.06842964
0001f0 98 20 26 be 97 38 aa 3d 8a 3e 23 bf 2e 3a 0b be
       -0.16223371 0.08311575 -0.637673 -0.13596413
000200 51 23 7d 3e 43 02 02 bf 77 fc 25 bf 2b 12 03 3f
       0.24720503 -0.507847 -0.64838356 0.511996
000210 37 0f 5a be 65 ea c7 be cd aa 3e be 96 b3 d4 3e
       -0.21294867 -0.39046016 -0.18619843 0.41543263
000220 47 91 a8 bd 83 87 c5 3e 51 70 93 bf 6c 25 4b 3c
       -0.082308345 0.3857995 -1.1518651 0.012399059
000230 cf 4b 0e bf cd 85 c8 3e 2c f0 b3 be a9 70 91 be
       -0.55584425 0.39164582 -0.35144174 -0.28406265
000240 a8 d6 57 3e c9 af 7b 3e 31 6a 01 be 19 e9 e2 bd
       0.21077979 0.24578775 -0.12638165 -0.11079616
000250 2f 30 bc 3e 17 ff 92 bd 2b c0 3b 3e 82 b2 35 3e
       0.3675551 -0.07177561 0.18335025 0.17743877
000260 46 16 f6 3c c9 2b 99 3f 22 fe 8e be 0c 8c 99 3d
       0.030039918 1.1966487 -0.27928263 0.07497415
000270 33 ff 75 be de 97 fe 3e 54 a9 9e bd 00 50 1e 3d
       -0.24023132 0.4972524 -0.077471405 0.038650513
000280 71 a0 8b bd e9 be f6 3c 74 bd da bd 6e 60 c1 3e
       -0.06817711 0.03012033 -0.106806666 0.37768883
000290 e7 2c 0c be e8 6e 59 bf 8d e8 e5 3d c8 37 50 3e
       -0.13689004 -0.84934855 0.11225996 0.20333779
0002a0 35 36 f7 3d b3 d3 ad 3e 36 18 b1 3e fc 51 b3 3e
       0.12070886 0.33950576 0.34588784 0.35023487
0002b0 4d 47 f5 be 3b 0a f0 bd 26 73 89 3e 8c e0 97 be
       -0.4790596 -0.11720701 0.26845664 -0.29663503
0002c0 97 14 3a bf 56 79 03 3b 52 e1 65 3e 70 6f 2c bf
       -0.7268767 0.0020061336 0.22449234 -0.6735754
0002d0 22 1b 44 be 01 a7 90 3e 82 e4 42 bc d0 69 81 3e
       -0.19150975 0.28252414 -0.011895301 0.2527604
0002e0 34 f0 ed be e8 6b 60 3d ff c3 c0 3c 8f 5a 00 3e
       -0.46472323 0.054790407 0.023530958 0.12534545
0002f0 bd c7 ef 3e c9 70 60 3d 58 d2 22 be e2 f8 2e 3f
       0.46832076 0.05479506 -0.15900552 0.68348515
000300 b6 a1 08 3e 82 bf da be 83 48 30 3e 00 56 4b 3e
       0.13342938 -0.42724234 0.17215161 0.19857025
000310 32 2c 3a 3e 52 9b 08 bf b4 23 06 bd 15 c4 43 3d
       0.18180922 -0.53362 -0.032748893 0.04779442
000320 64 ed 40 3f 28 58 c8 3e ef 72 e5 be b7 04 b6 bb
       0.7536223 0.39129758 -0.4481425 -0.0055547613
000330 84 97 42 bf 43 ff e8 be e5 4e f4 3d 36 b0 1a be
       -0.76012444 -0.4550725 0.119291104 -0.15106282
000340 e8 43 eb be f6 a1 94 be 9d 10 eb be 3a fd 23 be
       -0.45950246 -0.29029816 -0.45911112 -0.16014567
000350 d1 01 d3 3e 73 ac 8e be 1b fb 20 be fd f3 02 3f
       0.41212323 -0.27865943 -0.15720789 0.51153547
000360 94 c8 01 bf 0e 23 ba 3f 4d f1 2e bb 23 d4 15 3e
       -0.5069668 1.4541948 -0.002669412 0.14631705
000370 cf 0a b9 be 73 fc 95 3e cc 87 28 3e d8 68 aa bc
       -0.3614106 0.29294166 0.16458052 -0.020801947
000380 2b 78 0c 3f 26 e0 f0 bc 6d d2 62 be 76 5d f2 3d
       0.5487086 -0.029403757 -0.22150584 0.118342325
000390 24 2b c8 3c cd c9 25 bf ce 17 e6 3c 82 89 2c 3e
       0.024434634 -0.6476105 0.028087523 0.1684933
0003a0 06 be b8 bd 06 19 c7 3e bf 9b 55 3e 04 95 b2 3e
       -0.09020619 0.3888628 0.20860194 0.34879315
0003b0 bf b1 8a bf 02 d3 19 bf 6d 42 c0 bd 65 52 1c be
       -1.0835494 -0.600876 -0.0938767 -0.15265806
0003c0 fc 9a 17 3c 19 8e 3f be 7a d7 ea 3e e9 c7 66 be
       0.00925326 -0.1870655 0.4586752 -0.22537197
0003d0 44 23 b1 3e 7c f4 c0 3f 8a a8 b8 bc 20 af 0b be
       0.34597218 1.5074611 -0.022541303 -0.13641024
0003e0 91 27 77 3a fd 10 d6 3e 3a f0 52 be 22 d6 8b be
       0.0009428198 0.41809836 -0.20599452 -0.27311808
0003f0 81 71 46 3f f3 2d 08 3f b8 a5 91 bc 1c ce d6 be
       0.77516943 0.5319511 -0.017779216 -0.41954124

gru.bias_ih_l1 f4 [48]
000000 12 e4 0d bf 46 31 3d 3e 3d 6e cd 3e 69 d7 cb be
       -0.5542613 0.18475828 0.40123168 -0.39812782
000010 d4 2f b6 bd c3 c5 2b be 12 7b ba bc f4 99 12 3e
       -0.08895841 -0.16774659 -0.022763763 0.14316541
000020 52 0c fc bc 17 90 c5 be cf 60 9d 3c 88 e6 53 bd
       -0.030767594 -0.38586494 0.019211201 -0.051733524
000030 e5 86 06 bf 0a b4 23 bd 1b 6e 62 be 1a 96 c3 be
       -0.5254958 -0.03996662 -0.22112314 -0.38200456
000040 bc e4 0b 3f cc 62 18 3f a9 e7 99 3e 5c bc bd 3e
       0.54645896 0.5952575 0.30059555 0.3705777
000050 d4 ab 98 3e 13 2c b9 3f 41 c8 fc 3e ea 84 22 3f
       0.29818594 1.4466575 0.49371532 0.6348406
000060 91 c6 fa 3e a2 72 3e 3f 44 62 8a 3e ad ab 15 3f
       0.4897962 0.74393666 0.27028096 0.5846508
000070 51 c5 a7 3f 01 86 bf 3e 3d 63 2c 3e ec 86 15 3f
       1.3107091 0.37406924 0.16834731 0.58409
000080 38 e4 16 3e f7 76 fb 3e f0 08 89 3c c9 42 20 bd
       0.14735496 0.491142 0.016727895 -0.03912619
000090 e0 a0 27 3e b1 56 31 be 2a a2 3b 3e 31 b9 72 3e
       0.16369963 -0.17318226 0.1832358 0.23703457
0000a0 26 ae a9 be d1 15 90 be 08 7d bc bc e5 74 4b 3e
       -0.33140677 -0.28141645 -0.023008838 0.1986881
0000b0 9a dd 2e bd d8 03 7a 3e 96 18 3a bd b4 d8 dd be
       -0.042691804 0.24415529 -0.045433603 -0.43329394

gru.bias_hh_l1 f4 [48]
000000 c9 1b 4f bf 81 69 b5 3e 1b 26 29 3e 12 b3 c0 be
       -0.8090177 0.35432056 0.16518442 -0.3763662
000010 cc b3 b9 bd 69 36 6e be a6 a0 e9 3d 77 dd 8f 3b
       -0.09067497 -0.23262943 0.114075944 0.0043904143
000020 a0 09 f7 be 98 3e 20 be df 56 36 bd 23 9e ba 3d
       -0.4824953 -0.15648878 -0.04451644 0.091121934
000030 96 9c d1 be 8c e5 b2 bd af 1e 1a be df e9 cd be
       -0.40939778 -0.08735189 -0.15050767 -0.40217492
000040 24 df e9 3e 1c 26 48 3f eb f7 01 3e 9f 95 10 3f
       0.45678055 0.7818315 0.1269223 0.56478304
000050 38 84 ca 3e ba 95 9e 3f 55 b3 54 3e 67 d4 2c 3f
       0.39554 1.2389443 0.20771535 0.675116
000060 5e 89 84 3e 6c 8e 31 3f 40 38 59 3e df 9d 19 3f
       0.25886053 0.69357944 0.21212864 0.6000652
000070 3c e7 8c 3f e1 7b be 3e 0b 36 54 3e 18 b7 22 3f
       1.1008067 0.37203887 0.20723741 0.6356063
000080 c3 52 d8 bb fb 14 97 3e 24 e0 75 be 3a 57 fe 3d
       -0.006601663 0.29508194 -0.24011284 0.12418981
000090 5f 0a ac be cb 0b ed 3b 28 49 03 3e 42 11 ad 3b
       -0.33601663 0.007234072 0.12820876 0.0052815983
0000a0 66 9a 98 bd 5e 76 dd bd 04 f2 0f 3e 25 ad 8d 3e
       -0.07451324 -0.108135924 0.14057165 0.2767116
0000b0 a4 c1 af bd ae ac 53 3e a3 f7 60 3d 5c d2 00 be
       -0.08581856 0.20671341 0.054923665 -0.12580246

gru.weight_ih_l2 f4 [48, 16]
000000 bb a9 52 3e 2c df fa be 65 ee 9b be bc 0c 6d 3e
       0.2057256 -0.48998392 -0.30455318 0.23149389
000010 1b 61 89 3e 1b 84 ae 3e 6a c1 b6 3d 74 b8 17 3d
       0.26831898 0.34085163 0.089236096 0.037041143
000020 9e a6 40 3e cb 0c 6d 3e 95 09 0e 3f 2b 26 54 3e
       0.1881356 0.23149411 0.5548337 0.20717685
000030 e3 4d 21 be 51 18 f0 bd 30 0e 84 3d 95 af af be
       -0.15752368 -0.11723388 0.064480186 -0.34313646
000040 a9 0d 00 be 92 49 64 3e 33 c1 59 3e a8 c3 8f 3e
       -0.12505211 0.2229369 0.21265106 0.2807896
000050 0f a1 87 be 3e 1c 36 be 93 dd a1 be 59 2b 55 be
       -0.26490065 -0.17784211 -0.3161436 -0.20817317
000060 c9 b1 b0 3e 93 58 28 3f ca 50 89 be 7b 2c e1 3d
       0.3451064 0.65760154 -0.2681945 0.10994812
000070 f8 58 67 bf 92 24 b8 bd 49 36 aa bd 56 9c 7d be
       -0.9037013 -0.0899135 -0.08311135 -0.24766669
000080 dd cc 96 3f 30 8c 9f bf 32 18 fa bd f0 66 92 bd
       1.1781269 -1.2464657 -0.12211646 -0.0714854
000090 0f 9c c6 3e 15 be fa bd a4 63 01 be bb f7 84 3e
       0.38790938 -0.122432865 -0.12635666 0.25970253
0000a0 18 43 84 3d 99 f3 bf bd 57 29 75 3c 89 99 20 3f
       0.064581096 -0.093726344 0.0149634695 0.62734276
0000b0 ee 38 51 be ac dd c5 bd 42 55 f6 3c 95 e5 2b 3d
       -0.20431873 -0.09661421 0.030069951 0.041966993
0000c0 b1 2b 3f 3f e8 31 71 3e 0e 3b 01 ba ff ac 7e 3f
       0.7467604 0.23554194 -0.00049297593 0.9948272
0000d0 19 c0 b2 be 6f 41 69 3e 44 3d a7 3e d5 94 8a 3d
       -0.34912184 0.22778867 0.3266393 0.06766669
0000e0 00 66 6f 3e c8 32 e7 bd dd 36 75 be b6 5d 71 be
       0.23378754 -0.11288983 -0.2394671 -0.23570904
0000f0 0d 22 ae 3e 9b 9a 92 3d 4a b1 5c bf 99 82 da be
       0.34010354 0.07158395 -0.8620802 -0.42677763
000100 01 4f a6 3e 3f aa fa bd f2 54 01 3f fd 22 be be
       0.3248215 -0.12239503 0.5052024 -0.3713607
000110 1c 91 3c 3d 44 af 1c 3f 3c 77 9a 3d fc 67 62 3e
       0.046036825 0.61204934 0.075422734 0.2210998
000120 b4 06 f3 3c 9e 15 bb 3e 7a 20 0b be cd e2 c5 3c
       0.029666282 0.3653993 -0.13586608 0.024155999
000130 f3 97 68 3c 0e 1c a5 bd 06 fb 84 be 13 ef 78 3d
       0.014196384 -0.08061992 -0.25972766 0.060774874
000140 0b a5 40 bd e8 cc 37 3e 30 2d e8 3e a6 01 27 bf
       -0.047032397 0.1794926 0.45346975 -0.6523689
000150 ef 86 9f be c7 9f b8 be 53 a1 00 bf e0 73 5e 3e
       -0.31157634 -0.360594 -0.5024616 0.2172389
000160 5b 23 5f bf bd f3 1a 3f 9e 63 11 3d b6 0a 82 bd
       -0.87163323 0.60528165 0.035495393 -0.06349699
000170 ca 1f 56 be dd 15 d2 bd 26 5b 03 bf 43 c6 7b bc
       -0.20910564 -0.10258076 -0.51310956 -0.0153670935
000180 6c 12 6b 3e 2f 31 93 3d 3d 2a 1b be 27 11 0b 3f
       0.22956246 0.071871154 -0.15152831 0.5432305
000190 21 80 1b be e3 1b e4 be 84 1d 99 3e aa 11 b1 be
       -0.15185596 -0.44552526 0.2990533 -0.3458379
0001a0 b4 d4 e8 3e 45 43 39 3e 41 26 3b be d9 93 83 3e
       0.4547478 0.18092068 -0.18276311 0.25698736
0001b0 3c b1 df 3d 17 40 c8 bd 4e bf 1d bf 02 8f 4e 3e
       0.10922477 -0.09777849 -0.6162003 0.2017174
0001c0 0d f7 84 3e 62 e8 e1 3e d5 f9 a0 3e b8 c0 ff be
       0.25969735 0.44122607 0.31440607 -0.4995172
0001d0 64 8f 50 be 14 f8 0c bf 87 2a 83 3e ff 88 74 bf
       -0.20367199 -0.5506604 0.25618383 -0.9552154
0001e0 11 50 c3 3e 08 68 25 3e 2d 8c 73 3e f6 cb bc bd
       0.38147023 0.16152966 0.23783942 -0.0921859
0001f0 f6 fd 29 3e b8 c8 3a bf 40 1b 9c 3e 48 3e df be
       0.16600785 -0.7296252 0.3048954 -0.43602204
000200 f6 1f 59 be bb 32 d9 3e 22 ac 47 3d 89 7d d7 be
       -0.21203598 0.42421517 0.048748143 -0.42087963
000210 83 ad b3 3e c1 64 91 be f3 43 a2 bd fd ac 92 bd
       0.35093316 -0.28397182 -0.079231165 -0.07161901
000220 80 62 84 bc b2 3e 20 3e 9d 72 1e bd 63 e1 ca 3e
       -0.01616025 0.15648916 -0.038683522 0.3962508
000230 da c6 4e bf a1 33 b3 bd 30 eb 00 3f d6 67 d8 3e
       -0.80772173 -0.08750082 0.5035887 0.4226672
000240 ec 09 96 3f 43 0e 14 3d b4 b8 a8 3d da 3f 21 3f
       1.1721778 0.036146414 0.08238354 0.62988055
000250 5e a5 2e bd 90 60 30 3e fe ae 53 3d 8f ea 7a 3e
       -0.042638175 0.17224336 0.051680557 0.2450354
000260 1f d9 a4 3e 06 6f f6 bd 27 1e a9 bd f9 02 d1 be
       0.321969 -0.12032895 -0.08257704 -0.4082258
000270 9b b6 f0 be 09 24 15 bb 4b 01 85 bc 9a 01 f0 be
       -0.47014317 -0.0022757074 -0.016235968 -0.46876222
000280 16 12 01 be 8d a3 11 bf d0 a8 8e be 3b 8f 2a be
       -0.12604555 -0.56890184 -0.2786317 -0.166562
000290 6a 84 19 bf 16 c5 f6 3e 86 f1 a9 be c6 67 2e 3e
       -0.5996767 0.4819724 -0.3319208 0.17031774
0002a0 86 e9 58 3e 96 63 d5 be fe 34 a6 be b2 b0 06 bf
       0.21182832 -0.4167754 -0.32462305 -0.52613366
0002b0 cd e5 01 3f a6 8c 34 3d 63 c1 0d bf 89 85 82 be
       0.50741273 0.044079445 -0.5537321 -0.25492504
0002c0 36 c7 aa 3e 5c 21 2f 3e dc 33 0e 3e f0 0f 37 bf
       0.3335511 0.1710257 0.1388697 -0.71508694
0002d0 74 4d 9a 3e c0 ce 09 bf 5e de 96 bd c5 c1 b8 be
       0.30137217 -0.538311 -0.07366632 -0.36085334
0002e0 e9 11 9d bc 26 04 48 3e 09 72 63 be 1a c4 38 3e
       -0.01917358 0.19532833 -0.2221147 0.18043557
0002f0 81 5c 9f be f1 ef 01 bf a1 85 1d bf 42 f6 54 3e
       -0.31125262 -0.50756747 -0.61532027 0.20797065
000300 2c 15 d4 3e 02 af 38 3d 03 45 1e be 68 61 90 bd
       0.41422403 0.045088775 -0.15456013 -0.07049829
000310 16 19 90 bd 34 25 16 bf cf 8a 39 be dd d2 fb 3e
       -0.07036035 -0.5865052 -0.18119358 0.49184313
000320 d9 8e 52 3d 7b e6 91 bd 42 ab 17 3e c1 9a 8c be
       0.05140576 -0.07124039 0.14811423 -0.27461818
000330 98 43 21 3e 00 25 86 3e 44 ef 4f be 9e 09 00 3f
       0.15748441 0.26200104 -0.20306116 0.50014675
000340 bb 3b cc bd 5c 50 4e 3c 8f 84 ca 3d 61 3a f3 be
       -0.0997233 0.012592401 0.09888565 -0.47505477
000350 97 26 60 be 67 3a 7c be 1b 08 ef bd 27 4e 87 be
       -0.21889721 -0.24631654 -0.11671468 -0.26426813
000360 f4 66 9b 3e cc 7f 92 3e 0f ce 45 bd 98 38 6d bd
       0.30351985 0.28613126 -0.048292216 -0.0579153
000370 17 fe 92 3f a8 8c 46 3e e9 18 b4 3d 16 3a 90 3d
       1.1483792 0.19389594 0.08793814 0.07042329
000380 9e cc 0a bf d3 6d 5c be 44 cf 05 bf 6f e9 a8 bd
       -0.5421847 -0.2152627 -0.5226939 -0.08247649
000390 8d a5 b5 3c 4e 78 a8 be 66 fc b6 be db 5a f8 be
       0.022173667 -0.32904285 -0.3573944 -0.48506817
0003a0 30 65 19 be 5f 81 3e bc 5e fb b7 be 26 b0 ae be
       -0.14980006 -0.011627524 -0.35933965 -0.34118766
0003b0 d3 65 80 3f ad 6e c2 b9 c6 1c 7e be 74 88 d2 3e
       1.0031074 -0.00037085023 -0.24815664 0.4111973
0003c0 3c 6f 92 3e 3c da 12 bf da 78 74 be 59 1f 28 bf
       0.2860049 -0.5736425 -0.23874226 -0.6567283
0003d0 62 ea 13 be 1b 44 f1 be f7 0d 49 3e 74 00 b2 3e
       -0.14444879 -0.47122273 0.19634233 0.3476597
0003e0 5b 0c 3a bf 2c 71 07 3e 54 7a de bc 3f d4 1d 3c
       -0.726751 0.13226765 -0.02715794 0.009633123
0003f0 7b 8c e4 be 77 48 6a bf e8 6b 0f be f4 90 e2 3e
       -0.44638428 -0.9151682 -0.14006007 0.44251215

gru.weight_hh_l2 f4 [48, 16]
000000 b2 6d d6 be 78 db f1 3c b3 4e 92 3e e1 88 b2 be
       -0.41880566 0.029523596 0.28575668 -0.34870055
000010 12 fc bc bc dd 96 3d be ec 35 97 3e f4 ad 8d bd
       -0.023069415 -0.18514581 0.29533327 -0.069179446
000020 4c 41 e1 be 16 2c a1 3d bf 09 8e bd 19 13 71 3e
       -0.4399513 0.07869737 -0.06935453 0.23542441
000030 8e 68 25 3e 89 b8 da bd 29 a8 2b be 8e fe 1e 3f
       0.16153166 -0.106797285 -0.16763367 0.6210717
000040 72 ea fb bc 5a 41 a8 be ff 36 07 3e 8c fc 46 bd
       -0.03075144 -0.3286236 0.13204573 -0.04858069
000050 1a a7 1b be fa 82 a6 3e 13 3f bc 3d 68 5f d7 bd
       -0.15200463 0.32521802 0.09191718 -0.10516244
000060 e3 4b ab 3e 73 75 89 3e d2 89 3b bf cb 92 e9 3d
       0.33456334 0.2684742 -0.7325717 0.11404952
000070 39 e2 5f be a3 fe 52 bf 13 fb ee be 0e 1b 89 bd
       -0.21863641 -0.82419795 -0.4667593 -0.066946134
000080 65 07 16 be a3 74 eb be 7c 6b 09 3f b0 e8 d7 3e
       -0.14651258 -0.45987424 0.53679633 0.42169714
000090 35 dd 7b be 10 b7 af be 13 a5 d9 bc 2c 6f 8b bd
       -0.24596103 -0.34319353 -0.026567971 -0.06808314
0000a0 8c 69 10 be 20 4f 30 3d db 54 21 3e d9 43 57 be
       -0.14102763 0.04304421 0.15755026 -0.21021976
0000b0 12 c0 36 bf 3e b2 af be 44 0c 80 3e d4 c1 15 bc
       -0.71386826 -0.34315675 0.25009358 -0.0091404505
0000c0 32 42 0b 3f 4b 48 b7 bc 0a f3 22 3d da 18 39 3e
       0.5439788 -0.02237334 0.03978256 0.18075886
0000d0 09 7d 96 3e 41 2a 17 3f 99 fa 3d be 2e 10 ef be
       0.2939227 0.5904885 -0.18552627 -0.46692032
0000e0 9f 75 7e 3e 4f 36 7b 3e 9d d1 17 bf c8 83 7a bb
       0.24849556 0.24532436 -0.5930422 -0.003822552
0000f0 78 9e 80 bb fb fe 4a bf 0f 45 12 bf e3 14 88 bd
       -0.003925141 -0.7929532 -0.57136625 -0.06644609
000100 ba b2 4b bd 7e 5d 80 3e 22 ef 15 be 3d e9 22 3e
       -0.049730994 0.2507133 -0.14642003 0.15909286
000110 5b be e8 bd b8 b4 5f 3e 48 8e 12 3e 4e f1 3a 3e
       -0.113644324 0.21846282 0.14312088 0.18256113
000120 86 4c 6c bf 21 5e 91 be a3 9f 4e 3f 8a f5 66 3e
       -0.92304265 -0.28392127 0.80712336 0.22554603
000130 d7 8e e9 3e 9c 48 4b 3e e8 cb 2c 3e aa 84 a8 bd
       0.4561679 0.19851917 0.16874659 -0.08228429
000140 b2 fd 5b bd d3 a7 88 3e 78 b7 bb bd f1 a8 ae be
       -0.05370874 0.2669054 -0.09165853 -0.34113267
000150 26 a4 5f bd f2 a1 eb 3e c1 4f f0 3e f4 94 b4 3e
       -0.054599904 0.46021992 0.46935847 0.35269892
000160 80 b2 7a be 22 4e 27 bd 4f e1 69 be 20 0a 42 bd
       -0.24482155 -0.040845998 -0.22839855 -0.047372937
000170 35 55 dc bd f1 eb 83 3e ad 46 26 3e 3c 7e 88 bd
       -0.107584395 0.25765947 0.16237898 -0.06664702
000180 1b 75 bb 3e 92 77 1f be 5f 9b 0b be 64 96 8f 3e
       0.36612782 -0.15572956 -0.13633488 0.28044426
000190 5d 79 28 3e c9 89 a5 3d 8e f2 d4 3d bb 69 cc bd
       0.16452546 0.08082921 0.10397826 -0.09981104
0001a0 93 bf e6 3e 74 9f c8 be fd 83 85 be 26 c0 3c be
       0.45068035 -0.39184153 -0.26077262 -0.18432674
0001b0 eb db 58 3e 08 6e 1c be 53 fd f9 be e0 66 12 3d
       0.21177642 -0.15276349 -0.48826084 0.03574264
0001c0 90 8b b4 be 7d 20 23 3f 87 12 fb be ff ae 0f bf
       -0.35262728 0.6372145 -0.49037573 -0.561264
0001d0 6b 08 ee 3e e1 59 f6 be d3 f7 76 be b9 55 81 3e
       0.46490797 -0.48115447 -0.24117975 0.25260714
0001e0 84 8d e8 bd b0 4d 0a 3e c9 96 1b be df 57 80 bf
       -0.11355117 0.13506198 -0.15194239 -1.0026816
0001f0 3f c0 09 3f d1 04 53 3d 9e 31 82 bc 62 d7 9d be
       0.5380897 0.051518265 -0.0158928 -0.30828387
000200 e4 6c dd bd 08 f7 d4 3d 7d 06 10 3e cf 8a 80 be
       -0.10811785 0.1039868 0.14064975 -0.25105903
000210 3b d2 55 3d 4e df a5 bc fd b4 ff 3d c4 8f 6a 3b
       0.052202445 -0.020248082 0.12485693 0.0035791257
000220 de fd ef 3d bd fa a7 3e 8a ce df be 6c 9c e1 3d
       0.11718343 0.32808486 -0.43712264 0.11016163
000230 37 db 97 be 09 7b 7f be df 44 f6 be 5a 86 fa 3e
       -0.29659435 -0.24949278 -0.4809942 0.48930627
000240 e7 85 e7 3e 06 4d 87 bd f4 24 64 bc cc 12 97 bd
       0.45219347 -0.06606488 -0.013924826 -0.07376632
000250 c3 c6 43 3e b9 a7 1a be 78 3d 22 bf 33 f9 22 be
       0.1911879 -0.15103044 -0.63375044 -0.15915374
000260 6e f8 e3 3d db 58 1c 3f c0 bf fe be e4 4b cb 3e
       0.111313686 0.6107308 -0.4975567 0.39706337
000270 50 23 57 be da 0c a6 bf 77 72 1f bf c5 18 ba bd
       -0.21009564 -1.2972672 -0.62284034 -0.09086756
000280 b2 94 92 bd e1 51 b4 3d 78 46 92 3e 95 c3 a5 bd
       -0.07157268 0.0880468 0.28569388 -0.08093945
000290 9b 42 91 3c 5a fb 32 3c 74 ec 00 3e cf 36 0d be
       0.017731955 0.010924185 0.125902 -0.13790439
0002a0 74 5d f3 3d 79 be ad 3e 92 65 38 be fd 2c a8 be
       0.11883059 0.33934382 -0.18007496 -0.32846823
0002b0 f4 c8 0b be e0 ab 89 3e c6 78 0d be a3 85 32 3e
       -0.13650876 0.26888943 -0.13815603 0.17433791
0002c0 58 1d 5a 3e f0 9c 02 be d1 11 e2 be b1 14 96 3e
       0.21300256 -0.1275518 -0.44154218 0.2931266
0002d0 fd cd 71 3d 5c 3c 12 be 69 1f 18 3c 72 05 bf be
       0.059034336 -0.14280838 0.0092848325 -0.37308842
0002e0 3f cf af 3e e8 17 3e be d0 e3 41 3e 0c 8e 39 be
       0.34337804 -0.18563807 0.1893456 -0.18120593
0002f0 f6 22 e5 3d f3 01 3a 3c 49 20 7e be 9d 07 1e be
       0.11188309 0.011353004 -0.24817003 -0.15432592
000300 05 20 9c be db e7 c0 3d 40 a8 4b 3d 60 5b 39 3e
       -0.3049318 0.09419223 0.049721003 0.18101263
000310 d8 c0 9d be 10 bf 38 bf 2f 44 45 3e 88 11 bc be
       -0.3081119 -0.7216654 0.19264291 -0.36732125
000320 cb 65 c4 be 4f 57 31 be a0 62 41 3f fc 7d 46 bd
       -0.38358912 -0.17318462 0.75541115 -0.04845999
000330 a6 ca 9c 3e 88 9a e8 3c 36 f8 c7 3e af f9 54 bd
       0.30623358 0.028393999 0.39056557 -0.05199593
000340 89 81 f9 bd f9 b3 dc 3e d7 42 5f be b1 5a 09 3d
       -0.1218291 0.43106058 -0.21802841 0.033533756
000350 51 9b 47 3e 14 53 14 3d a4 e1 90 bd ae 2a 9b 3e
       0.19492842 0.036212042 -0.070742875 0.30306
000360 59 79 0b bd 50 34 8a 3e 13 42 62 3d e4 93 d2 bd
       -0.034051273 0.26993036 0.055238795 -0.10282114
000370 30 28 03 3f fc 5f 70 3e 18 72 67 3e b8 d8 66 3d
       0.51233196 0.23474115 0.22602117 0.056359023
000380 85 2e 05 be 34 a9 8d 3e cc 25 e7 be 54 7a c7 bc
       -0.13006027 0.27668154 -0.45146024 -0.024350323
000390 37 84 04 3f a3 b2 86 bc 0e 4a 8c be 73 34 83 3e
       0.51764244 -0.016442603 -0.2740025 0.25625953
0003a0 a9 84 d0 3e 70 30 b9 be fd 4e a9 bc 9b 67 0b bf
       0.40726212 -0.36169767 -0.020667547 -0.54454964
0003b0 b2 c9 ac bd 65 2f 6a 3e 89 5f 04 be dd e0 02 be
       -0.08436908 0.22869642 -0.12927069 -0.12781091
0003c0 f1 1e c9 be ef de d5 3d bd 30 73 bd 8b 17 2d be
       -0.3928142 0.10442912 -0.059372652 -0.16903512
0003d0 81 7b b9 bd 5b 0d f7 be f9 6e 87 3d c3 82 70 be
       -0.090567596 -0.48252377 0.06612963 -0.23487382
0003e0 8e 87 a1 be 5d 69 14 3e 85 fe 73 bd 2d c1 07 bd
       -0.31548733 0.14493318 -0.0595689 -0.03314321
0003f0 98 d9 89 bd 08 b7 27 3d 4e 44 6f 3e dc 12 5f bd
       -0.06730956 0.040946037 0.233659 -0.054461345

gru.bias_ih_l2 f4 [48]
000000 31 8c 80 bd 65 e3 cf be ce e2 bc bd ec 7a de be
       -0.062767394 -0.40603176 -0.09222947 -0.43453157
000010 5e 80 c8 bd 23 be e0 bb a6 98 82 3d 45 6d cb be
       -0.09790109 -0.0068586036 0.06376772 -0.39731804
000020 a6 81 c1 bc 25 9f 79 bd 2c 7c d2 3c b2 96 9a 3d
       -0.023621392 -0.060942788 0.025693975 0.07548274
000030 af 80 a1 be c3 b0 c9 be 54 80 7e be 05 d1 91 bd
       -0.3154349 -0.3939267 -0.24853641 -0.071199454
000040 62 fa 0b 3f 5b 97 39 3f f0 45 38 3f dd 3a 4d 3f
       0.5467893 0.72496575 0.71981716 0.80167943
000050 e7 57 6b 3f 20 29 63 3f 3b 23 25 3f 38 29 f4 3e
       0.91931003 0.88734627 0.6450688 0.47687697
000060 88 57 5d 3f 05 e5 2d 3f f3 b8 33 3f 0d 1d d2 3e
       0.8646169 0.6792758 0.70204085 0.4103779
000070 75 06 aa 3e 9b fe 0a 3f 00 5a 4f 3f 8c 46 eb 3e
       0.3320805 0.5429475 0.80996704 0.4595226
000080 a4 3d 81 3e 18 12 d0 be 7a 5e 78 be 0e 26 5b 3e
       0.2524234 -0.40638804 -0.2425479 0.21401235
000090 b5 2a a1 3d d2 fc 13 be 9d 3d d1 3e 92 c8 70 bc
       0.07869474 -0.14451912 0.4086732 -0.014696257
0000a0 2f 71 04 3e 12 4b bc be 5b 35 41 bd 33 56 2e be
       0.12933801 -0.36776024 -0.047170024 -0.1702507
0000b0 b1 0c 4d 3e 10 23 01 3e 9c ac 94 3e 39 c5 5d be
       0.20024373 0.12611032 0.2903794 -0.21657266

gru.bias_hh_l2 f4 [48]
000000 90 e4 b2 be a1 33 37 be 9e 07 46 3e 39 e1 25 bd
       -0.34940004 -0.17890789 0.19338843 -0.040497992
000010 e9 f1 a6 be 42 91 44 3c 83 87 3d 3d 4c 70 9f 3d
       -0.32606438 0.011997523 0.046271812 0.07785091
000020 62 ca 5d be 1f 9b 14 bd cf 95 0f 3c 41 f0 33 3e
       -0.21659234 -0.036280748 0.0087637445 0.17572118
000030 2a 16 46 bd 0a 14 86 be a8 7d 1c 3e e7 3b 51 3d
       -0.04836098 -0.26187164 0.15282309 0.051082518
000040 12 e8 46 3f a5 f3 f3 3e 98 c1 71 3f a8 49 29 3f
       0.7769786 0.47646824 0.94436026 0.66128016
000050 8a 5b 7f 3f d5 95 41 3f 75 10 30 3f 40 89 de 3e
       0.9974905 0.7561925 0.6877511 0.43464088
000060 f1 64 3c 3f f2 49 5f 3f d6 fe db 3e eb 15 3d 3f
       0.73591524 0.87222207 0.42967862 0.7386157
000070 76 aa 35 3f bd bb d9 3d 3b 80 cb 3e f1 ab 05 3f
       0.7096323 0.10631511 0.3974627 0.52215487
000080 b9 38 ed bd 35 ec ee 3d c5 d9 2f be 5e 0b 14 3e
       -0.115830846 0.11666147 -0.17172916 0.14457461
000090 15 26 d2 bd 05 95 11 be c1 c0 1d 3e 66 84 c6 3d
       -0.1026117 -0.14217003 0.15405561 0.09693222
0000a0 e8 78 c3 bd 8a e3 27 be 1b f3 de 3d 6c d0 22 bd
       -0.095445454 -0.16395393 0.108862124 -0.039749548
0000b0 dd 95 61 3b 56 20 05 3e 3b 7c 2a be a4 7f 22 3e
       0.00344216 0.13000616 -0.16648953 0.15869004
