models/CADRL/output/il_model.pth (torch, 112399 bytes, 7 tensors)

value_network.0.weight f4 [150, 13]
0.23918252 0.2407481 -0.063137904 -0.25074777 0.11635413 0.17908165 -0.19175582 -0.24210227
-0.047261287 0.23560779 -0.07145495 0.22023617 -0.100788906 -0.03250514 -0.0015637703 0.20372626
-0.2290617 -0.019128414 0.019943304 0.039674714 0.2238506 -0.24726047 0.089895315 0.0712435
0.2392204 0.2266236 -0.049924694 -0.2097852 0.24262185 0.22694467 0.10944702 0.15644172
-0.1126308 0.0035072716 0.12574741 0.27315003 0.022418646 -0.12705296 -0.05525738 -0.22987759
-0.093666404 -0.25552204 -0.01750046 0.16519259 0.22954595 -0.092943884 -0.23316075 -0.08180281
-0.0058501405 -0.21232098 -0.111937776 0.22167984 -0.043311864 0.012714593 0.09302537 -0.2062385
-0.030988025 0.0004810134 -0.26059237 0.036470808 -0.20426813 0.09876909 -0.0039485404 0.15332384
-0.14977033 -0.024216535 0.15682323 0.22127287 0.051255465 0.2228365 -0.08671621 -0.19919945
0.1425153 0.20302364 0.06539463 0.1788741 -0.2681241 0.24527262 0.25367177 0.21481766
0.0010515925 0.005331153 0.27633354 -0.20072648 -0.18523198 0.17125627 -0.05247156 0.15093721
-0.07726881 -0.15387318 -0.066536546 -0.17376305 0.14856753 0.14542943 -0.019646859 0.1855506
-0.078190856 -0.09762429 -0.15512791 -0.19944316 -0.26412502 -0.13626684 -0.123914585 -0.2299076
0.18323025 -0.017330136 0.198744 0.008381258 -0.25256234 0.23207037 -0.15192795 -0.120333984
-0.21053071 0.15207244 0.0017092755 0.0911228 0.012141115 0.14122222 -0.1672407 0.10406391
-0.19335905 -0.077430755 0.019096125 0.0964847 0.0005829996 -0.011835343 -0.0108301705 -0.17936248
0.23657292 -0.15717624 -0.22180916 0.20642297 0.16637112 0.07813129 -0.1674797 -0.24567233
0.07983586 -0.15518546 -0.1121289 -0.19144893 -0.08712105 -0.020743119 0.23069498 0.03223266
0.026717694 0.27286077 -0.13885164 -0.2424475 -0.18665862 -0.21376117 -0.25203896 0.112738326
0.14503318 0.1593468 -0.23870568 0.1330644 0.22095405 -0.055463936 -0.10260823 0.14121416
0.2220518 -0.050467286 -0.21132134 -0.10899828 0.24163727 -0.28647822 -0.09055762 -0.28424612
-0.17734575 0.13913271 0.21739632 -0.05674394 0.25766423 -0.2429109 -0.047932085 -0.1588683
0.14668493 -0.008290336 0.24151652 -0.02684687 0.0381237 -0.20998684 -0.010225331 -0.22109509
0.17454918 -0.25711942 0.08072551 0.26461044 0.26519564 -0.0281798 -0.044108767 0.25012213
-0.079756476 -0.13977586 -0.17976353 -0.19350144 -0.0010045111 0.09812817 0.17485815 0.23027948
0.2656021 0.13452412 -0.1342777 -0.26442057 -0.17527123 -0.14219196 -0.063975215 -0.14333352
-0.16492242 -0.019283684 0.035379842 -0.08995458 -0.2224014 0.07730152 -0.17554404 -0.08552012
-0.00908701 -0.12490643 0.23157392 -0.13964146 0.10420467 0.1294162 -0.018608624 -0.13868864
0.21567377 0.0027624883 -0.08271421 -0.057617366 0.003076675 -0.19769607 0.015390794 0.18729949
0.30105817 0.23661353 0.24307626 -0.15762313 -0.1601356 -0.030310482 -0.22682118 0.010390368
-0.04655136 -0.25610211 0.08055917 0.10242124 -0.12871215 -0.19319816 0.052571546 -0.016306745
0.2646979 -0.17686833 -0.27448177 0.25149733 -0.09179103 0.094814524 -0.05088145 -0.17957862
00000000: 43ec 743e ac86 763e 724e 81bd 0362 80be
00000010: 134b ee3d 2e61 373e a35b 44be a8e9 77be
00000020: 0d95 41bd 2b43 713e f956 92bd 9785 613e
00000030: 6a6a cebd 1c24 05bd 6df7 ccba 9e9d 503e
00000040: 268f 6abe 31b3 9cbc 2460 a33c f481 223d
00000050: 1739 653e d931 7dbe 091b b83d 1de8 913d
00000060: 31f6 743e 0410 683e d67d 4cbd eed1 56be
00000070: dd71 783e 2f64 683e c225 e03d 4232 203e
00000080: faaa e6bd 41da 653b eec3 003e 52da 8b3e
00000090: 4fa7 b73c 2c1a 02be 9055 62bd 0865 6bbe
000000a0: 2cd4 bfbd c9d3 82be 205d 8fbc 3f28 293e
000000b0: 180e 6b3e 5d59 bebd b1c1 6ebe 3b88 a7bd
000000c0: 89b2 bfbb ac6a 59be a23f e5bd 0a00 633e
000000d0: c867 31bd de50 503c 1684 be3d 2f30 53be
000000e0: 99da fdbc 8730 fc39 5d6c 85be 6a62 153d
000000f0: aa2b 51be 7347 ca3d c262 81bb ed00 1d3e
00000100: 655d 19be c161 c6bc 4596 203e 5b95 623e
00000110: 40f1 513d 402f 643e 4598 b1bd f1fa 4bbe
00000120: 88ef 113e 6ee5 4f3e 9fed 853d c62a 373e
00000130: 9047 89be bf28 7b3e 44e1 813e 29f9 5b3e
00000140: 97d5 893a f4b0 ae3b 977b 8d3e 3e8b 4dbe
00000150: 74ad 3dbe ce5d 2f3e 6bec 56bd 498f 1a3e
00000160: 1c3f 9ebd ee90 1dbe 5044 88bd f1ee 31be
00000170: 1622 183e 74eb 143e 73f2 a0bc fa00 3e3e
00000180: 8722 a0bd 3eef c7bd dad9 1ebe d43a 4cbe
00000190: 653b 87be 8989 0bbe eec6 fdbd e66c 6bbe
000001a0: b6a0 3b3e eef7 8dbc 8c83 4b3e 8b51 093c
000001b0: da4f 81be dba3 6d3e 0093 1bbe aa71 f6bd
000001c0: 5d95 57be e1b8 1b3e c509 e03a 979e ba3d
000001d0: 87eb 463c 8f9c 103e 2541 2bbe 761f d53d
000001e0: eaff 45be 0494 9ebd 7a6f 9c3c c599 c53d
000001f0: 71d4 183a 07e9 41bc 0771 31bc ccaa 37be
00000200: 2c40 723e cff2 20be f121 63be 8b60 533e
00000210: 315d 2a3e 4c03 a03d cc7f 2bbe 8791 7bbe
00000220: fc80 a33d f0e8 1ebe d6a3 e5bd 300b 44be
00000230: 856c b2bd 79ed a9bc 4e3b 6c3e 6506 043d
00000240: 11df da3c 68b4 8b3e 202f 0ebe 2844 78be
00000250: 7023 3fbe 35e4 5abe 400b 81be 5ae3 e63d
00000260: 9483 143e cf2b 233e 436f 74be 0942 083e
00000270: c741 623e 272e 63bd 4424 d2bd 729a 103e
00000280: 8c61 633e c9b6 4ebd 9f64 58be 7d3a dfbd
00000290: c36f 773e 46ad 92be 4676 b9bd b588 91be
000002a0: 209a 35be ce78 0e3e 249d 5e3e 556c 68bd
000002b0: 91ec 833e a3bd 78be 6f54 44bd 5fae 22be
000002c0: 9334 163e 30d4 07bc 1b50 773e f8ed dbbc
000002d0: 9927 1c3d ca06 57be 2688 27bc c066 62be
000002e0: 05bd 323e 28a5 83be 6b53 a53d 057b 873e
000002f0: b9c7 873e 53d9 e6bc 65ab 34bd 0210 803e
00000300: 5d57 a3bd 6721 0fbe ee13 38be 3e25 46be
00000310: cda9 83ba 6cf7 c83d 040e 333e 62ce 6b3e
00000320: 00fd 873e b1c0 093e 1880 09be 2262 87be
00000330: 4d7a 33be c59a 11be 7005 83bd 06c6 12be
00000340: 6ce1 28be d1f8 9dbc 74ea 103d 1b3a b8bd
00000350: 31bd 63be 4250 9e3d d1c1 33be 2c25 afbd
00000360: afe1 14bc f1ce ffbd b721 6d3e 2cfe 0ebe
00000370: 4269 d53d ae85 043e 1d71 98bc 6504 0ebe
00000380: 96d9 5c3e dd0a 353b 1166 a9bd 3000 6cbd
00000390: 0ba2 493b d770 4abe ab29 7c3c 70cb 3f3e
000003a0: 4c24 9a3e d14a 723e fce8 783e f567 21be
000003b0: 96fa 23be b04d f8bc d043 68be 5d3c 2a3c
000003c0: a4ac 3ebd d11f 83be 35fc a43d 3ac2 d13d
000003d0: 1ecd 03be bdd5 45be 4355 573d b995 85bc
000003e0: 7c86 873e f91c 35be e088 8cbe 42c4 803e
000003f0: effc bbbd 1e2e c23d 1169 50bd 75e3 37be

value_network.0.bias f4 [150]
0.2655043 -0.034330945 -0.04358788 -0.12885773 0.1028645 -0.03400039 0.13626452 -0.26716617
0.20957237 0.21788804 -0.031360522 0.14596008 0.13237979 0.049295813 0.15127075 -0.21958968
0.21880211 -0.21688893 0.11938281 0.19250071 -0.24864385 0.23708364 0.02656812 0.06587905
0.04981528 0.22674057 -0.13862096 -0.18854383 -0.008576027 -0.028929453 -0.21607271 -0.07898761
0.21553354 0.101134926 0.021494292 0.270818 -0.1598733 -0.14457865 0.2233919 -0.028547136
0.27980873 -0.123074315 -0.2651533 -0.2054423 -0.0007080955 0.17504674 0.18349253 0.120498225
0.26437703 -0.12631243 -0.0014226403 0.0547321 -0.15209572 -0.003853136 -0.059471674 -0.15678814
0.07747685 0.18406482 -0.262771 0.20694622 0.16103987 0.06142336 -0.023424517 0.11832042
0.2549142 -0.27165896 0.031798873 0.13801305 -0.2507397 -0.10964022 0.12737545 0.17371456
-0.09368657 0.22312725 0.25728148 0.083589286 0.12521493 -0.22326341 -0.0071808565 -0.14138201
0.17144337 0.1378002 0.10263343 -0.24473895 0.16818988 -0.09226334 0.24230133 -0.028047752
0.1546603 -0.16611595 0.10395263 -0.060786918 0.20305723 0.230849 0.18016262 0.22437009
-0.034245666 -0.12793025 -0.12233003 0.20619574 0.1578968 0.22884716 -0.064975984 -0.026909405
0.25498083 0.20300004 0.16871321 -0.14277336 0.1501927 0.17781012 0.213025 -0.09075341
-0.09122456 -0.2342497 0.026236529 0.02226621 -0.03130398 0.04129588 -0.035465807 -0.20094839
-0.21219912 0.25702426 0.019471886 0.11365754 -0.09405911 -0.041265238 0.16916038 0.24875547
-0.21555893 -0.1777247 0.24055871 0.19228858 -0.26489642 0.03662667 0.122000314 0.05702182
0.21109554 -0.18949628 0.110077016 -0.024325576 0.10476188 0.18783046 0.21249822 -0.080534115
0.083560415 0.07834578 -0.035791382 0.13674973 0.25593165 0.11746507
00000000: 2ef0 873e 9b9e 0cbd 3489 32bd 48f3 03be
00000010: 9faa d23d fe43 0bbd ed88 0b3e 01ca 88be
00000020: 249a 563e 0b1e 5f3e e473 00bd 8f76 153e
00000030: 918e 073e 68ea 493d b8e6 1a3e 1edc 60be
00000040: a90d 603e 2218 5ebe fa7e f43d e81e 453e
00000050: 7e9c 7ebe 0ec6 723e 63a5 d93c 98eb 863d
00000060: 1b0b 4c3d ae2e 683e a7f2 0dbe a211 41be
00000070: 7782 0cbc 76fd ecbc 2a42 5dbe 42c4 a1bd
00000080: d3b4 5c3e d41f cf3d cc14 b03c a8a8 8a3e
00000090: d4b5 23be 6d0c 14be d9c0 643e afdb e9bc
000000a0: 1743 8f3e 630e fcbd 2cc2 87be 775f 52be
000000b0: 7c9f 39ba 743f 333e 77e5 3b3e c6c7 f63d
000000c0: 6d5c 873e 0c58 01be e377 baba c42e 603d
000000d0: fbbe 1bbe e584 7cbb 9298 73bd 128d 20be
000000e0: 2fac 9e3d 7d7b 3c3e ec89 86be b6e9 533e
000000f0: a3e7 243e 1097 7b3d c6e4 bfbc fa51 f23d
00000100: 1d84 823e e216 8bbe 893f 023d 4b53 0d3e
00000110: f460 80be 0d8b e0bd b66e 023e 3be2 313e
00000120: bfde bfbd 787b 643e 66ba 833e dc30 ab3d
00000130: 5838 003e 2a9f 64be 644d ebbb 72c6 10be
00000140: da8e 2f3e 7f1b 0d3e 7a31 d23d d99c 7abe
00000150: f839 2c3e 90f4 bcbd d71d 783e 66c4 e5bc
00000160: 455f 1e3e 4d1a 2abe 1ee5 d43d b4fb 78bd
00000170: 3cee 4f3e ae63 6c3e 8d7c 383e 46c1 653e
00000180: 2f45 0cbd 2600 03be 2b88 fabd fa24 533e
00000190: b3af 213e e956 6a3e 2112 85bd 1d71 dcbc
000001a0: d98c 823e 3edf 4f3e 28c3 2c3e 2e33 12be
000001b0: 1dcc 193e db13 363e 3a23 5a3e ecdc b9bd
000001c0: f1d3 babd 27df 6fbe fded d63c a067 b63c
000001d0: 9a38 00bd de25 293d 9844 11bd 6ac5 4dbe
000001e0: ba4a 59be af98 833e 8183 9f3c 49c5 e83d
000001f0: 10a2 c0bd bd05 29bd 6138 2d3e c1b9 7e3e
00000200: 7bbb 5cbe 77fd 35be 0655 763e 4ce7 443e
00000210: 81a0 87be d905 163d 4ddb f93d b68f 693d
00000220: 6e29 583e 500b 42be 0f70 e13d 6e46 c7bc
00000230: 668d d63d a156 403e 2299 593e 12ef a4bd
00000240: b921 ab3d c173 a03d fc99 12bd 1f08 0c3e
00000250: 7909 833e 8791 f03d

value_network.2.weight f4 [100, 150]
0.029296137 0.064572506 0.069343425 -0.0005131376 0.0017279123 0.046836462 -0.02726512 -0.04027108
-0.043592818 -0.07927282 0.047581736 0.052656695 0.07093204 -0.031818405 0.015229401 0.060767394
-0.062589794 0.06384929 -0.044883613 -0.07841114 0.0731731 -0.035522744 -0.017218756 0.041036937
-0.05581403 -0.042394787 -0.043405842 -0.04546032 0.0018729559 -0.059683733 -0.030309109 -0.015320177
0.005222934 -0.0035679536 -0.073025495 -0.048573636 -0.019021949 0.004812528 0.06894456 -0.042840432
-0.06312725 0.013675196 0.021144982 0.0379934 0.03900636 -0.019558875 -0.052713916 0.019810881
-0.0068505853 -0.026896454 0.058299452 -0.014359363 0.045672715 -0.029535132 0.0030592168 0.08735268
-0.072563246 -0.00676539 -0.005928792 -0.003768961 -0.0062889364 -0.014981522 -0.047479343 0.046118394
-0.0528564 -0.0020111133 0.05890411 -0.020422954 0.057315033 0.044785187 -0.03487149 -0.049224105
0.041807406 0.03163361 0.05879509 0.006753645 -0.011825498 0.025224397 -0.05133845 4.9371778e-05
-0.07107382 -0.05626242 0.09224142 -0.06325156 0.035446826 0.07836986 0.069179006 0.05751335
-0.037566535 0.014211138 -0.049481083 -0.02388976 0.04854982 -0.05370495 0.037811477 -0.07836661
-0.011588428 0.0661712 0.03465254 -0.0491008 -0.020502096 0.040575758 -0.0537856 0.020274589
0.0611809 0.014370196 0.012990341 -0.0005553389 -0.07531537 0.06474859 -0.019003633 0.05109712
0.03207778 0.022254827 0.0070389025 0.023322051 0.03616248 0.021261498 -0.07279494 -0.06059809
-0.041310545 0.04757782 0.0017086721 -0.04143941 -0.05888699 -0.059677206 -0.006142845 0.046547562
-0.013544785 0.05764462 0.04306701 0.054115284 0.027576005 -0.011522517 0.05379467 -0.021720769
-0.02171035 0.07330216 -0.008204192 0.02829414 0.07366935 0.047010694 -0.016403269 -0.034664012
0.06349754 0.08324418 -0.05544686 -0.04595533 0.028211933 -0.060898885 0.055369582 -0.07046647
-0.0014305273 0.008462801 0.0469573 0.033625852 -0.07450995 0.048965212 -0.04560348 0.033691272
0.031159079 0.081164405 -0.053416293 0.052982245 -0.0064595696 0.032051183 -0.0428048 -0.0022720087
0.029812045 -0.025899103 -0.041251943 -0.05537299 -0.058460094 0.06873218 0.014398198 -0.03513886
-0.027756808 0.032732826 -0.04663595 -0.013251058 -0.015141984 0.037943065 0.07016863 -0.04425083
0.022865836 -0.071187735 0.021125387 -0.022435736 -0.08136125 0.00959421 0.057979807 -0.051875614
0.05860337 -0.011084968 -0.07796335 0.036406063 -0.059133675 -0.046277627 -0.018503852 0.011708285
0.053042203 -0.018087534 0.032353923 0.030508928 -0.014360071 0.030123573 0.028736126 0.06260077
0.025336921 -0.07487204 -0.058906537 -0.013049655 0.018830806 0.08072457 0.011516995 -0.065767825
0.0043642223 -0.043399043 -0.048566543 -0.0003789309 0.0815003 0.041827653 -0.0700438 -0.0026613348
-0.0361527 0.07309546 0.06251294 -0.029435372 -0.024195164 -0.030467162 -0.062473983 0.04042031
0.00032461857 0.021296997 -0.07975323 -0.0041101705 -0.024656946 -0.0063514607 -0.057114404 0.04973194
-0.06758263 0.036869995 -0.05660201 -0.000992096 -0.020063853 -0.009169728 0.016175546 0.009778308
-0.07449627 0.049806166 0.013007412 0.07033077 -0.058630478 0.011713298 -0.060594752 0.034039
00000000: 74fe ef3c 973e 843d ed03 8e3d 1584 06ba
00000010: 1e7b e23a 97d7 3f3d 1a5b dfbc 4af3 24bd
00000020: 628e 32bd ca59 a2bd 11e5 423d 8cae 573d
00000030: d144 913d 0454 02bd bd84 793c 3be7 783d
00000040: 142f 80bd 6bc3 823d e1d7 37bd 0596 a0bd
00000050: c7db 953d 4c80 11bd 590e 8dbc 5916 283d
00000060: 419d 64bd 28a6 2dbd 53ca 31bd 9a34 3abd
00000070: f97d f53a ee76 74bd cf4a f8bc 7b01 7bbc
00000080: 2525 ab3b 54d4 69bb 648e 95bd 26f5 46bd
00000090: ebd3 9bbc 69b2 9d3b ce32 8d3d 7379 2fbd
000000a0: dc48 81bd ee0d 603c 3e38 ad3c f89e 1b3d
000000b0: 22c5 1f3d ef39 a0bc 8cea 57bd 6e4a a23c
000000c0: e07a e0bb f455 dcbc 68cb 6e3d 8943 6bbc
000000d0: 5013 3b3d a9f3 f1bc 247d 483b f6e5 b23d
000000e0: 0a9c 94bd 34b0 ddbb 5046 c2bb ac00 77bb
000000f0: 6c13 cebb 0f75 75bc b379 42bd a4e6 3c3d
00000100: f47f 58bd e2cc 03bb 7045 713d 0a4e a7bc
00000110: 2bc3 6a3d ac70 373d 68d5 0ebd 379f 49bd
00000120: 3e3e 2b3d 3f92 013d 1fd3 703d ae4d dd3b
00000130: bcbf 41bc 65a3 ce3c 4448 52bd 8b14 4f38
00000140: 278f 91bd 6c73 66bd 12e9 bc3d 098a 81bd
00000150: b130 113d 6180 a03d b9ad 8d3d 1e93 6b3d
00000160: 5edf 19bd d5d5 683c adac 4abd 75b4 c3bc
00000170: 2ddc 463d b9f9 5bbd 35e0 1a3d ac7e a0bd
00000180: 64dd 3dbc c484 873d d2ef 0d3d ec1d 49bd
00000190: 03f4 a7bc c432 263d 4a4e 5cbd e516 a63c
000001a0: d398 7a3d f870 6b3c 70d5 543c 2a94 11ba
000001b0: f23e 9abd e99a 843d 82ad 9bbc 374b 513d
000001c0: fe63 033d c14f b63c 98a6 e63b e30d bf3c
000001d0: 1c1f 143d 982c ae3c 8315 95bd b435 78bd
000001e0: 3f35 29bd f6e0 423d 86f5 df3a 5fbc 29bd
000001f0: 7c33 71bd 1670 74bd eb49 c9bb a8a8 3e3d
00000200: f2ea 5dbc c41c 6c3d 0867 303d fda7 5d3d
00000210: 13e7 e13c f0c8 3cbc cd57 5c3d c1ef b1bc
00000220: e7d9 b1bc 711f 963d e06a 06bc 1dc9 e73c
00000230: f5df 963d 498e 403d 2660 86bc dafb 0dbd
00000240: 000b 823d ed7b aa3d 3f1c 63bd a83b 3cbd
00000250: b61c e73c 1c71 79bd 37cb 623d ba50 90bd
00000260: 8880 bbba 8fa7 0a3c 4c56 403d 43bb 093d
00000270: ac98 98bd bf8f 483d b7ca 3abd dcff 093d
00000280: 5341 ff3c 8639 a63d 0bcb 5abd e903 593d
00000290: ccaa d3bb 1a48 033d 1654 2fbd fbe5 14bb
000002a0: 6438 f43c 5b2a d4bc ccf7 28bd cace 62bd
000002b0: da73 6fbd 75c3 8c3d 6be6 6b3c c4ed 0fbd
000002c0: 3f62 e3bc db12 063d 5705 3fbd f71a 59bc
000002d0: 1616 78bc 306a 1b3d 92b4 8f3d 5c40 35bd
000002e0: 2251 bb3c e0ca 91bd 260f ad3c 26cb b7bc
000002f0: baa0 a6bd 0931 1d3c 3c7c 6d3d 867b 54bd
00000300: 160a 703d ba9d 35bc 40ab 9fbd 861e 153d
00000310: 2736 72bd 9c8d 3dbd 6495 97bc 1bd4 3f3c
00000320: c842 593d 4f2c 94bc 8c85 043d dced f93c
00000330: 8146 6bbc b6c5 f63c 0668 eb3c d534 803d
00000340: 608f cf3c 8356 99bd fb47 71bd 38ce 55bc
00000350: 1043 9a3c ec52 a53d c7b1 3c3c 48b1 86bd
00000360: c001 8f3b 32c3 31bd b6ed 46bd 3fab c6b9
00000370: a1e9 a63d 7953 2b3d 2073 8fbd ca69 2ebb
00000380: db14 14bd 13b3 953d c906 803d 7322 f1bc
00000390: f034 c6bc 4596 f9bc b8e4 7fbd c48f 253d
000003a0: 9131 aa39 0a77 ae3c a955 a3bd 9cae 86bb
000003b0: 5dfd c9bc ea1f d0bb cbf0 69bd b8b3 4b3d
000003c0: c368 8abd fe04 173d 82d7 67bd 3809 82ba
000003d0: f35c a4bc a03c 16bc 9482 843c 3235 203c
000003e0: 8091 98bd 8d01 4c3d 0a1d 553c 9409 903d
000003f0: 8326 70bd 22e9 3f3c 3432 78bd 7a6c 0b3d

value_network.2.bias f4 [100]
0.08422748 -0.06040579 0.027783813 0.067067325 -0.071400926 0.0974756 -0.01717262 0.018669914
-0.017308228 -0.073950164 -0.051226385 -0.055696514 0.049691252 -0.026546087 0.018090112 -0.058912523
0.07527903 0.046378456 -0.050037663 0.08967032 -0.056219723 -0.025446035 -0.064590335 -0.021857588
-0.06353812 0.031372596 0.028807355 0.0360172 0.071015716 -0.00020713569 -0.028851211 0.030173907
-0.013168986 0.010685355 0.060066327 0.061262213 -0.075473905 0.059395242 -0.012367598 -0.01726257
0.039962694 -0.0046735154 0.042400382 0.02787083 -0.012628945 -0.02385278 0.013503147 -0.08567557
-0.01428556 -0.023171626 0.03207883 0.085060254 0.010846056 -0.06776736 -0.017603233 0.012817215
-0.029837118 -0.0011208584 0.061652362 0.015956998 -0.073471196 -0.029914655 -0.05573414 0.05918019
0.06935891 -0.079483114 0.04198449 -0.010000867 0.07880306 0.006399434 0.057669878 0.06671765
0.077522896 -0.05338179 -0.021161104 0.035187956 -0.048651915 0.09088056 -0.004007805 0.039869294
-0.026804486 -0.014746267 -0.056418315 0.035702806 0.029926272 -0.06556704 0.04807586 0.0053902194
-0.07405319 0.047963105 -0.01885746 0.051081143 -0.043357536 0.0999277 -0.014942027 -0.014657149
0.07309405 -0.0144415945 0.053152137 -0.016969265
00000000: 757f ac3d 106c 77bd e19a e33c 985a 893d
00000010: a63a 92bd 4aa1 c73d 98ad 8cbc a6f1 983c
00000020: fcc9 8dbc 2f73 97bd c2d2 51bd 0722 64bd
00000030: 0e89 4b3d 2e77 d9bc b731 943c 424e 71bd
00000040: e42b 9a3d 56f7 3d3d 4bf4 4cbd 13a5 b73d
00000050: a746 66bd 3474 d0bc f047 84bd af0e b3bc
00000060: 4620 82bd 8d80 003d 67fd eb3c c686 133d
00000070: b070 913d 9032 59b9 6059 ecbc 452f f73c
00000080: bbc2 57bc a111 2f3c 1c08 763d 16ee 7a3d
00000090: 1092 9abd 6d48 733d 77a1 4abc 3c6a 8dbc
000000a0: ecaf 233d 4a24 99bb 06ac 2d3d 5e51 e43c
000000b0: a2e9 4ebc e866 c3bc 4e3c 5d3c ac76 afbd
000000c0: fb0d 6abc 6cd2 bdbc 1765 033d 1234 ae3d
000000d0: a8b3 313c 9dc9 8abd a834 90bc 4cff 513c
000000e0: f96c f4bc c4e9 92ba 3087 7c3d 40b8 823c
000000f0: 1178 96bd 940f f5bc 7b49 64bd ed66 723d
00000100: 0b0c 8e3d 0bc8 a2bd eef7 2b3d adda 23bc
00000110: 8063 a13d 58b2 d13b 4037 6c3d 43a3 883d
00000120: 53c4 9e3d dda6 5abd 0d5a adbc 3f21 103d
00000130: 3b47 47bd 961f ba3d e853 83bb fc4d 233d
00000140: 1595 dbbc 549a 71bc e416 67bd 1b3d 123d
00000150: f127 f53c 0348 86bd 31eb 443d 70a0 b03b
00000160: 33a9 97bd f674 443d f67a 9abc 763a 513d
00000170: ac97 31bd e5a6 cc3d 67cf 74bc 8a24 70bc
00000180: 55b2 953d 709c 6cbc 0eb6 593d 2103 8bbc

value_network.4.weight f4 [100, 100]
0.061379936 -0.09398105 -0.011134196 0.08628769 -0.058534414 -0.06323887 -0.06892489 0.07273967
0.07250004 -0.015173159 0.08966999 0.0111603895 -0.0934527 0.0076393834 0.03375155 -0.07716481
-0.012173009 -0.06031361 0.07232572 0.050774615 -0.06706844 -0.0061804843 -0.030723734 0.02792902
0.06909334 0.045122713 -0.03406508 0.069947295 0.068873 0.024711886 0.015042337 0.0038143347
0.030654682 0.071886815 0.07716561 -0.019063547 0.13298891 -0.0032090265 0.058335412 -0.072383955
-0.047643896 -0.08959376 -0.027923485 0.036988072 0.023303397 -0.07391942 -0.06969978 0.062338933
-0.043778624 0.07599909 0.006674061 -0.069738865 0.017231183 0.1077024 -0.002388375 0.03512308
-0.09113504 0.08756788 0.014281629 -0.0312767 0.10234892 0.014209271 -0.038812235 -0.08886855
-0.09017221 0.081879616 0.0060048983 -0.11666946 -0.0980571 -0.03860205 0.025992816 0.096700855
0.12524545 -0.054306407 -0.101102054 -0.034556706 0.10868812 0.004549904 0.017454926 -0.08424231
0.05154978 0.10739578 -0.09945203 -0.07894933 -0.07849257 0.13862059 0.05011895 0.0601452
-0.05303831 -0.1054831 -0.070309594 -0.012599286 -0.06458369 -0.039739076 0.019488452 0.040046006
-0.021364236 0.08727844 0.046811096 0.10953876 -0.02223032 0.05676632 0.008083101 -0.023171604
0.08859482 0.058354307 -0.0644176 -0.00056056574 -0.026258836 0.020522067 -0.023284601 -0.047094535
-0.031084297 -0.09485127 -0.048873443 -0.028577453 0.09724933 -0.09170644 -0.101457395 0.12912129
-0.050740235 0.043821197 -0.07875241 -0.009013748 -0.018391645 0.006206256 0.094151914 -0.062139794
-0.016292486 -0.035235804 0.022985058 0.036607303 -0.09060778 0.04578209 -0.026016051 0.024605548
-0.06612098 -0.089181565 -0.0072002932 -0.07948998 0.024309862 0.10832159 -0.08570397 -0.004508187
-0.041612163 0.07391745 0.1206066 -0.057966672 0.092210345 -0.09972704 0.110323615 0.1050693
-0.039427154 0.0054173516 0.009268638 0.047060654 -0.0015841842 -0.043543246 0.035416864 -0.04788182
-0.0058506355 -0.05650815 -0.056249026 -0.027572967 -0.089489706 -0.0514128 0.028438764 0.03718902
-0.03130716 0.08174837 0.029358614 -0.037550673 0.03355594 -0.04727348 -0.05669452 0.06619331
-0.0059025898 -0.04502862 0.10402598 0.03917998 0.035082173 0.1006232 0.018397566 -0.09119205
0.08096913 -0.08453416 0.005133643 -0.077165246 0.0043945196 -0.044522557 0.0077739945 0.1290543
-0.011508734 0.03572747 -0.009972599 -0.013179108 0.072353855 0.032632496 0.019159034 -0.13133849
0.0037710068 0.0431105 -0.036185496 0.01225858 0.02294069 -0.030832998 0.08738645 0.06905408
-0.06925848 -0.09737512 -0.003493917 -0.0024906823 -0.045133397 -0.040925995 -0.07511777 0.072516344
-0.02002575 0.031935826 -0.08096815 -0.031703986 0.06572787 -0.07032843 -0.03262484 0.0287677
-0.007737431 -0.052065466 -0.08547115 -0.005973555 0.03342151 -0.016177028 0.011018783 0.06796077
0.051761318 0.08969375 -0.02943843 -0.071968466 -0.0150424875 0.08190001 -0.06985029 0.087528855
0.050264373 0.04192206 -0.016616093 -0.07428574 -0.07059988 -0.06850587 0.06624578 -0.01813114
0.042702537 -0.0884491 -0.089590244 0.0908329 -0.08027946 0.06199225 -0.07701282 0.030002533
00000000: 8769 7b3d 2379 c0bd 346c 36bc 9ab7 b03d
00000010: c8c1 6fbd 6183 81bd 7e28 8dbd 89f8 943d
00000020: e77a 943d d798 78bc e6a4 b73d 11da 363c
00000030: 2164 bfbd cb53 fa3b 113f 0a3d 9508 9ebd
00000040: 4d71 47bc 670b 77bd 821f 943d 0bf9 4f3d
00000050: 2e5b 89bd a985 cabb 57b0 fbbc 66cb e43c
00000060: cf80 8d3d 98d2 383d d387 0bbd 8740 8f3d
00000070: 4a0d 8d3d 9570 ca3c 2274 763c ebf9 793b
00000080: 871f fb3c 6539 933d 0109 9e3d 282b 9cbc
00000090: 3f2e 083e 884e 52bb 1df1 6e3d 0a3e 94bd
000000a0: 3f26 43bd ef7c b7bd cbbf e4bc ce80 173d
000000b0: c4e6 be3c 1163 97bd c2be 8ebd 1c57 7f3d
000000c0: 3751 33bd 69a5 9b3d 15b2 da3b 40d3 8ebd
000000d0: 6928 8d3c 1393 dc3d 4986 1cbb 38dd 0f3d
000000e0: 02a5 babd ca56 b33d 7efd 693c ff1b 00bd
000000f0: 509c d13d 01ce 683c 94f9 1ebd b700 b6bd
00000100: 35ac b8bd 80b0 a73d bdc4 c43b 66f0 eebd
00000110: 29d2 c8bd 2f1d 1ebd e3ee d43c 190b c63d
00000120: 5840 003e 6570 5ebd 980e cfbd 558b 0dbd
00000130: e197 de3d 5c17 953b a2fd 8e3c 3b87 acbd
00000140: dd25 533d 52f2 db3d 82ad cbbd 30b0 a1bd
00000150: b6c0 a0bd 8ef2 0d3e 8749 4d3d d05a 763d
00000160: b33e 59bd 8607 d8bd 7afe 8fbd 3c6d 4ebc
00000170: 7444 84bd 71c5 22bd 3fa6 9f3c 4807 243d
00000180: 0d04 afbc 0abf b23d febc 3f3d db55 e03d
00000190: 5c1c b6bc cd83 683d fc6e 043c 60d2 bdbc
000001a0: 3371 b53d ed04 6f3d 60ed 83bd eef2 12ba
000001b0: c51c d7bc e51d a83c 59bf bebc 33e6 40bd
000001c0: 7fa4 febc 6241 c2bd 852f 48bd 431b eabc
000001d0: a82a c73d 96d0 bbbd e5c8 cfbd 5f38 043e
000001e0: fed4 4fbd db7d 333d f248 a1bd 66ae 13bc
000001f0: 13aa 96bc d95d cb3b b8d2 c03d 4c86 7ebd
00000200: d277 85bc 6b53 10bd 294b bc3c 8af1 153d
00000210: 9290 b9bd 0086 3b3d 9d1f d5bc 9391 c93c
00000220: 706a 87bd d3a4 b6bd 70f0 ebbb a5cb a2bd
00000230: 7a25 c73c b6d7 dd3d 9085 afbd 6ab9 93bb
00000240: 8471 2abd 0862 973d 9800 f73d 766e 6dbd
00000250: c7d8 bc3d b13d ccbd 59f1 e13d 932e d73d
00000260: 5e7e 21bd 0a84 b13b 7cdb 173c acc2 403d
00000270: 67a4 cfba 675a 32bd 4611 113d ba1f 44bd
00000280: b0b6 bfbb 1775 67bd 6165 66bd b4e0 e1bc
00000290: 6146 b7bd 3a96 52bd 69f8 e83c 8453 183d
000002a0: f03b 00bd b06b a73d 7a81 f03c bcce 19bd
000002b0: f471 093d d6a1 41bd 8338 68bd 5c90 873d
000002c0: 836a c1bb ee6f 38bd 930b d53d 307b 203d
000002d0: 53b2 0f3d 8913 ce3d 7eb6 963c e6c2 babd
000002e0: 25d3 a53d 3f20 adbd 1e38 a83b d008 9ebd
000002f0: e7ff 8f3b 495d 36bd febc fe3b cf26 043e
00000300: 218f 3cbc f856 123d 1d64 23bc 2fed 57bc
00000310: 422e 943d a7a9 053d 68f3 9c3c 997d 06be
00000320: ff22 773b a394 303d 3e37 14bd 36d8 483c
00000330: 1dee bb3c 7c95 fcbc abf7 b23d 3a6c 8d3d
00000340: 64d7 8dbd 9b6c c7bd 33fa 64bb b73a 23bb
00000350: ccdd 38bd 04a2 27bd 58d7 99bd 7383 943d
00000360: 0b0d a4bc 24cf 023d a1d2 a5bd 0adc 01bd
00000370: 559c 863d 5a08 90bd a0a1 05bd 3daa eb3c
00000380: 478a fdbb 9942 55bd 800b afbd d0bd c3bb
00000390: fee4 083d b085 84bc 2088 343c 042f 8b3d
000003a0: ad03 543d 5bb1 b73d dd28 f1bc 3464 93bd
000003b0: c474 76bc 31bb a73d ab0d 8fbd 5442 b33d
000003c0: 04e2 4d3d 77b6 2b3d 791e 88bc 1f23 98bd
000003d0: ab96 90bd ce4c 8cbd deab 873d c287 94bc
000003e0: dbe8 2e3d cd24 b5bd 177b b7bd 9906 ba3d
000003f0: 8f69 a4bd 96eb 7d3d e6b8 9dbd dfc7 f53c

value_network.4.bias f4 [100]
-0.071433954 0.17051189 0.046506315 -0.05792572 0.12680623 -0.00056790694 0.031020595 -0.04068405
-0.038766585 0.0045034583 0.035401076 -0.0045038084 -0.03462422 -0.045129266 -0.020300193 0.07914082
0.029167073 -0.051843937 -0.09130363 -0.081324026 0.01765814 -0.09389303 -0.03307224 0.0788106
-0.050631784 -0.053532764 -0.00067764777 0.054386776 0.0017665076 -0.03513305 -0.079344496 0.015045293
0.010380268 0.050410945 0.09713297 -0.06293875 -0.068561405 -0.048806045 0.07599159 -0.09163723
-0.013844549 -0.020584427 0.04287952 -0.017816909 0.02583962 0.061872307 -0.08922971 -0.01413626
0.08161906 -0.075785846 0.045569293 -0.059814643 -0.08547007 0.0105572 -0.044398125 0.08321451
0.087720305 0.09556601 0.0020038409 -0.052032076 -0.08298873 0.10383205 0.15247793 0.051885866
0.044072215 0.059199803 0.0029228304 0.021102216 -0.052996732 -0.05725626 0.09790061 0.05201588
-0.056069013 0.06801263 0.030110955 -0.0600201 -0.004238872 0.00044497155 -0.08298832 0.059281915
0.03573158 0.079217404 -0.054511957 -0.019940533 -0.033809546 -0.00013488095 0.008509508 0.04657024
0.048093934 -0.020247752 -0.0892748 0.052943278 0.04705434 -0.09812519 -0.008127671 -0.03986346
0.071016125 -0.016539102 0.0064914864 0.088983044
00000000: f74b 92bd ab9a 2e3e 687d 3e3d 8543 6dbd
00000010: 7ed9 013e 97df 14ba e71e fe3c 52a4 26bd
00000020: b6c9 1ebd bf91 933b b800 113d af94 93bb
00000030: 20d2 0dbd 77d9 38bd 974c a6bc 9514 a23d
00000040: c9ef ee3c 4f5a 54bd 66fd babd 368d a6bd
00000050: cea7 903c fd4a c0bd c276 07bd 7467 a13d
00000060: 4663 4fbd 2c45 5bbd 2ca4 31ba abc4 5e3d
00000070: 298a e73a ace7 0fbd 5e7f a2bd 8880 763c
00000080: 0012 2a3c b57b 4e3d a7ed c63d 08e6 80bd
00000090: ec69 8cbd d9e8 47bd 7ba1 9b3d 4dac bbbd
000000a0: 3fd4 62bc aca0 a8bc 70a2 2f3d c4f4 91bc
000000b0: 9cad d33c d16d 7d3d 11be b6bd c69b 67bc
000000c0: e527 a73d 9c35 9bbd dea6 3a3d 3300 75bd
000000d0: ef0a afbd 1bf8 2c3c cfda 35bd 5e6c aa3d
000000e0: b4a6 b33d 1db8 c33d df52 033b 961f 55bd
000000f0: fff5 a9bd e6a5 d43d 2d23 1c3e 4686 543d
00000100: 1185 343d 7e7b 723d f58c 3f3b 8ede ac3c
00000110: 1a13 59bd 8a85 6abd 1d80 c83d 9a0e 553d
00000120: 9fa8 65bd 354a 8b3d 40ab f63c a3d7 75bd
00000130: 3ce6 8abb 124b e939 c8f5 a9bd 98d1 723d
00000140: 475b 123d bc3c a23d ee47 5fbd 545a a3bc
00000150: e17b 0abd d46e 0db9 776b 0b3c 70c0 3e3d
00000160: 25fe 443d 9dde a5bc b5d5 b6bd 0ddb 583d
00000170: 0dbc 403d dcf5 c8bd ec29 05bc de47 23bd
00000180: e770 913d 037d 87bc 89b6 d43b be3c b63d

value_network.6.weight f4 [1, 100]
-0.3201013 0.29488146 -0.060163688 0.016214317 0.049092144 -0.023542294 0.096066505 -0.16594855
0.14453915 0.10049749 0.087227955 0.09992738 -0.051767007 0.071488015 -0.08780214 0.13035896
0.051528174 -0.023730027 -0.06699862 -0.036577523 -0.105840065 -0.040920835 0.055492356 0.09402178
0.01591441 0.07319166 0.15013817 0.058122683 -0.10105501 0.035768468 0.03419457 -0.06875188
-0.097725645 0.14799704 0.08534685 -0.08186465 0.07302354 0.08258672 0.15327013 -0.032423116
0.07176248 0.015754472 -0.058275785 0.025057303 -0.05486613 0.046362888 -0.025049767 -0.06000366
0.03509504 0.02185459 0.13909619 -0.2676165 -0.026588243 0.13372234 -0.098235525 0.05990302
-0.014661305 0.10848897 0.101225086 0.034214593 0.023229294 0.10454186 0.21633714 -0.079275884
0.13054365 -0.014418612 -0.04693145 -0.076572485 0.0834151 -0.09996514 0.1366746 -0.052852724
0.020685824 0.002093797 -0.08805119 0.07296822 0.057448238 -0.05367084 -0.08180848 0.07382449
0.02433342 0.21988526 0.03794323 0.0018378265 0.050078195 -0.097398184 -0.22099002 0.115013905
-0.052201506 -0.05623585 -0.038620234 0.096287906 -0.036224145 0.013181877 -0.019031776 -0.040536795
0.06686636 -0.089519694 0.10772273 0.2371043
00000000: 51e4 a3be b4fa 963e 336e 76bd e3d3 843c
00000010: d814 493d c5db c0bc 84be c43d 6bee 29be
00000020: 1202 143e a1d1 cd3d 92a4 b23d baa6 cc3d
00000030: a409 54bd 4f68 923d 9cd1 b3bd d27c 053e
00000040: 350f 533d 7965 c2bc 9336 89bd 50d2 15bd
00000050: adc2 d8bd 9b9c 27bd f44b 633d 7e8e c03d
00000060: f05e 823c 82e5 953d d2bd 193e 0d12 6e3d
00000070: eef5 cebd f581 123d 9b0f 0c3d c9cd 8cbd
00000080: 6224 c8bd 898c 173e 54ca ae3d a7a8 a7bd
00000090: 5e8d 953d 3a23 a93d d8f2 1c3e 1ace 04bd
000000a0: 35f8 923d 860f 813c 97b2 6ebd f944 cd3c
000000b0: 4fbb 60bd 03e7 3d3d 2b35 cdbc 66c6 75bd
000000c0: d1bf 0f3d 6608 b33c 3b6f 0e3e 0805 89be
000000d0: 96cf d9bc 82ee 083e b52f c9bd de5c 753d
000000e0: f835 70bc 772f de3d 194f cf3d 9a24 0c3d
000000f0: 5c4b be3c 0b1a d63d 7c87 5d3e 655b a2bd
00000100: 3cad 053e 0b3c 6cbc 313b 40bd 09d2 9cbd
00000110: 89d5 aa3d 86ba ccbd 6df4 0b3e 197c 58bd
00000120: 5175 a93c 1638 093b 2f54 b4bd 5d70 953d
00000130: d84e 6b3d f4d5 5bbd 348b a7bd 4b31 973d
00000140: e156 c73c 9a29 613e 5c6a 1b3d 39e3 f03a
00000150: cb1e 4d3d b378 c7bd 354b 62be 698c eb3d
00000160: 3fd1 55bd 9057 66bd 4030 1ebd 9832 c53d
00000170: c55f 14bd cdf8 573c 87e8 9bbc e909 26bd
00000180: 3bf1 883d 1a56 b7bd bc9d dc3d 78cb 723e
