models/CADRL/output/il_model.pth (torch, 112335 bytes, 7 tensors)

value_network.0.weight f4 [150, 13]
00000000: 9f26 863e bc78 843e 808c 8a3c f3b7 5d3e
00000010: caae 7dbe 746b 433e 6fd6 31be 29d3 f23d
00000020: e5e7 163e fcb4 d7bd 88e9 40be 2330 3e3e
00000030: 3117 cc3d 52f4 063e 2d90 4e3e 9cd1 ba3d
00000040: c79b 5cbd 3927 63bd 6749 23bc 0f88 8cbe
00000050: 50fb c63d af37 84be fba1 bfbd 5429 663e
00000060: 165a 803e 35f2 37be b7eb 243e 0599 1a3e
00000070: 1771 e1bc 7c43 553e 1e66 a93d ec1d 9abc
00000080: dba1 64be 39ef 063e 3190 4a3e bb5c 46be
00000090: e6fd 523e ae88 8c3e d06a c8bd c288 353e
000000a0: 77cd 703e aa86 05be 330e 8e3c 1a27 09be
000000b0: 2267 b8bd 9324 97bc c60d 91be 941e 403e
000000c0: 2295 f23d b240 5c3d ddb7 95bd 6685 77be
000000d0: 9492 47be 2c52 47be 1612 643e bb3e 503d
000000e0: 166c 113e 41e7 e2bd 336c f53d 0137 54be
000000f0: 972a 8dbe 76a0 1e3e 106f 7ebe 7484 2d3e
00000100: 83fa 7dbe 5c41 52be 3514 f93d 2720 073e
00000110: c484 6e3e 59f3 8abe 4edf e63c a206 74be
00000120: 2475 063e 1687 45be 2e24 eabd a158 69be
00000130: 353f 04bd 330e f3bb 9662 41be e06e ab3d
00000140: cd77 c0bb 1940 503e a875 fc3d 1070 ea3d
00000150: 96d1 213e c63f 023e 5b8c 683e 5572 22be
00000160: 9c35 2fbe eb65 703e fea2 c93c 2397 6abe
00000170: 524b ccbd 9fc3 75be dee0 353e 270e 7a3e
00000180: 1c77 5dbe b4b0 543e 9748 723e 1104 213e
00000190: 9ab5 13bd ea45 80be ede4 cebd b81c 37be
000001a0: c8dd 703e 68d8 d73d d939 babd f468 7bbe
000001b0: 59ed 713e ad96 323e 05ec 8bbe 83b0 d3bc
000001c0: 8311 2ebd 9bf5 283e 54a7 1d3e 0fb5 803c
000001d0: b0c1 1bbe aac6 573d a5b1 63be 1f92 eebd
000001e0: 816b b73d e5c7 eabd 4afa acbd 3217 13be
000001f0: 9542 2d3e 1c90 d0bc 4a03 283e 89fb 403e
00000200: 53c7 073d 7a2e d73d 982c 95bd e242 75be
00000210: 5b66 783e 640e 703e 354f 673e 5c11 243d
00000220: 9d90 9abd 8b1b 813e 7793 393e eaa5 a83c
00000230: b9b0 0e3e ceee cb3d 6db5 1f3e 75fd 89be
00000240: c823 253d 8496 40be 9dfe 81bd 2544 1ebe
00000250: 205d ec3c a0a0 5d3e d639 08be c4d3 6abe
00000260: 26a1 f1bd 5700 1b3e 724e d1bd 22a5 67be
00000270: 1a4c 36be 17ca 6c3e 37b6 733e e732 1dbe
00000280: b7e7 86bd f93a 1d3e ce5d e5bc 578e 263e
00000290: b4ba ee3c f38f f2bc b3b9 68be 1bc9 6c3e
000002a0: 3548 663e 01db 163e b29f 7e3e a057 303e
000002b0: 7115 843e 222d 07be 9c2c c83d 53c5 823e
000002c0: de12 1bbe 753e 5cbd 9376 133e 7e04 223e
000002d0: 0ff6 433d ad1e 6b3e 3715 47be eea4 fdbd
000002e0: 325b 523d 4eac 2c3e 6dfa fb3c f48a 143e
000002f0: a7e6 22be bd85 19bb ce78 763e 2bbf 613c
00000300: 9a6e 7fbe 07a6 1c3d 8af7 89be fa3b 51be
00000310: c745 2e3e 7f0d 7dbd 95f3 673e f7c3 44bc
00000320: c1b6 b83d 5bec 013e 2be2 2bbe 6991 d8bd
00000330: e509 bd3d df24 75be 6a80 94bc 7167 233e
00000340: 7577 e53c 4c15 753e e040 78be efb9 cfbd
00000350: 9187 46be 9746 4e3e 1927 383e a6b8 c2bc
00000360: 1cc4 14be d61a 353e 6d36 973d ce94 2cbe
00000370: 0876 bf3d 1d3c 36be 8fb1 893e 791f 0f3c
00000380: c3e1 1e3e 95fe ba3d a503 19be 3a8a 8abe
00000390: f043 4b3e a898 ef3d 6f3d 27be 9296 47bc
000003a0: a4f7 0c3e 0536 01be 926d 3cbe 7668 12be
000003b0: 59bd 933d 2463 16bd e117 273d 875b 403e
000003c0: 7676 763e 3ab8 38bd 7146 3e3e e3cc bebc
000003d0: 9685 323e 1d88 7cbe dc3e cb3d af45 5fbe
000003e0: f440 483e 6b45 2abd f2ce 32be 2139 42be
000003f0: ebe4 79bd 7515 133e 24bc 663e 7ee9 813e
0.2620134 0.25873363 0.016912699 0.21652202 -0.24773708 0.19083959 -0.17366956 0.11856682
0.14736898 -0.10532567 -0.18839085 0.1857305 0.09965361 0.13179138 0.20172186 0.09122011
-0.0538595 -0.055457328 -0.009966231 -0.27447554 0.09715903 -0.25823733 -0.09357067 0.22476703
0.2506873 -0.17963488 0.16105543 0.15097435 -0.027519746 0.20826524 0.082714304 -0.018813096
-0.22327368 0.13177194 0.19781567 -0.19371311 0.20604667 0.27448028 -0.09785998 0.1772795
0.23515879 -0.13039652 0.017340755 -0.13393822 -0.09004046 -0.018450057 -0.2833082 0.18761665
0.11844851 0.053772636 -0.0731046 -0.24171981 -0.19489509 -0.1946494 0.22272524 0.050841074
0.14201388 -0.110792644 0.11983528 -0.20724107 -0.27571556 0.15490898 -0.24847054 0.16945058
-0.24802594 -0.20532745 0.12162057 0.13195859 0.23292834 -0.27138785 0.028182652 -0.23830655
0.13130623 -0.19289812 -0.11432682 -0.22787715 -0.03228684 -0.007417464 -0.18885264 0.08370757
-0.0058736564 0.20336951 0.12327129 0.114471555 0.15802607 0.1271964 0.22709791 -0.15863927
-0.17110294 0.23476379 0.024613854 -0.22909217 -0.09975304 -0.24000405 0.17761561 0.24419461
-0.21627468 0.20770532 0.23660503 0.15724207 -0.03606186 -0.2505334 -0.10102258 -0.17882049
0.23522103 0.10539323 -0.09093065 -0.24551755 0.23625697 0.17440291 -0.27328506 -0.025841003
-0.04249717 0.16499941 0.15395862 0.015711335 -0.15210605 0.052679695 -0.22235735 -0.11648964
0.089560516 -0.11463908 -0.08446176 -0.14364317 0.1691993 -0.025459342 0.16407505 0.18845953
0.033149075 0.105069116 -0.07283896 -0.23951295 0.24257796 0.2344299 0.22588809 0.040055618
-0.07547114 0.25216326 0.1812266 0.020586926 0.13934602 0.09957658 0.15596552 -0.26951185
0.040317327 -0.18807417 -0.06347392 -0.15455683 0.028853 0.21643305 -0.13303313 -0.22932345
-0.11798315 0.15136848 -0.102200404 -0.22621587 -0.17802468 0.23123966 0.23799978 -0.15351449
-0.06587165 0.15354528 -0.027998831 0.16265236 0.029141761 -0.029609656 -0.22727089 0.2312359
0.22488482 0.14731981 0.24865606 0.17220926 0.25797608 -0.1320081 0.097741336 0.2554117
-0.15143916 -0.0537705 0.14400701 0.15822026 0.04784208 0.2296092 -0.19441687 -0.123849735
0.051356502 0.16862604 0.03075906 0.14506131 -0.159083 -0.0023425661 0.24069521 0.013778488
-0.24944535 0.038244274 -0.2694667 -0.20433035 0.17018805 -0.06178045 0.22651513 -0.012009612
0.090192325 0.12687819 -0.16785495 -0.1057461 0.09230403 -0.23939846 -0.018127639 0.15957429
0.028011063 0.23933905 -0.24243498 -0.10142886 -0.19387652 0.20144115 0.17983665 -0.023769688
-0.14527935 0.17686018 0.07383428 -0.1685364 0.093486845 -0.17796369 0.2689328 0.008735531
0.15515809 0.09130589 -0.14942797 -0.27058583 0.19850135 0.11699039 -0.16332029 -0.012181895
0.13766342 -0.12618263 -0.18401173 -0.14297661 0.072138496 -0.03671564 0.040794257 0.18784915
0.24068627 -0.045097567 0.18581559 -0.023291057 0.17433771 -0.24661298 0.09924099 -0.21803926
0.19556028 -0.04157011 -0.17461756 -0.18967105 -0.06100933 0.14363654 0.22532707 0.25373453

value_network.0.bias f4 [150]
00000000: 7391 02be bb34 523e 4d09 fdbd 0c91 53bc
00000010: ae98 e9bc 26cf 61be dac2 1b3e f9c9 0bbe
00000020: f9cf 31be fd4a 25be f33e 043e e6a9 50be
00000030: 3f0f d93d 6ad6 dbbd a3db 78be 7a7c bb3c
00000040: 740f 25bd 9a2a 05bd e4c6 53be 73aa 04bd
00000050: 1802 863e 7c70 42bd 0cdd 22be bd81 75be
00000060: 578d 893e 2348 f1bd e780 493e 1505 443e
00000070: 3d31 66bd 9a41 75bc 536e 4cbe f3b7 773b
00000080: ff2d 8cbe 36ee 503e d05a 31bd c6f2 d73c
00000090: 07a7 813e 1cc7 4f3e 03e1 53be a416 32bd
000000a0: 29e7 39be 1563 eb3d fe4b 97bd 3cbc 09bd
000000b0: 4bdd c03d 9f3e 03bd 2fb2 263e 576c 69be
000000c0: 4abf 8a3e 9900 b1bc d81b 57bd 6237 89bc
000000d0: 7c20 90bd 471c 6c3d b3e6 7abe be34 c2bd
000000e0: b31a aabd 4325 09be 4938 8ebd eb6c 33be
000000f0: 6f46 e73d 8ca0 81be 925d 633e a4b8 7fbe
00000100: 79da b93d 12ec 153e 01eb 5f3e 5c78 85bd
00000110: 18dc 04be c521 87bd 672e 5b3d f26a 363e
00000120: a724 87be 1178 803e fb22 33bd 045a 9e3c
00000130: b1d5 eabd 475d 02be f55f 003d bdc2 833d
00000140: 3255 08be 1a65 44bd 4e6a 78bd 90c0 1ebd
00000150: 09b2 943d f764 72be 7675 72be e73c e23c
00000160: c906 48be 2b6b 023e b113 863d e06f 42be
00000170: 6307 9b3d 2db0 de3d a9ca 453e 1980 813e
00000180: 2197 443e 65ab b7bd 9d5f 41be 6d0a 27be
00000190: 0446 2ebe 329f 47be 4444 0f3e 0019 4c3e
000001a0: e475 833e b695 613e f8c0 4b3c 616f 0a3c
000001b0: b36d 543c de34 69be 8cef 423e 1ba0 c23d
000001c0: b048 a3bd 92ed b73d 2601 783e 133b edbd
000001d0: e8e3 56be 288f f7bd e27e 533e 3ebf 5fbd
000001e0: 312a 1c3e 8ab2 6e3e 5af2 75be 5ce5 54bb
000001f0: 888e 5abe d404 b63c e26c cebd a087 18bd
00000200: b486 58be bab0 ad3c 408e 353e 85de 843e
00000210: f731 3a3e 8fc4 e73d fad4 3d3e 6d74 bcbd
00000220: bea8 1a3e 1d76 2b3e 3693 8d3c 8443 dfbd
00000230: c7bd 5cbe cbcc 5abe 9da4 30be e6a8 ff3d
00000240: dae0 163d eae8 083e 9e2c 893d c67b 803c
00000250: e57b 42be 359a 303d
-0.12750797 0.20527928 -0.123552896 -0.012913 -0.028515186 -0.22051677 0.15211049 -0.13651265
-0.17364492 -0.16141887 0.12914638 -0.20377311 0.10598611 -0.107342556 -0.24302535 0.022886503
-0.04029794 -0.03251133 -0.2068134 -0.032389116 0.26173472 -0.047470555 -0.15904635 -0.23975272
0.26865646 -0.11781337 0.19678079 0.19142564 -0.0561993 -0.014969254 -0.1996396 0.0037798851
-0.27378842 0.2040337 -0.043299496 0.02636088 0.25322744 0.20290798 -0.20691304 -0.043478623
-0.18154587 0.11493508 -0.07387541 -0.03362678 0.09417208 -0.032042142 0.16278909 -0.22795235
0.27099067 -0.02160673 -0.05251679 -0.016750041 -0.07037446 0.057644155 -0.24502067 -0.09482716
-0.08305874 -0.1339312 -0.06944329 -0.17522018 0.11292731 -0.253178 0.22203663 -0.24972779
0.090748735 0.14640835 0.2186699 -0.06517097 -0.12974584 -0.06598238 0.05351105 0.17814234
-0.2639515 0.25091603 -0.04373453 0.019330032 -0.1146654 -0.12730895 0.03134151 0.06433628
-0.1331375 -0.04794798 -0.060648255 -0.03875786 0.0726052 -0.23671328 -0.2367762 0.027616931
-0.19533838 0.12736194 0.065467246 -0.1898799 0.07569768 0.108734466 0.1931559 0.25293043
0.19198276 -0.08968238 -0.1888413 -0.16312571 -0.17018896 -0.19494322 0.13990885 0.19931412
0.2567588 0.22029766 0.012436144 0.008449406 0.012965607 -0.22774073 0.19036692 0.09503194
-0.079728484 0.0898086 0.24219188 -0.11583533 -0.20985377 -0.12087852 0.2065387 -0.054625742
0.1525047 0.23310295 -0.24018231 -0.0032485342 -0.21343434 0.0222191 -0.100793615 -0.037238717
-0.21145135 0.021202434 0.17730045 0.2595102 0.18183123 0.113167875 0.18538275 -0.09201894
0.15103433 0.16744275 0.01728211 -0.109015495 -0.2155677 -0.21367185 -0.17250295 0.12483387
0.03683553 0.133701 0.06697963 0.01568402 -0.18992575 0.043115813

value_network.2.weight f4 [100, 150]
00000000: 2f40 a6bd f7ec 8abd 36ba 9cbd bbd2 f93c
00000010: 5750 8abd b08a 89bd 43f8 3c3d d21d 303d
00000020: 9804 a6bd 57b2 5cbc 8b69 973c cbe6 a93c
00000030: e6aa 7f3d 2fef 88bd 0d83 a53d a75a b53c
00000040: 182c 0a3d 0c7a 70bb 2665 9dbd bf03 6b3d
00000050: 22cf b93b 5896 5c3d 8449 9d3d bab0 2fbd
00000060: 7010 2f3c e0ea a23d ba1a 69bd 0f9b 72bc
00000070: a1ad 05bd f329 bf3c baf9 a0bb 724e c7bc
00000080: 0130 cd3c 50f0 463d 31ab b63c 240e 95bd
00000090: 42cd 24bd fef0 5b3d 6ce1 b9ba db2c ac3b
000000a0: 5db4 313d 4e1c 293d b326 543d 8d30 4bbd
000000b0: 2f15 403c 9599 2cbd 1493 883d 8351 9fbd
000000c0: 5938 92bc ab0b 2e3d 7782 92bc 82d4 873c
000000d0: 0aec 943d 1fc7 7b3d b067 2a3d ce88 6bbb
000000e0: eef1 9a3d c7ef b3bc ae93 993d e6fa eabb
000000f0: bebb 1fbc df50 9a3d 14dd bbbc adfb 36bc
00000100: c1e8 9d3d 61cc a13d 429c 8abd 0f11 193d
00000110: 584a f53c 4a2b 71bd 1e33 453d 36ce cebc
00000120: 5795 3bbd f190 f1bc 69d6 0cbd db53 5e3b
00000130: 8f73 64bd a055 cd3c 4395 a63d 46f5 2b3d
00000140: bbff 67bd 9442 2a3d 8092 9b3d 8ebe a2bc
00000150: d47b 07bd 9374 2cbd e5ce 5a3d b599 363d
00000160: 0f63 39bd 8016 5fbd 9577 e53c a970 9f3d
00000170: c987 3bbd 91b4 12bd 9760 16bd e42e c4bc
00000180: 305b edbc 1195 2fbd a647 89bb f5fb 993d
00000190: d8b0 473d 47d8 6a39 51ed 78bc daed 88bc
000001a0: d975 a23c f423 a73c 1973 79bd f487 523d
000001b0: 096e f9bb b6b9 54bd 0450 80bd 8f23 423d
000001c0: 4259 063d 22ba 4dbd 281b 7fbc b815 843c
000001d0: e9c4 74bd 0862 6bbd 9651 00bd d684 f9bc
000001e0: 97ab 32bd 4ada 503d c070 9ebd 0ccd a13d
000001f0: e059 6f3d a5d5 533d 775b d73c b7f8 0dbc
00000200: 471b 26bd 7a0a e0bc 9600 713d eb11 333d
00000210: f761 5bbd 772a 833d afd0 043d 8265 cf3c
00000220: e4eb 2abc fcd7 cc39 a3af 3ebd c903 1f3c
00000230: 240b 3cbd 9a1d 88bd 2494 46bd 0868 87bd
00000240: 5e1b 6c3d 5721 5b3d 2f14 453c c334 8abd
00000250: 1d80 f53c 1d54 0fbd c413 603c f450 a03d
00000260: 7ced 3c3d ca15 67bd 8811 2aba 167c 83bd
00000270: 5ea2 b63d d2c1 a2bd 8163 ab3d 9a78 613c
00000280: bc2e 893d c16b 8cbc 62b0 2b3d ad59 8dbc
00000290: 8898 4fbb 4310 6fbd bdf7 e83c ecb9 bc3c
000002a0: a438 dc3c 7326 74bd 93bb 2d3d 6996 993c
000002b0: 99be 923d 230d 89bd e110 7cbd 35e0 453d
000002c0: 14de 0c3d a266 09bc 68d7 9d3d 9f0a 38bd
000002d0: 9846 4bbd 7e6f 8a3d 0054 113c 9dbd 8c3d
000002e0: 923b 27bc d1ee 873c 7565 57bd a753 833d
000002f0: f29c 563d 1596 0cb9 36ad a03c 64d3 703b
00000300: 2789 563d 31bd 3b3d 65dc 983a 195d 503d
00000310: f7de a03d 4a8b 153d b7c2 b2ba 85d2 63bd
00000320: 0187 5dbd ae8c 043d 4fb8 243b 1c8a 793d
00000330: 3cf8 21bd 5b0a 75bd ed5d 6f3a f7c2 bcbd
00000340: 737d c63b d976 3e3d a26b 5dbd 04bc 6c3c
00000350: 0751 f83b eb41 76bd d3c0 083d f7ef f4bc
00000360: a3cc 11bd c4b8 7cbd f30b a63d b571 4ebc
00000370: 09cf 5abd ef16 1f3d 2c62 9cbd b85f 7a3d
00000380: 0861 353d 80a8 813d eb15 a83d b859 ed3a
00000390: 592c 04bb b936 9d3d b953 a43d 7576 cbbc
000003a0: cdc6 91bb 4c45 913c 0d88 47bc 9d63 1ebc
000003b0: e01e 913d f1a9 173d bccd 8cba f7c6 d7bc
000003c0: 4226 793d 27fc 90bd 12cb bb3d 2aa3 8d3d
000003d0: a30a a93d 9e17 08bd 5882 8bbd 1caa 82bd
000003e0: e7b5 6dbd cb8b 983d 0712 acbd c388 69bd
000003f0: 5203 573d 0c66 9c39 b782 5fbc ff94 fc3b
-0.08117711 -0.06783479 -0.076527044 0.030495992 -0.06753605 -0.06715906 0.0461352 0.04299719
-0.08106345 -0.013470254 0.018482944 0.020739933 0.06241884 -0.06686246 0.080816366 0.022137953
0.033733457 -0.003669384 -0.07685308 0.05737662 0.005670444 0.053854316 0.076800376 -0.04289315
0.010685071 0.07954955 -0.056910254 -0.014807477 -0.03263629 0.023335433 -0.004912582 -0.024329398
0.025047304 0.048569024 0.022298427 -0.07278088 -0.04023481 0.053696625 -0.0014181561 0.0052543706
0.0433849 0.04128676 0.05179472 -0.04960685 0.011723801 -0.042138655 0.06668678 -0.07779219
-0.017849134 0.042491596 -0.017884476 0.016580824 0.072715834 0.061469194 0.04160279 -0.0035939696
0.07565676 -0.02196492 0.07498871 -0.0071710227 -0.009749351 0.07534956 -0.022932567 -0.011168403
0.0771041 0.0790031 -0.06768085 0.037369784 0.029942676 -0.058879174 0.048144452 -0.025244813
-0.04579672 -0.029488059 -0.034384165 0.0033924493 -0.055774268 0.025065243 0.08133938 0.041981958
-0.056640368 0.0415674 0.07596302 -0.019866254 -0.033077076 -0.04210336 0.053419966 0.04458018
-0.045260485 -0.054464817 0.028011123 0.0778516 -0.04578379 -0.035816733 -0.03671321 -0.02394814
-0.028974146 -0.04286677 -0.0041894494 0.0751876 0.048752636 0.00022396549 -0.015193299 -0.016714979
0.019831585 0.020402886 -0.06090078 0.051399186 -0.007611994 -0.05193492 -0.06265262 0.047397193
0.032799967 -0.05022634 -0.015570439 0.016123638 -0.0597581 -0.057466537 -0.031327806 -0.030458849
-0.043620672 0.050989427 -0.07736349 0.07900438 0.05843532 0.05171742 0.026288731 -0.008665255
-0.040553357 -0.027348746 0.05883845 0.04371826 -0.053560223 0.06404584 0.03242558 0.025316957
-0.010432217 0.00039070833 -0.04655422 0.009705492 -0.045909062 -0.06646271 -0.04848112 -0.06611639
0.057643287 0.053498592 0.012028738 -0.06748345 0.029968316 -0.034992326 0.0136765875 0.078279406
0.04612492 -0.056417264 -0.0006487598 -0.06420152 0.08917688 -0.079471245 0.08368588 0.013761664
0.06698367 -0.017141225 0.04191626 -0.017254675 -0.003167661 -0.058365118 0.028438443 0.023037873
0.026882477 -0.05960698 0.042415213 0.018748479 0.0716526 -0.06691959 -0.061539534 0.048309524
0.034391478 -0.008386286 0.07707101 -0.044932004 -0.04962787 0.06759547 0.008870125 0.06872103
-0.010207074 0.016593369 -0.05258699 0.0641244 0.05239577 -0.0001340735 0.019613843 0.0036747092
0.052376892 0.045834724 0.0011662362 0.050870035 0.07855027 0.03650979 -0.0013638352 -0.05562069
-0.054083828 0.032360725 0.002513427 0.060922727 -0.039543375 -0.05982433 0.00091311225 -0.09216874
0.006057435 0.04650006 -0.054057725 0.014449123 0.0075780186 -0.060121458 0.033387017 -0.02989958
-0.035595547 -0.061699644 0.08107748 -0.012600352 -0.0534201 0.03884023 -0.07635912 0.06112644
0.04428199 0.06330967 0.082073055 0.0018108403 -0.0020168035 0.07676453 0.08023781 -0.024836758
-0.0044487477 0.017733239 -0.012178433 -0.009667304 0.07085967 0.037027303 -0.0010742466 -0.026339991
0.0608275 -0.07079344 0.09169592 0.06915887 0.08253982 -0.033225648 -0.068119705 -0.06380102
-0.058034804 0.074485384 -0.08401876 -0.05701519 0.0524934 0.0002983067 -0.013642005 0.0077081914

value_network.2.bias f4 [100]
00000000: b7fd 89bd db61 6e3c d5df 45bd 5bcc 233d
00000010: 36ec 7a3d b7ae 9d3d 6e79 993d b921 0f3d
00000020: 6cfc 8a3c 5ba0 5abd 466c 0ebb d5f3 403d
00000030: 5051 2d3d d9d5 8fbc 44b4 32bc 87f1 6a3d
00000040: 4e8b 7d39 abf3 75bd 3a3a 2abd 3501 573d
00000050: a00d 7c3d 0863 97bd 03cb 813d 4e37 68bc
00000060: b91e 8e3d 627c 8cbc 7aba f83c 830b 443d
00000070: da22 8bbb 3419 21bd 9bf0 b23c e93a a1bb
00000080: d09f a339 dafd 8fbd 5fc8 5e3c ecc0 a0bd
00000090: 7968 2dba 9c67 e43b 6786 833b dc73 35bd
000000a0: 744e c93c e168 ddbc 1a47 8e3d e019 41bd
000000b0: 5f3d 31bd 4bf4 8a3c 7270 633d e16b 663b
000000c0: ab64 4ebd 4cec 76bd f08e a83c 95ad 3bbd
000000d0: 0fc6 f6bc 0b67 923d 723b babd 4712 34bd
000000e0: 4828 223d afc0 363d 6727 7abd b537 703c
000000f0: 3053 1fbb f812 693d 4b17 19bc c170 933b
00000100: d60e 793d 5305 3c3d 1129 f13b b35d 57bc
00000110: 34ea 733c 0017 f4ba 9bb5 3dbd b91c 303d
00000120: cbda 0e3d dbd2 00bd 65aa 3bbc 0582 8dbd
00000130: 149c 063b 310e 803d 0018 c53b 3dcb 9abb
00000140: d03e bb3c 67f4 9abd 2ea3 043d 3662 f7ba
00000150: a90f 94bd 7782 a13c 1d25 a73d d488 9bbd
00000160: 68d6 ea3c d388 c53c 4914 7bbd a85e edbb
00000170: a31c 933d 8ddf ee3c c909 3f3d 65c7 253c
00000180: ee80 4d3d f896 aa3b 9961 c03b 2c42 213c
-0.067378454 0.014549698 -0.048309166 0.03998981 0.061260425 0.0769934 0.07493864 0.03494427
0.016966067 -0.053375583 -0.0021732016 0.047107536 0.042313874 -0.017558025 -0.0109072365 0.057359245
0.00024179855 -0.060046833 -0.041559435 0.052491385 0.06153643 -0.073919356 0.063375495 -0.014173342
0.06939454 -0.017149154 0.030362356 0.04786254 -0.004246098 -0.039330676 0.021843245 -0.0049203527
0.00031208852 -0.0703084 0.013597577 -0.07849297 -0.0006614994 0.006970359 0.0040138247 -0.044299945
0.024573542 -0.02702755 0.06947155 -0.047143817 -0.04327142 0.016962191 0.055527158 0.0035159516
-0.050388973 -0.060283944 0.02057597 -0.045819838 -0.030123739 0.0714856 -0.090933695 -0.043962743
0.039589196 0.04461735 -0.061072733 0.014661719 -0.0024311058 0.056902856 -0.009343932 0.0044995253
0.060805164 0.045903515 0.007359632 -0.013144898 0.014887381 -0.0018622577 -0.04631577 0.042996142
0.034876626 -0.031451087 -0.011454199 -0.06909565 0.0020539807 0.06252707 0.006014824 -0.004723935
0.0228571 -0.07566147 0.032382183 -0.0018873874 -0.072295494 0.01971553 0.08161376 -0.07594457
0.02866669 0.024113094 -0.061298642 -0.00724395 0.071831964 0.029159332 0.04664019 0.01011834
0.050171785 0.005205985 0.0058710095 0.009842437

value_network.4.weight f4 [100, 100]
00000000: d0c4 913d e6a3 9bbd 57b9 aa3c 7ab7 3fbd
00000010: 1074 453d bbeb 70bd d3c5 bf3c a49f 2dbd
00000020: f440 1a3d 5fd7 50bd f04f 393c 4045 86bc
00000030: 062d 7f3d cd26 bd3d 5b99 36bd 21a0 753d
00000040: 2c0a 2bbd 5922 1ebd edf3 043d 3c46 cf3d
00000050: 3bcb b9bc 0b81 b43c db7f 793c 0846 023b
00000060: 4684 aebd a97a 983d 4763 a53d c812 8abd
00000070: 097a ed3c e03f bdbc d07c 95bd 17e0 5dbd
00000080: 648a f13c f33f c53c bdc1 3dbd dfc9 c3bd
00000090: d77b 813d d2f0 b1bd 0cfa b43d 9704 99bd
000000a0: dd50 cfbd f08c 01bd d548 2a3d dad7 23bd
000000b0: 60ef 703d bbdb 9d3d bbcd 04bd 948d 9ebd
000000c0: 084b db3c c693 6fbd d303 b6bd 8815 89bd
000000d0: ec65 92bd 5727 7dbd 7c16 12bd 0075 1cbd
000000e0: 385e c53d f5a1 53bc 12f1 e63c f20f 883d
000000f0: c514 973d 69bf 873c fb34 8abd 06c9 833d
00000100: e533 863c 9a14 bdbc 5529 bfbd bd8c 0a3c
00000110: 3037 ad3d 2495 8e3c 379d 8dbd 7c99 bf3c
00000120: a7e4 93bd c4cd 4f3d 613b 06bc aac5 923d
00000130: 1bec e8bc ff61 c0bd 0eb3 203d 42a9 353d
00000140: f8d7 96bd d4d6 093b 2b08 b13d e378 acbc
00000150: ff8f 98bd 175f 9fbb 119e 0ebc 6994 2e3d
00000160: 977c 263d f8e0 fbbc a2e3 bb3d 18a7 ac3d
00000170: 5f98 a03d d9f9 1cbc cb5a 623c 4623 00bd
00000180: ad9e a5bd 653f c6bd 0140 d1bd da2f 453c
00000190: ca0f 583d b309 623c 10af a0bd 406a 2ebc
000001a0: 12f4 96bd fb04 0d3d ed3d babd dd5d 30bd
000001b0: 41f7 b43c 0b60 c6bd f6bc 9abd 3ac0 8cbc
000001c0: 5d26 90bd 1775 73bd cadb 7ebc 8d53 413d
000001d0: a46f a23d 8828 18bd bc91 4fbd cd0b a6bd
000001e0: d644 943d 72c1 d13c 2fc7 d8bc 0146 a53c
000001f0: aee8 aa3d b940 06bd f8a0 c73d bb94 a7bd
00000200: aa9b aeb9 1f8b 8abd b212 46bb 1cc7 4ebc
00000210: ad4e 6e3d 9a54 d23b cd8c dfba aeb5 8abd
00000220: db36 babd d3e8 bc3c 2bce b83d c363 353c
00000230: 701b 603d 0224 38bc a415 903d b7a7 36bd
00000240: 4068 01bc 6d90 813c 5d2e d5bd be71 033c
00000250: 382a bd3d d2c4 adbd fc3c 83bd 8f7f 8a3d
00000260: c486 8c3c dcea b33b 17c1 843b 4797 c6bd
00000270: 7516 a0bc 785d 18bd 1f26 bcbd cd0b 1b3c
00000280: 3812 6e3c dd8f d2bd e5f0 a1bc 559a 623d
00000290: 037c 2d3d 3516 a3bd af23 453c df71 17bd
000002a0: 83c9 90bd 0b2b b7bc d013 723d 2704 8fbb
000002b0: c07d 27bc 95b6 853d bec2 0b3b c40b 5b3d
000002c0: 7743 6a3d 0d53 8c3d fa15 873d 675e b9bd
000002d0: c810 1dbd dae2 bcbd 23cb 193b da4d b93d
000002e0: dd4a ab3d 3464 973d 21a1 3cbd ade2 22bd
000002f0: 1a08 89bd f44e 0f3c e39b 523d 6e66 46bb
00000300: 7730 bfbd fd48 8dbc 79d7 293d 3cbe 863d
00000310: eb08 17bd f6eb 573c 2c72 acbd 4a95 8fbd
00000320: fdcf 71bd c70b 283d def0 813d 5d06 723d
00000330: 3519 a93d f4d0 4b3d dade 65bc aab6 23bd
00000340: 2092 a83d 9e10 9d3d 2fea 493b 234d 5bbd
00000350: 0057 debc 66da a2bd 2364 54bb 0496 273c
00000360: 7c7e 81bd 02c0 d5bb 8cf3 93bd ff50 7ebd
00000370: 6469 483d 0184 763d 6254 b63d 7325 d5bc
00000380: cdd4 95bb 31d6 f6bc 3a47 443d e6d8 82bd
00000390: ebdb 4f3d 4097 cdbc d3a4 363d 5778 5e3d
000003a0: e313 a53d edd7 f4bc b26c 8abd 3348 b7bc
000003b0: b159 203d 1aba 1abd 6e74 89bc c9e3 b3bb
000003c0: 436e 513d 9e11 aa3d 46b1 093d f79a e43d
000003d0: 8707 b73c ad2e 4d3d 27b7 bbbd ea7b 77bd
000003e0: 654d 8bbd 59b0 ca3d 9b67 23bd 18c8 e73b
000003f0: 4f3d 56bd d7fa b4bc 10d9 a33c 4fa0 91bd
0.07117617 -0.075996205 0.02084033 -0.046805836 0.04820639 -0.05881856 0.02340976 -0.042388573
0.0376596 -0.050986644 0.0113105625 -0.016390443 0.062298797 0.09235916 -0.044579845 0.059967164
-0.041757748 -0.038606975 0.03245919 0.10120818 -0.022679916 0.022034189 0.015228237 0.0019878168
-0.08521323 0.074452706 0.08075576 -0.067418635 0.028988855 -0.023101747 -0.07299197 -0.054168787
0.029484935 0.024078345 -0.04632734 -0.09559988 0.06322449 -0.08688511 0.08836755 -0.074715786
-0.10122845 -0.03162855 0.041573364 -0.040000774 0.058822036 0.07707926 -0.032422762 -0.07741848
0.026769176 -0.058490537 -0.08887448 -0.0669356 -0.07148346 -0.061805096 -0.035665974 -0.038197517
0.096371114 -0.0129170315 0.028191123 0.06643666 0.07377008 0.016570764 -0.067483865 0.064348266
0.016382167 -0.023081113 -0.09334055 0.008456406 0.08457792 0.0174051 -0.06914752 0.023388617
-0.07221346 0.050733343 -0.008192868 0.07166608 -0.028432896 -0.09393691 0.03923326 0.04435087
-0.073654115 0.0021032589 0.08644136 -0.021053737 -0.0744934 -0.0048636305 -0.008704678 0.042622004
0.040646162 -0.030746922 0.09174277 0.08430308 0.078415625 -0.009581053 0.013815592 -0.03128364
-0.08086906 -0.0968006 -0.10217286 0.0120353345 0.052749433 0.013796258 -0.078458905 -0.010645449
-0.073707715 0.034428578 -0.09093843 -0.043058265 0.022090556 -0.096862875 -0.07555573 -0.017181505
-0.07038567 -0.059437837 -0.0155553315 0.04719882 0.0793145 -0.03714803 -0.050676093 -0.081077196
0.07239692 0.025604937 -0.026462166 0.020174982 0.083451614 -0.032776568 0.09747499 -0.08182665
-0.00033303845 -0.067648165 -0.0030223546 -0.012620714 0.0581805 0.0064187767 -0.0017055512 -0.06772934
-0.09092494 0.023060238 0.090236984 0.011071148 0.054713666 -0.011239054 0.070353776 -0.04459354
-0.00789839 0.015815938 -0.10409234 0.008022724 0.09236568 -0.08484806 -0.06408116 0.06762611
0.017154105 0.005490644 0.0040513384 -0.096968226 -0.019541958 -0.037198514 -0.091869585 0.009463263
0.014530711 -0.10281346 -0.019768188 0.055322964 0.042354595 -0.0796322 0.012032433 -0.03697383
-0.07069685 -0.022359392 0.059100926 -0.0043645087 -0.010222852 0.065289654 0.0021325792 0.053478017
0.057193246 0.06851778 0.065959886 -0.09051209 -0.038346082 -0.09222956 0.0023467026 0.09048052
0.083638884 0.07392159 -0.046052102 -0.039766956 -0.066909984 0.008746851 0.051418196 -0.0030273455
-0.09335416 -0.017246718 0.041465256 0.06579253 -0.03687374 0.013178816 -0.08420214 -0.070108965
-0.059036244 0.041026857 0.0634477 0.0590881 0.08256761 0.04975982 -0.014030183 -0.039969124
0.08230996 0.07669185 0.003080975 -0.05354036 -0.027141094 -0.079518124 -0.003240832 0.010228638
-0.06322953 -0.0065231333 -0.07224187 -0.062088963 0.048928633 0.060184482 0.089028135 -0.026018834
-0.004572487 -0.030131431 0.04791949 -0.06389026 0.05074684 -0.025096536 0.044590782 0.054313984
0.08060434 -0.029888118 -0.06759013 -0.022373294 0.039148036 -0.037775137 -0.01677915 -0.0054898006
0.051130544 0.083041415 0.033616327 0.1116237 0.022342457 0.05009334 -0.09165793 -0.060420908
-0.06801871 0.09896917 -0.039893728 0.0070734136 -0.052304562 -0.022092266 0.020000964 -0.071106546

value_network.4.bias f4 [100]
00000000: 500d 943d f402 f63d 83d2 5c3c cc85 843c
00000010: 8467 b5bd 2af9 8cbd 79f1 603d c500 e4bd
00000020: a954 903c 7bf5 8cbd d5e8 e2bd 2115 ba3d
00000030: 0b0a 8abd 204c 2a3d 7a03 ae3d 4a12 a33c
00000040: dd45 38bd 4d9f bdbc 98c5 a7bd ef3f d93d
00000050: 41da c73d 7ece 8cbd 17a1 e6bd 0d03 5dbd
00000060: 27f2 c9bd fa83 9bbc 17b3 3b3d a592 743d
00000070: e558 823d 475f 3cbd d02f e13d c04a 03bd
00000080: 301e 7f3d e79f 563d ee48 813c 3822 cabd
00000090: ccdb 843d 894e edbc 8a29 e6bc 07b8 cf3d
000000a0: 2fb0 9b3b b337 42bd e60f dfbd 49db 9ebd
000000b0: 314b 53bd 8737 7f3d 716a 44bd dc06 12bd
000000c0: 3d74 83bd a0f0 6cbd 68ab 9abc 2ff7 0c3e
000000d0: 877a ab3c 5f97 15bd 93ea cbbd b02f 14bc
000000e0: 381e a5bd b787 af3d 42ae bd3d 1ac8 51bd
000000f0: 1874 7e3d b386 b43d 09ba 163e 4281 7abd
00000100: a45c 47bd 70fd f33d 88b0 c4bc 4bd3 58bc
00000110: 20d1 063d e993 943d dba9 46bd 98c9 883d
00000120: 4288 92bc 7104 263d 699b a5bd db2d babd
00000130: f4ef b4bc 52de e0bc 7422 c93d 5f23 ab3d
00000140: a1c6 58bd 4e67 d5bd 5eaf 73bc 2318 323e
00000150: a0c0 bbbc 4678 6d3d 3b50 b8bc 9304 f3b9
00000160: 56eb cebc a09d 9bba 212f 5fbd 469a a4bd
00000170: 89d1 693d d998 16bd 8555 b73d 06e0 043d
00000180: ace1 093d dbd5 d63d 1b19 a63d 0276 e3bc
0.07229102 0.12012282 0.013477924 0.01617708 -0.08857635 -0.06883462 0.054917786 -0.11132959
0.017618494 -0.06882759 -0.110795654 0.09086061 -0.06740197 0.041576505 0.08496757 0.019906182
-0.0449885 -0.02314725 -0.08191985 0.106078975 0.097584255 -0.06875323 -0.11261194 -0.053957988
-0.0986064 -0.01898383 0.04582509 0.059710164 0.063646115 -0.0459893 0.10995448 -0.03205371
0.06228465 0.05239859 0.015781846 -0.09869808 0.064872354 -0.028968113 -0.02809598 0.10142522
0.0047512273 -0.0474164 -0.10891704 -0.07756669 -0.05158538 0.062308814 -0.047953073 -0.035651073
-0.06418655 -0.057846665 -0.018880561 0.13766168 0.020932449 -0.03652131 -0.09956851 -0.009044573
-0.080624044 0.085708074 0.09261753 -0.051216222 0.062122434 0.08814754 0.14719404 -0.061158426
-0.048672333 0.11913574 -0.024009958 -0.01323397 0.03291428 0.07254774 -0.04850183 0.06679076
-0.017887238 0.04053158 -0.08086283 -0.090907775 -0.022087075 -0.02744976 0.098210245 0.08356356
-0.052923802 -0.104200944 -0.014873354 0.1739202 -0.022919 0.05797603 -0.022499194 -0.0004635198
-0.025258701 -0.0011872537 -0.054488305 -0.08037238 0.057084594 -0.03676686 0.089518584 0.032440208
0.033662483 0.104900084 0.08110257 -0.027766231

value_network.6.weight f4 [1, 100]
00000000: 4e38 aebd 47a7 9c3d eacb 363e 9d4e a8bd
00000010: 7087 3b3d 5444 88bd f84d 61bd a135 50bd
00000020: fbd4 7bbe b5bf 8bbd 2a18 15be 8e9e 0dbe
00000030: 86aa 463d 492d e2bc a4c2 043e 37a4 4a3d
00000040: 38f0 c93d a39f aa3d 9b24 273d 0642 283e
00000050: 53f4 083e 07b5 833d fe1a c2bd 994e bfbd
00000060: 50a8 233d b6eb 5dbb a46e 02bd 73b5 9a3d
00000070: 1c1e 09bd 94a4 2ebe c7c1 5f3e 6b9a 00bd
00000080: 398c b33b b6d2 213e 5e59 62bd 6f53 ba3d
00000090: 01ca 99bd 4832 b9bd 844a e1bc c8b3 843d
000000a0: 4e66 7c3d 49cf 19be 632b eebc c5ae 433d
000000b0: 856f a43d 942b f0bd 48e5 0bbe 2b11 5abd
000000c0: 00cd bebd 8339 b13c e931 a33c 8199 453e
000000d0: 3836 8abd 104f 7c3d db4a f1bd 7425 d9bd
000000e0: 794b c0bd 205a 9b3d 57a3 883d 4a6e 70bd
000000f0: 9531 a43d 0910 0a3e 5d64 4d3e 11a8 fabb
00000100: 54ce a9bd 97d3 0f3e 4373 7dbc ef74 c3bd
00000110: a9fe c7bc 214f 9e3d 62ca f5bc f8fc 9e3c
00000120: a193 1cbe 49a7 543c b617 babd 0218 b2bd
00000130: c42d 10be c50c 98bd cb65 4e3e d7a5 7fbc
00000140: 7555 9abd 06e7 afbd ed97 23bd 9fea 563e
00000150: 201b 62bd 1964 9e3d ac21 1c3d 7ce3 473d
00000160: 025b 05be 3ef7 4b3a 10a6 1e3d d5de 32bd
00000170: 0562 073d f71a c73d 5b1b c43d d8b4 53be
00000180: 1feb adbd f22b bf3d cd7b 60bc ab85 7a3d
-0.08506833 0.07649093 0.17851225 -0.08218119 0.04578346 -0.066536576 -0.055005997 -0.050832395
-0.24592964 -0.068236746 -0.14559999 -0.13830015 0.048502468 -0.027609484 0.12964875 0.049473014
0.09860271 0.083312295 0.040806394 0.16431436 0.13374452 0.064310126 -0.094778046 -0.09341163
0.039955437 -0.0033862418 -0.031843796 0.0755414 -0.03347598 -0.17054969 0.21851264 -0.031397264
0.0054793623 0.15803036 -0.05526101 0.09097945 -0.07509232 -0.090427935 -0.027501352 0.06479603
0.061621003 -0.1502048 -0.029073423 0.047774095 0.08029083 -0.11727062 -0.13661683 -0.05323903
-0.093164444 0.021633869 0.01992126 0.19296838 -0.06748623 0.061598837 -0.11781856 -0.10602847
-0.09389395 0.07585549 0.066717796 -0.05869893 0.080172695 0.1348268 0.20057817 -0.0076494296
-0.08291307 0.14045559 -0.015469375 -0.09543788 -0.024413424 0.077299364 -0.03000373 0.019407734
-0.15290691 0.012979337 -0.09086554 -0.086959854 -0.14079958 -0.074243106 0.20156018 -0.015603504
-0.07535831 -0.08588986 -0.03993981 0.20987938 -0.05520165 0.07733936 0.03811805 0.04880093
-0.13022998 0.00077806774 0.03873259 -0.04366954 0.033052463 0.0972194 0.0957553 -0.20674455
-0.084921114 0.09334554 -0.013701391 0.061162632
