models/CADRL/output/rl_model.pth (torch, 112399 bytes, 7 tensors)

value_network.0.weight f4 [150, 13]
00000000: 7c9e 6e3e 76a0 783e 724e 81bd fb12 80be
00000010: 2de5 eb3d 2ddb 2e3e b8a9 4abe acd4 7cbe
00000020: abb3 51bd b3de 743e df13 91bd 3605 683e
00000030: 0ce8 cbbd fc57 1dbc 5a91 8ebb 9e9d 503e
00000040: 386b 6bbe 125e 1cbc 79cd 333c 7ca6 193d
00000050: b8c8 703e 16d4 82be afdd c73d 6032 903d
00000060: 4ce3 6e3e 475a 663e 8d33 3bbd 7218 56be
00000070: dd71 783e 9e9d 683e 6e76 e03d 921b 213e
00000080: fa80 e5bd 2fe7 d63a 39c1 003e a231 8c3e
00000090: 4699 b93c 6576 02be 9963 60bd 01ca 68be
000000a0: de58 bcbd c9d3 82be 5c2f 8bbc 37f5 283e
000000b0: de6a 6a3e 54d5 c9bd f619 77be fa00 a9bd
000000c0: 6d55 b1bb 2624 59be 5336 d0bd a60c 643e
000000d0: b4e7 a1bd 89c6 023c 1684 be3d 7fa4 54be
000000e0: 8e93 8ebc 1174 abbb 4510 82be cfbc 573d
000000f0: 236a 47be 4933 ad3d 55e9 afbb d54b 343e
00000100: 5545 1cbe c617 1dbd 8fb5 253e 5b95 623e
00000110: 9814 583d 8ead 603e c753 9abd 4722 67be
00000120: 7d9a 113e 4c99 5a3e d1d4 833d 46b4 383e
00000130: 1cef 7ebe 4a3a 7e3e c9cd 843e 9c9b 623e
00000140: 97d5 893a 166f ee3b 6298 8d3e 7435 50be
00000150: 0425 38be c08d 333e fe53 73bd c79b 1f3e
00000160: d143 9abd 9f4c 1cbe c74c 80bd 5fb2 33be
00000170: f9cf 183e 74eb 143e 1252 9fbc b1dc 3c3e
00000180: fd12 a0bd fca9 d7bd 6e3d 23be 1475 4cbe
00000190: 0f41 87be 9f55 0bbe b8f3 eabd 2c04 6bbe
000001a0: ba8a 393e b82c 93bc 8c83 4b3e e432 063c
000001b0: cd11 81be 8f06 713e 7247 1cbe 8233 f0bd
000001c0: c8a9 61be e5f3 133e 120f c73a 3453 bf3d
000001d0: ccae 403c 2aeb 0a3e b178 2dbe 761f d53d
000001e0: a6a9 46be 6175 98bd c012 553c e778 bd3d
000001f0: aa50 58bb 959f 6939 ce7e a2bb 8854 38be
00000200: 8bbc 783e f646 22be 27b0 60be 573f 543e
00000210: 315d 2a3e b88c a03d 5ff2 2abe ad21 7dbe
00000220: 17fd 9b3d 34ac 1dbe d375 e4bd 9dbb 42be
00000230: 19e3 b1bd 6c73 87bc bac4 6c3e 38e4 eabb
00000240: 89f8 be3c 68b4 8b3e 223c 0fbe 3b34 7dbe
00000250: af3c 26be 0f32 60be 66de 80be 95e3 b13d
00000260: b58b 193e cd1e 223e d969 8abe 602a 063e
00000270: 9e23 6a3e 165f 40bd 4424 d2bd da35 133e
00000280: 7467 673e 6eae 4bbd 6a50 63be 6a37 dcbd
00000290: 3a6a 703e 5a6d 91be 463d b4bd 9771 8ebe
000002a0: 2061 30be 240a 0b3e 055c 5f3e 556c 68bd
000002b0: da0a 843e d78f 6fbe d37c 75bd de22 25be
000002c0: 589b 1d3e b729 c7bc 6356 803e e722 dabc
000002d0: c536 143d 6494 56be effa 0cbd 1f02 67be
000002e0: 05bd 323e 6a32 84be d6c4 a73d 0d61 843e
000002f0: ab7b 853e 0187 00bd deb1 22bd da34 7e3e
00000300: 561a a6bd 6c18 14be e7d6 3abe 6040 46be
00000310: 8f9f adba 6cf7 c83d 8513 333e 459f 6b3e
00000320: ca01 883e 63b5 093e 16df 08be 2262 87be
00000330: 1e7b 33be 4495 11be 16b1 84bd b1bd 12be
00000340: 62c5 22be 142a 50bc 74ea 103d 3b30 b4bd
00000350: 9d40 59be de80 8d3d 9a68 37be 2279 c5bd
00000360: ab20 26bc 7fbb 02be 102a 6f3e aa16 07be
00000370: c37f dd3d 798a 0d3e 537e d8bc 6504 0ebe
00000380: d571 5a3e daa8 09bc 2e8e b6bd 2128 8fbd
00000390: e187 fb3b 53ab 44be f4fd 983c af63 3d3e
000003a0: d7fe a13e 247d 6d3e e13b 6d3e 691a 22be
000003b0: 96fa 23be 20f8 f9bc 9632 5dbe 9b7f 383c
000003c0: d286 0dbd af37 85be f5b0 a23d 1386 d33d
000003d0: 4e00 04be 91de 58be d3aa 553d 51c9 60bc
000003e0: 7383 873e f91c 35be 2f8a 8cbe c098 7c3e
000003f0: 9343 b3bd 9fa2 ab3d 7bc4 54bd 9050 29be
0.23302644 0.24279961 -0.063137904 -0.2501448 0.11518321 0.17075796 -0.19791305 -0.24690503
-0.051196735 0.23913078 -0.07083868 0.22658238 -0.09956369 -0.009603497 -0.0043508234 0.20372626
-0.2299012 -0.0095439125 0.0109742815 0.037512287 0.23514068 -0.25552434 0.0975908 0.07040858
0.23328894 0.22495376 -0.04570346 -0.20907763 0.24262185 0.22716376 0.10960089 0.15733173
-0.11206241 0.0016395802 0.12573709 0.27381617 0.022656094 -0.12740476 -0.054782484 -0.22733308
-0.091966376 -0.25552204 -0.016990356 0.16499792 0.22892329 -0.09855142 -0.24130997 -0.082521394
-0.005411795 -0.21205196 -0.101666115 0.2227045 -0.07905522 0.007981905 0.09302537 -0.20765875
-0.017404344 -0.005232342 -0.25403038 0.052670296 -0.19474082 0.084570475 -0.0053683915 0.17607053
-0.15260823 -0.03835275 0.1618254 0.22127287 0.052754015 0.21941206 -0.075355105 -0.2257167
0.14219089 0.2134754 0.06437076 0.18037519 -0.248959 0.24826923 0.25938252 0.22129673
0.0010515925 0.007276426 0.2765532 -0.20332891 -0.1798287 0.17534542 -0.059406273 0.15586768
-0.07532466 -0.15263604 -0.06264644 -0.17548512 0.14923085 0.14542943 -0.019448314 0.18443562
-0.07816122 -0.10530469 -0.15941402 -0.19966537 -0.26416823 -0.1360688 -0.11472267 -0.2295081
0.18119326 -0.01796566 0.198744 0.008190844 -0.25208893 0.23537658 -0.15261629 -0.11728574
-0.22037423 0.14448507 0.0015186986 0.093420416 0.011760425 0.1356627 -0.16940571 0.10406391
-0.19400653 -0.07444263 0.013004959 0.09251576 -0.0033007064 0.0002228006 -0.004958964 -0.18000996
0.24290673 -0.15847382 -0.21942197 0.20727287 0.16637112 0.0783934 -0.1669402 -0.24719878
0.076166324 -0.15397722 -0.11155286 -0.19016881 -0.086858936 -0.01653453 0.2312192 -0.007168319
0.02331187 0.27286077 -0.13987783 -0.24726956 -0.16234086 -0.21894096 -0.25169677 0.08685986
0.149947 0.15832062 -0.2703388 0.13102102 0.2286515 -0.04696568 -0.10260823 0.14376011
0.22598058 -0.049726896 -0.22198644 -0.10752757 0.23478022 -0.2840374 -0.088007495 -0.27821037
-0.1722455 0.13578087 0.21812446 -0.05674394 0.2578953 -0.23394714 -0.059933495 -0.16126582
0.1539129 -0.024311883 0.25065908 -0.02662797 0.036185045 -0.20955044 -0.034418996 -0.22559403
0.17454918 -0.25819713 0.0819184 0.25855294 0.26070914 -0.03137875 -0.03972041 0.24824849
-0.08110492 -0.14462441 -0.18246041 -0.19360495 -0.0013246405 0.09812817 0.17487915 0.23009975
0.26563865 0.134481 -0.1336635 -0.26442057 -0.17527434 -0.14217097 -0.06479089 -0.14330174
-0.15895608 -0.012705345 0.035379842 -0.08798262 -0.21216054 0.06909345 -0.17910996 -0.09642245
-0.010139625 -0.12766837 0.2335589 -0.1319224 0.10815384 0.13822354 -0.026427424 -0.13868864
0.21332486 -0.008402074 -0.089138374 -0.06990076 0.00767611 -0.1920598 0.018675782 0.18495058
0.3163974 0.23192269 0.23167373 -0.15830387 -0.1601356 -0.030513823 -0.21601328 0.011260892
-0.034552403 -0.26019046 0.07943908 0.10328307 -0.12890741 -0.21178652 0.052164864 -0.013719873
0.26467475 -0.17686833 -0.27449176 0.24667645 -0.08753123 0.08380627 -0.05194519 -0.16534638

value_network.0.bias f4 [150]
00000000: 8bfc 883e cc08 18bd ed40 2fbd ba35 02be
00000010: e1f8 c83d b0a0 edbc 5f2b 123e f372 88be
00000020: 86f4 553e 7fe6 5c3e b0e1 f9bc 11fa 113e
00000030: c844 103e d6e7 4c3d 594b 163e 9def 60be
00000040: a6c8 663e d218 66be 6e1e f33d a819 453e
00000050: 9005 7ebe 0212 753e bd46 e73c f906 863d
00000060: d316 433d dfda 603e d3b9 0dbe eaa3 3bbe
00000070: 05c7 0ebc f2b2 02bd 0275 55be 1848 afbd
00000080: 966d 5a3e e746 da3d 98f0 043d f569 883e
00000090: 5f11 2fbe 39e3 11be d9c6 5a3e 12dd e6bc
000000a0: df8f 8d3e f5da 00be 10d1 87be 791f 53be
000000b0: 365e 793c ac5c 333e c413 443e 16f6 f83d
000000c0: 5a64 8f3e 8d7d ffbd 2b4f 1d3c 799e 6b3d
000000d0: 5a63 1bbe 2fa4 64bb 1a98 6bbd 0692 22be
000000e0: 1215 a43d 361c 3c3e ee83 88be 2b1e 573e
000000f0: acdb 203e 30fa 753d 2875 b8bc a2e4 ff3d
00000100: 37f6 7b3e 18c8 88be dc10 ed3c be69 0c3e
00000110: 78bd 83be da7a d8bd ea2f 0a3e 9907 2e3e
00000120: 5c1e cabd ef8e 693e 2b77 833e 3cf6 973d
00000130: b960 0a3e cb43 67be 644d ebbb 2065 09be
00000140: e2d4 303e 2042 073e 3ec2 db3d a5cf 7bbe
00000150: 18cd 1f3e 90f4 bcbd db0a 753e 278a cdbc
00000160: 455f 1e3e 4e61 2abe 9d43 d53d be5e 87bd
00000170: 4c00 583e fa4f 693e e383 2f3e 74b6 643e
00000180: a231 1dbd 446a 07be 4e12 f3bd a71c 593e
00000190: 60f3 283e 59a0 683e 90db 8bbd 8e35 f8bc
000001a0: d98c 823e 2d11 4e3e 18a3 2f3e 4b6e 0abe
000001b0: e7c3 183e 2eb0 353e 447d 583e 1f3c b9bd
000001c0: a716 ccbd d808 6dbe d360 053d 5d98 083b
000001d0: 24d4 04bd d26a 233d 426f 11bd 8e71 4dbe
000001e0: 72f2 57be 0478 863e 832a 623c 14e8 f93d
000001f0: 10a2 c0bd 5b49 03bd 851c 2f3e d493 803e
00000200: 2e01 5ebe 2300 48be c8ea 753e 0a70 3c3e
00000210: 7e91 87be 7e4e 463d 9c7e 003e 0a99 6e3d
00000220: 2082 563e e2f6 44be 1870 e63d 3faf bebc
00000230: e933 da3d c2fa 393e c09f 563e 6e14 babd
00000240: c345 ab3d 0ec3 c43d 7a3a 1abd a3d8 0e3e
00000250: 5b14 843e 02a1 f93d
0.26755175 -0.037117764 -0.042786527 -0.12715808 0.09813095 -0.029007286 0.14274357 -0.266502
0.2089406 0.21572302 -0.030503124 0.14255549 0.14088738 0.050025783 0.1467718 -0.21966405
0.22537479 -0.22470406 0.118710384 0.19248068 -0.2480681 0.2393265 0.028231973 0.06544299
0.04762919 0.21958493 -0.13840418 -0.18324247 -0.008714442 -0.031908937 -0.20845416 -0.08558673
0.21330866 0.10658055 0.03245601 0.2664334 -0.1709647 -0.14246835 0.21364917 -0.028181586
0.27648827 -0.12583525 -0.2652669 -0.20617475 0.015220216 0.1751582 0.19148165 0.12156312
0.2800625 -0.12475119 0.009601395 0.05752418 -0.15174618 -0.00348879 -0.057518102 -0.15876016
0.08011831 0.18370137 -0.26663154 0.21007602 0.15708798 0.06005305 -0.022516802 0.1249478
0.24605642 -0.2671516 0.028938703 0.13712212 -0.2573049 -0.10570307 0.1349484 0.16995086
-0.09869072 0.22808431 0.25676855 0.07420012 0.1351346 -0.22584455 -0.0071808565 -0.13417482
0.17268708 0.13208818 0.10730408 -0.24590929 0.15605581 -0.09226334 0.23929922 -0.02509029
0.1546603 -0.16638681 0.10413287 -0.066098675 0.21093863 0.22784415 0.17140155 0.22335225
-0.03837741 -0.13224131 -0.11868726 0.21202336 0.1649909 0.22717418 -0.068289876 -0.030298974
0.25498083 0.2012374 0.17152059 -0.13518636 0.14918481 0.17742988 0.21141535 -0.0904467
-0.09965258 -0.23147905 0.032563042 0.0020842769 -0.032428876 0.039896794 -0.035506494 -0.20062849
-0.2108858 0.2626344 0.013804081 0.122024685 -0.09405911 -0.03205238 0.17100723 0.25112784
-0.21680138 -0.19531302 0.24015343 0.18402115 -0.2647819 0.0484147 0.12548298 0.05825142
0.20948076 -0.19234803 0.11251849 -0.023276923 0.10654432 0.18162063 0.20959377 -0.09085928
0.08362915 0.09607516 -0.037653424 0.13949828 0.2579678 0.12188913

value_network.2.weight f4 [100, 150]
00000000: d549 003d 20f5 803d 94e4 8d3d 23d6 563a
00000010: 2c9c 7b3b c2b3 373d 05b0 b4bc d78a 21bd
00000020: 7475 16bd cdf1 9fbd af2e 423d 3c61 693d
00000030: 341e 963d 5b31 d5bc 2bd8 6d3c debb 773d
00000040: 4d55 7bbd 1529 873d 7214 28bd b6d7 a6bd
00000050: a356 8c3d 47a2 1cbd 0182 a0bc 5c33 263d
00000060: 7c89 69bd a5c3 1fbd 2d0b 26bd 8840 36bd
00000070: bfd1 643b efeb 68bd 57ad c3bc 2d04 8fbc
00000080: 9e6e e53b 4c93 923a 4c63 98bd 3020 39bd
00000090: 0731 5ebc cd59 2e3b d5ef 8d3d b936 18bd
000000a0: ec3e 80bd 0057 553c 9e3b a23c d7e4 1b3d
000000b0: 56c7 233d 9a06 a1bc 185d 4abd 484a 9b3c
000000c0: 7072 41bb 511c ebbc 0d62 7d3d 3395 86bc
000000d0: 2141 3a3d 16db fdbc d92f b53a e606 b13d
000000e0: 9416 93bd 2cbf d7bb 57e3 afbb 30a6 96bb
000000f0: e3f1 9bbb 2b08 35bc 8a78 46bd 77bd 643d
00000100: fd82 58bd 8a0b 3cbb 1f7e 7f3d 47b6 a1bc
00000110: db9d 643d 9a78 3d3d 1f2d 0abd f7fd 51bd
00000120: 1440 253d 4d7f 173d 21e5 743d f4ab fa3b
00000130: f911 47bc c9a3 dc3c 4448 52bd d2ba a1ba
00000140: 7f11 8bbd d588 62bd 5435 c13d 9c27 81bd
00000150: 238a 1e3d 6180 a03d 27c6 8d3d cf1e 613d
00000160: 5edf 19bd a6fd 6d3c 2528 32bd 81ff 96bc
00000170: 0452 743d a263 5dbd af22 163d 67c4 a5bd
00000180: 0f0f 68bc 95f8 863d a879 133d 8e52 4fbd
00000190: 2989 8bbc 986e 233d 3444 75bd 70b4 683c
000001a0: d398 7a3d 364c 7d3c 4d07 333c 3fa6 183b
000001b0: 3fbb 98bd 3531 863d 41d0 2dbc 9424 4d3d
000001c0: 63ea 063d 300b cb3c afb4 883c aac8 e73c
000001d0: 94f4 0c3d d3b7 bf3c a538 96bd 7424 59bd
000001e0: 7e7a 22bd ce62 4a3d e56a 283c fe2c 3fbd
000001f0: 7c33 71bd 24de 53bd 82ba 08bc 9e7f 3f3d
00000200: f2b9 28bc 88cb 643d d63d 273d 01e7 6f3d
00000210: 30d3 e03c f218 edbb d806 593d 43f5 91bc
00000220: c532 a5bc 2a5a 9c3d 5d7c 1ebc 13f6 063d
00000230: 3804 993d 4d38 3b3d 75cc 90bc 55aa 04bd
00000240: af0a 823d e9a6 ad3d 376e 68bd f56a 2ebd
00000250: a081 b13c e44d 6bbd 37cb 623d ba50 90bd
00000260: 8880 bbba 8fa7 0a3c 4c56 403d 43bb 093d
00000270: ac98 98bd bf8f 483d b7ca 3abd dcff 093d
00000280: 5341 ff3c 8639 a63d 0bcb 5abd e903 593d
00000290: ccaa d3bb 1a48 033d 1654 2fbd fbe5 14bb
000002a0: 6438 f43c 5b2a d4bc ccf7 28bd cace 62bd
000002b0: da73 6fbd 75c3 8c3d 6be6 6b3c c4ed 0fbd
000002c0: 3f62 e3bc db12 063d 5705 3fbd f71a 59bc
000002d0: 1616 78bc 306a 1b3d 92b4 8f3d 5c40 35bd
000002e0: 2251 bb3c e0ca 91bd 260f ad3c 26cb b7bc
000002f0: baa0 a6bd 0931 1d3c 3c7c 6d3d 867b 54bd
00000300: 160a 703d ba9d 35bc 40ab 9fbd 861e 153d
00000310: 2736 72bd 9c8d 3dbd 6495 97bc 1bd4 3f3c
00000320: c842 593d 4f2c 94bc 8c85 043d dced f93c
00000330: 8146 6bbc b6c5 f63c 0668 eb3c d534 803d
00000340: 608f cf3c 8356 99bd fb47 71bd 38ce 55bc
00000350: 1043 9a3c ec52 a53d c7b1 3c3c 48b1 86bd
00000360: c001 8f3b 32c3 31bd b6ed 46bd 3fab c6b9
00000370: a1e9 a63d 7953 2b3d 2073 8fbd ca69 2ebb
00000380: db14 14bd 13b3 953d c906 803d 7322 f1bc
00000390: f034 c6bc 4596 f9bc b8e4 7fbd c48f 253d
000003a0: 9131 aa39 0a77 ae3c a955 a3bd 9cae 86bb
000003b0: 5dfd c9bc ea1f d0bb cbf0 69bd b8b3 4b3d
000003c0: c368 8abd fe04 173d 82d7 67bd 3809 82ba
000003d0: f35c a4bc a03c 16bc 9482 843c 3235 203c
000003e0: 8091 98bd 8d01 4c3d 0a1d 553c 9409 903d
000003f0: 8326 70bd 22e9 3f3c 3432 78bd 7a6c 0b3d
0.03132041 0.06296754 0.069283634 0.0008195361 0.0038392646 0.044849165 -0.022056589 -0.03943905
-0.036733106 -0.07809792 0.047407802 0.056977496 0.073299795 -0.026024511 0.0145168705 0.0604819
-0.061360646 0.06599633 -0.041035123 -0.08146612 0.06852462 -0.038240697 -0.01959324 0.040576324
-0.05701588 -0.03900494 -0.040538 -0.044495136 0.0034915057 -0.05686563 -0.023886366 -0.017458046
0.007001712 0.0011182814 -0.074408144 -0.045196712 -0.013561494 0.0026603818 0.0693051 -0.037161563
-0.062620014 0.013021231 0.019803818 0.038060036 0.039985023 -0.019656468 -0.049405187 0.018956318
-0.0029517673 -0.028700026 0.061861087 -0.016428566 0.045472268 -0.030988257 0.0013823464 0.08643894
-0.07182041 -0.0065840688 -0.005367677 -0.004597448 -0.0047590598 -0.011049311 -0.0484548 0.05584475
-0.052859295 -0.0028693401 0.062376138 -0.019740237 0.055814605 0.046257593 -0.033734437 -0.05126759
0.040344313 0.036986638 0.059788827 0.007649893 -0.012150281 0.026933568 -0.05133845 -0.0012339002
-0.067904465 -0.055306274 0.09434 -0.06306383 0.038705956 0.07836986 0.0692256 0.054961022
-0.037566535 0.0145258065 -0.043495316 -0.01843238 0.05964853 -0.054050095 0.03665417 -0.080941014
-0.0141637465 0.06590382 0.036004692 -0.05061584 -0.017033176 0.039900392 -0.059879497 0.014203176
0.0611809 0.015460065 0.010927034 0.002329245 -0.07457589 0.06552354 -0.010608734 0.05008371
0.032938372 0.024785608 0.01668772 0.028293926 0.034412935 0.023403084 -0.07335023 -0.05301328
-0.0396676 0.049410634 0.010279392 -0.046673767 -0.05888699 -0.05172552 -0.008345248 0.046752565
-0.010298239 0.055858165 0.040830456 0.058569912 0.027444452 -0.0072356397 0.052985042 -0.017817145
-0.02016581 0.07634385 -0.009673205 0.03294952 0.07471508 0.04570799 -0.017675618 -0.032389004
0.06349694 0.08479101 -0.056745734 -0.04258247 0.021668255 -0.05744733 0.055369582 -0.07046647
-0.0014305273 0.008462801 0.0469573 0.033625852 -0.07450995 0.048965212 -0.04560348 0.033691272
0.031159079 0.081164405 -0.053416293 0.052982245 -0.0064595696 0.032051183 -0.0428048 -0.0022720087
0.029812045 -0.025899103 -0.041251943 -0.05537299 -0.058460094 0.06873218 0.014398198 -0.03513886
-0.027756808 0.032732826 -0.04663595 -0.013251058 -0.015141984 0.037943065 0.07016863 -0.04425083
0.022865836 -0.071187735 0.021125387 -0.022435736 -0.08136125 0.00959421 0.057979807 -0.051875614
0.05860337 -0.011084968 -0.07796335 0.036406063 -0.059133675 -0.046277627 -0.018503852 0.011708285
0.053042203 -0.018087534 0.032353923 0.030508928 -0.014360071 0.030123573 0.028736126 0.06260077
0.025336921 -0.07487204 -0.058906537 -0.013049655 0.018830806 0.08072457 0.011516995 -0.065767825
0.0043642223 -0.043399043 -0.048566543 -0.0003789309 0.0815003 0.041827653 -0.0700438 -0.0026613348
-0.0361527 0.07309546 0.06251294 -0.029435372 -0.024195164 -0.030467162 -0.062473983 0.04042031
0.00032461857 0.021296997 -0.07975323 -0.0041101705 -0.024656946 -0.0063514607 -0.057114404 0.04973194
-0.06758263 0.036869995 -0.05660201 -0.000992096 -0.020063853 -0.009169728 0.016175546 0.009778308
-0.07449627 0.049806166 0.013007412 0.07033077 -0.058630478 0.011713298 -0.060594752 0.034039

value_network.2.bias f4 [100]
00000000: efdd ac3d 106c 77bd 9f59 0f3d 48a1 8d3d
00000010: b0ae 93bd 87f8 dc3d 28ba 8ebc 484a bc3c
00000020: 807e 84bc 970b 84bd 827a 41bd b3c7 6fbd
00000030: 52f5 4a3d a3e8 15bd 7650 ce3c 473a 72bd
00000040: f745 9d3d 01fc 3e3d 116a 3fbd 1286 cc3d
00000050: fe71 65bd a28f bbbc c62e 83bd 19e3 cebc
00000060: 247b 7fbd 8380 f73c 67fd eb3c 208d 0e3d
00000070: 07c5 a73d 2b90 be3a 9042 f4bc 4e64 c43c
00000080: bbc2 57bc 04a1 283c 0e50 5c3d 9307 693d
00000090: fdbb a0bd 8437 7b3d ea5e 0ebb 80d9 79bc
000000a0: 7bb4 3c3d 70d1 84bb 6cbf 313d 76f6 e33c
000000b0: f9f8 483b 8b77 6bbc badb 15bc ac76 afbd
000000c0: 221d d6bb d599 d9bc e69a fd3c eaa6 a33d
000000d0: dc97 6e3c c894 88bd fa6a c33b 34c4 923b
000000e0: f32a eabc a738 7db9 1fcc 9f3d 83fe 813c
000000f0: 0e98 83bd ed11 24bd 7b49 64bd 6635 553d
00000100: 0b0c 8e3d 0695 a4bd f3bd ea3c 6e2e a4bc
00000110: b71f b83d 8d1c 553c 7b6e 7e3d a7eb 863d
00000120: 7f43 f43d dda6 5abd 0d5a adbc a5cd 293d
00000130: 5649 3ebd db7a b93d 8f81 223c a7bd 223d
00000140: 07a6 07bd 8179 8cbb 6cb1 43bd a66a 0f3d
00000150: 96b0 c33c 9593 7dbd dbee 183d 70a0 b03b
00000160: 33a9 97bd 59cd 2c3d 8cba aebc 4ec6 4e3d
00000170: 7e54 34bd f732 c83d 081f 7bbc b4b6 b9bc
00000180: 7f0a 933d d547 4abc c165 5d3d b000 60bd
0.08440768 -0.06040579 0.03499758 0.069155276 -0.07211053 0.1078959 -0.01742275 0.022984639
-0.016173601 -0.06447523 -0.047235973 -0.058540057 0.049550362 -0.036598813 0.025184851 -0.05913761
0.0767936 0.04662705 -0.046732012 0.099865094 -0.056016915 -0.022895638 -0.06405406 -0.025254773
-0.062373295 0.030212646 0.028807355 0.034802556 0.08191877 0.0014538815 -0.029816896 0.02397361
-0.013168986 0.010292295 0.053787284 0.05689199 -0.07848356 0.06133224 -0.0021724054 -0.01524961
0.046070557 -0.004053287 0.043395445 0.027827483 0.0030665977 -0.014371763 -0.009146625 -0.08567557
-0.0065342346 -0.02656261 0.03095765 0.07990821 0.014562573 -0.06669003 0.0059636803 0.0044789556
-0.028584933 -0.00024149065 0.07802605 0.015868431 -0.064254865 -0.040056158 -0.05573414 0.052052878
0.06935891 -0.080362365 0.028655028 -0.02004167 0.08990424 0.013007295 0.06211708 0.06587916
0.11926936 -0.05338179 -0.021161104 0.041455884 -0.046456657 0.09056636 0.0099185845 0.039731648
-0.03311732 -0.0042869453 -0.047776625 0.035013817 0.023887914 -0.061908323 0.037337165 0.0053902194
-0.07405319 0.042188022 -0.021329187 0.050482087 -0.04402589 0.09775346 -0.015327223 -0.022670127
0.07179736 -0.012346228 0.05405212 -0.054688156

value_network.4.weight f4 [100, 100]
00000000: 91d8 5d3d 2379 c0bd 713e 9dbb d912 9c3d
00000010: 371c 6fbd 419b 96bd d7d4 7ebd fc9e 9d3d
00000020: 99e2 953d 7107 bfbc 27f8 b13d df59 d63c
00000030: 4c02 c5bd 34c6 263c f1ef e53c 029a 92bd
00000040: b50f 8ebb b80b 77bd 240f 8d3d 47ab 473d
00000050: f353 89bd ee9c c2bb eca7 f6bc a1fd d13c
00000060: ba84 953d 6927 383d d387 0bbd 3391 893d
00000070: 41ff 973d db42 ba3c 33a7 813c a043 9dbb
00000080: 871f fb3c bcfa 913d a50d 833d 35cd a4bc
00000090: 7953 153e 09cd 2ebb 3d9b 963d 5a46 97bd
000000a0: 0a97 3dbd 73d1 97bd 4b7c eabb 0339 113d
000000b0: b043 ef3c 07fb 96bd 40d8 84bd 1c57 7f3d
000000c0: 5a26 38bd cd9b 9a3d 62d3 0d3b 7358 7cbd
000000d0: ce8b a83c ab92 d63d 2b81 443c 9862 3a3d
000000e0: 7e6a bbbd aef0 9c3d 7d52 fa3c 2d4e dabc
000000f0: 9a8a da3d a5d5 da3b 94f9 1ebd e112 b8bd
00000100: 35ac b8bd d40a a83d 3c16 6ebb 280d f5bd
00000110: da91 eebd da4d 30bd f867 d43c d4de c83d
00000120: bd90 003e 6570 5ebd 980e cfbd 61bf dfbc
00000130: 8527 e03d b8eb f13b c862 623c f878 acbd
00000140: c698 5c3d d4f6 dd3d 3a16 c4bd f721 9dbd
00000150: 5e88 a2bd c45a 153e a3e2 6d3d d05a 763d
00000160: b33e 59bd db34 dfbd e0ea 8bbd 2cfd 7dbc
00000170: 0fbd 83bd f5d5 46bd 157b 9d3c 94e8 3d3d
00000180: 9e5c 25bc 6ca3 c03d 5790 5a3d 5e97 1c3e
00000190: b2e2 91bc cd83 683d 3a42 1d3b 2811 3abc
000001a0: 5c24 b53d 4f98 8a3d 4ccf 90bd 4177 94bb
000001b0: c8c7 b7bc 30c1 4b3c 2702 d8bc 3ccf 8bbd
000001c0: 2cb4 95bc 3d6d c3bd 2dec 24bd 1e5e 14bd
000001d0: 922f b83d 7dcc bbbd d141 d0bd a53e 063e
000001e0: bce0 4fbd 98bd 173d 0775 a2bd 5756 53bc
000001f0: 25e5 f0bc f226 d13b b8d2 c03d fd98 74bd
00000200: becd 90bc 8040 fbbc 7d54 b63c afcc 263d
00000210: 9290 b9bd 71cc 3d3d f96b 70bc 33f1 cd3c
00000220: 3b4d 9bbd f4cd b7bd 8b49 8abc d5e3 a3bd
00000230: 21ef bb3c 8731 d03d 4f2f b8bd 44c9 4bbb
00000240: e40f 2bbd 5f57 973d 8f52 e73d 766e 6dbd
00000250: 845e ce3d fa49 cbbd 965e ea3d 4ede c83d
00000260: f340 2ebd 4ada 573c f57a a6bc 67c2 c13c
00000270: 6386 98ba c2e9 23bd dad3 883c b3a7 5abd
00000280: 9fc7 17bc 9a8e 22bd 6165 66bd 2271 d5bc
00000290: 6146 b7bd e23f 53bd c130 263d ecc9 2a3d
000002a0: 354e 82bc 62ef a73d 6825 ed3c 6f5d d5bc
000002b0: 6a64 cb3c d6a1 41bd 8338 68bd bb24 7a3d
000002c0: cda8 0abc 026c 6ebd c697 dc3d 0f5e 203d
000002d0: 6183 033d 708b c23d 0876 763c be51 bfbd
000002e0: 73f4 a93d e7d5 bebd 7573 af3b d008 9ebd
000002f0: e7ff 8f3b 7c79 e2bc ca14 c13b f9f8 0c3e
00000300: 1e94 40bc 8e2b 593d 6541 1fbc bfd5 2ebc
00000310: 7560 6e3d 7aa9 db3c bb3b 463c ebc1 26be
00000320: 60ca 813b a394 303d bad3 13bd 60b7 5e3c
00000330: 1dee bb3c d9e9 f9bc e3fe b23d 3b97 8e3d
00000340: 82a6 8ebd c596 c6bd 09a7 55bb 566c 26bb
00000350: 81e2 34bd 2f48 28bd f3fc 98bd 630f 943d
00000360: dacf a5bc 24cf 023d 2989 a5bd 5228 ffbc
00000370: 559c 863d f98a 90bd a0a1 05bd b112 e83c
00000380: 478a fdbb 9942 55bd 800b afbd c4bd c3bb
00000390: c869 053d a979 85bc b661 343c 513d 8c3d
000003a0: ad03 543d 5bb1 b73d a042 f1bc 781a 93bd
000003b0: b48d 76bc 31bb a73d f56e 8ebd b87c b43d
000003c0: 8077 4e3d 1386 2d3d d6b6 88bc 1f23 98bd
000003d0: dd5e 8fbd 3656 8cbd 87ad 873d c287 94bc
000003e0: 770e 363d cd24 b5bd 177b b7bd 8ca4 ba3d
000003f0: 4066 a4bd 0e5d 7f3d 13b0 9dbd e100 f63c
0.054161612 -0.09398105 -0.0047987034 0.076207824 -0.058376517 -0.07353831 -0.0622147 0.076963395
0.07318611 -0.023318978 0.086899094 0.0261659 -0.09619579 0.010179091 0.028068515 -0.07158281
-0.0043353685 -0.06031391 0.068876535 0.048747327 -0.06705465 -0.0059391176 -0.030109368 0.025633635
0.07300706 0.04495946 -0.03406508 0.06717148 0.07421733 0.022736957 0.015826797 -0.0047993213
0.030654682 0.07127902 0.06399087 -0.020117382 0.14582624 -0.0026672503 0.07353828 -0.07386465
-0.04628662 -0.07412996 -0.00715593 0.03545476 0.02920708 -0.073720984 -0.06486559 0.062338933
-0.04495845 0.07549248 0.0021640887 -0.06160779 0.020574477 0.104771934 0.011993687 0.045504183
-0.09151171 0.076630935 0.030556912 -0.026648605 0.106709674 0.0066783004 -0.038812235 -0.08987976
-0.09017221 0.0820519 -0.003632917 -0.119654 -0.11648913 -0.043042995 0.025928482 0.09808126
0.12555213 -0.054306407 -0.101102054 -0.027312936 0.10945038 0.007382836 0.013817497 -0.084215105
0.053856634 0.10838094 -0.09574552 -0.07672494 -0.07936166 0.14585406 0.058077466 0.0601452
-0.05303831 -0.10898753 -0.06831908 -0.015502255 -0.064325444 -0.04854389 0.01922373 0.046364382
-0.010092882 0.0940617 0.05336031 0.15292117 -0.017808292 0.05676632 0.0023995773 -0.011356629
0.088448256 0.06767332 -0.07070789 -0.0045308177 -0.02243413 0.012436196 -0.026368214 -0.06826636
-0.01827439 -0.0954232 -0.040264297 -0.03622257 0.08993448 -0.091698624 -0.101688035 0.13109834
-0.050751433 0.037046045 -0.079324774 -0.012899003 -0.02940614 0.0063828165 0.094151914 -0.059716213
-0.01767623 -0.030670404 0.022257084 0.040722545 -0.09060778 0.04633755 -0.01467418 0.025139427
-0.0758309 -0.08974829 -0.016880771 -0.0800244 0.022941174 0.101656966 -0.089933984 -0.0031095305
-0.0417632 0.073897116 0.11295044 -0.057966672 0.10076621 -0.09926219 0.11443822 0.09808026
-0.04254241 0.013174603 -0.020322302 0.023652269 -0.001163673 -0.04001785 0.016702581 -0.053382587
-0.009263902 -0.039686777 -0.056249026 -0.026054922 -0.089489706 -0.051574595 0.04057384 0.041696474
-0.015906433 0.081999555 0.0289485 -0.02604553 0.024828155 -0.04727348 -0.05669452 0.061070185
-0.008463097 -0.058208473 0.10771136 0.0391522 0.032107715 0.09499252 0.015042789 -0.09341763
0.08298578 -0.093181424 0.0053543397 -0.077165246 0.0043945196 -0.027645819 0.005892371 0.1376685
-0.011754064 0.053020053 -0.009720181 -0.010671078 0.058197457 0.026814211 0.012099202 -0.16284911
0.0039608926 0.0431105 -0.03609059 0.013593525 0.02294069 -0.030507015 0.08740022 0.06962439
-0.069653526 -0.09696726 -0.0032600781 -0.0025394163 -0.044161323 -0.041084465 -0.07470121 0.07229497
-0.020240713 0.031935826 -0.08082802 -0.031147156 0.06572787 -0.07057757 -0.03262484 0.028329225
-0.007737431 -0.052065466 -0.08547115 -0.0059735496 0.032571584 -0.016293364 0.011009624 0.06847633
0.051761318 0.08969375 -0.029450715 -0.07182783 -0.015048433 0.08190001 -0.06954757 0.08812851
0.050406933 0.04236419 -0.016688745 -0.07428574 -0.070005156 -0.06852381 0.066248946 -0.01813114
0.04444739 -0.0884491 -0.089590244 0.09113416 -0.08027315 0.062344603 -0.07699599 0.030029716

value_network.4.bias f4 [100]
00000000: 2372 63bd a0b9 373e 6837 473d 3d3f 66bd
00000010: 72a4 f43d cfee f7ba 778a 2f3d 4984 90bd
00000020: 10cb 19bd 5b64 083b 50ec 313d 9049 fb3b
00000030: fea3 e4bc 515a 2fbd 9e52 95bc 4f06 8c3d
00000040: 41f0 bc3c 3c69 48bd 9922 a7bd 368d a6bd
00000050: cdde be3c 2713 bfbd c9bd e1bc 363d b23d
00000060: bc3f 56bd 4b32 53bd af80 d33b 8ff5 4f3d
00000070: fd90 d93b 86a0 1dbd 13c0 a8bd eedc 763c
00000080: 554b 2a3c d67d 223d d585 d83d 39be 7bbd
00000090: ec69 8cbd 505d 64bd 69f0 843d b703 bcbd
000000a0: 5209 74bc 040c afbc 70a2 2f3d f742 92bc
000000b0: b8c5 b83c 1bc7 8e3d 3635 b6bd c69b 67bc
000000c0: 3c98 a33d 2234 a3bd 0ece 203d 92f7 37bd
000000d0: 0c0d a7bd 68a1 173c 6222 34bd 2753 973d
000000e0: 788a b43d 741d b03d 986b 73bb 4243 57bd
000000f0: 875c b0bd 8c1c ee3d 9441 113e 83ed 743d
00000100: 5b82 4a3d 7044 693d f9a0 f43a 94bb 9d3c
00000110: 6ef4 5dbd b547 81bd 7e03 be3d 66e6 503d
00000120: e1cb 5dbd 19e1 8b3d 40ab f63c 768a 91bd
00000130: 8e4c dcbb 98b4 c6ba ddf2 a8bd a1b0 8c3d
00000140: 0fc6 163d 3883 9b3d a735 50bd 4eee a3bc
00000150: 4611 1abd f13e e2b9 8ced 2a3d 87c2 593d
00000160: 551d 2b3d 9dde a5bc 21b3 babd 19c4 603d
00000170: 4fd2 483d dcf5 c8bd 1565 29bb 0e2a 3fbd
00000180: 8668 8e3d e1e7 6fbc ec42 383b 9a84 9c3d
-0.05552877 0.17941904 0.048636824 -0.056212652 0.11945428 -0.0018915775 0.04285666 -0.070564814
-0.03754717 0.002081177 0.043438256 0.0076686814 -0.027910229 -0.04281074 -0.018227872 0.06837141
0.02306378 -0.048928484 -0.08160896 -0.081324026 0.023299599 -0.09329825 -0.027556317 0.08703081
-0.052306876 -0.051561635 0.0064545493 0.050771292 0.0066395984 -0.038483165 -0.0823976 0.015067322
0.010393937 0.039670788 0.105724014 -0.061460707 -0.068561405 -0.055753052 0.06491167 -0.09180396
-0.0148948 -0.021368034 0.04287952 -0.017854197 0.022555217 0.0697157 -0.08896868 -0.01413626
0.07988021 -0.07968928 0.03925901 -0.044913836 -0.08156785 0.009254791 -0.043978103 0.07388907
0.08815473 0.08599368 -0.0037142988 -0.052554376 -0.08611398 0.11626539 0.14185172 0.05979682
0.049440723 0.056950033 0.0018663696 0.019254483 -0.054188184 -0.06312505 0.0927801 0.051000975
-0.054149512 0.06830043 0.030110955 -0.071064875 -0.006722993 -0.0015160022 -0.082494475 0.06869627
0.036809977 0.07593387 -0.050832417 -0.020011093 -0.03761413 -0.00043152974 0.04173045 0.05316403
0.04177602 -0.020247752 -0.091161974 0.054874513 0.04902869 -0.09812519 -0.0025847603 -0.046670966
0.0695353 -0.014642687 0.002811606 0.07642479

value_network.6.weight f4 [1, 100]
00000000: 708b b0be 44d1 a03e c2b9 78bd 222b b83c
00000010: 99fc 4b3d 26fa 04bd 25fe d13d b43f 84be
00000020: d071 4b3e cafc cb3d 78a9 d03d 9223 db3d
00000030: 783a 2fbd 871f bc3d bbf4 dfbd 1264 143e
00000040: 96cb 513d e33d adbc ef75 8cbd 50d2 15bd
00000050: beb0 f7bd b1fb 4ebd 1295 913d f2c4 df3d
00000060: b650 9c3b 666c 953d 5910 333e 93d6 833d
00000070: 20cf cebd ae3d f83c ba2e 273d c9cd 8cbd
00000080: 6224 c8bd c42e 3e3e b460 b23d 0391 b4bd
00000090: 5e8d 953d fd56 a53d d260 1f3e 7383 04bd
000000a0: 7f3e b53d e9bf 433c 97b2 6ebd de64 063d
000000b0: 5f1b 60bd 700f 713d f281 e4bc 66c6 75bd
000000c0: a884 7e3c 31e0 c53c 4a06 d93d e8e1 91be
000000d0: 3a99 0dbd 0c4b 153e 5b64 cbbd a927 bf3d
000000e0: 1d04 86bc c6cf f03d 106b ee3d 1c4a 393d
000000f0: 5e55 9e3c 3179 d53d 7838 893e 7c0c 16be
00000100: 6277 053e fa5a a5bc 7d81 5cbd 107e 9cbd
00000110: efa1 b63d 950f c0bd 7b00 233e f647 58bd
00000120: e848 aa3c 7310 92bb 2f54 b4bd 2984 bf3d
00000130: 4bff 8a3d cd86 84bd 40bd bdbd dbc4 e33d
00000140: 0eed e63c 32a8 863e 381c 5f3d 2151 90b9
00000150: c51c 553d 1a6d c7bd 557d b8be 1673 fb3d
00000160: a15b 9abd 9057 66bd 4fdd 2dbd 6ce9 ea3d
00000170: 48e4 62bd cdf8 573c ffd6 03bd 3728 40bd
00000180: 3482 963d 59dd 9ebd 5c10 e43d 9d9a 883e
-0.34481382 0.31409657 -0.060724027 0.022481505 0.049801443 -0.032465123 0.10253552 -0.25829852
0.19867635 0.09960325 0.101885736 0.10700144 -0.04278037 0.09185701 -0.109353505 0.14491299
0.051219545 -0.021147674 -0.068584315 -0.036577523 -0.12094258 -0.050533 0.07108511 0.10926236
0.0047703637 0.07296066 0.17486705 0.06437411 -0.100981 0.030302849 0.040816046 -0.06875188
-0.097725645 0.18572527 0.08709851 -0.08816721 0.07302354 0.08073232 0.15564278 -0.032351922
0.08849811 0.01194761 -0.058275785 0.03281104 -0.054713603 0.058852613 -0.027893994 -0.06000366
0.015534557 0.024154754 0.10596903 -0.28492665 -0.034569956 0.1457941 -0.09931251 0.093337364
-0.016359383 0.1175838 0.11641514 0.04523669 0.019327816 0.10423506 0.26800895 -0.146532
0.13033822 -0.020184983 -0.053834427 -0.07641232 0.08917605 -0.09377972 0.15918152 -0.052803002
0.020786718 -0.0044575273 -0.08805119 0.093513794 0.067869745 -0.06471024 -0.09264612 0.111215316
0.028189208 0.26300198 0.05447027 -0.00027526266 0.05202939 -0.09737606 -0.3603312 0.1227781
-0.07537008 -0.05623585 -0.042447384 0.11470303 -0.055393487 0.013181877 -0.032187458 -0.046913352
0.07349053 -0.077570625 0.11135933 0.2668046
