models/CADRL/output/rl_model.pth (torch, 112335 bytes, 7 tensors)

value_network.0.weight f4 [150, 13]
00000000: 6052 853e 8d33 853e 808c 8a3c 3028 5e3e
00000010: d30e 7ebe 6cf7 3d3e 2702 33be 4cbc f63d
00000020: aaa5 133e 017f d1bd 4b79 40be 1848 433e
00000030: add4 cd3d 908f 063e 8bd6 4c3e 9cd1 ba3d
00000040: b2b2 5ebd 383c 73bd 9f30 8dbc be61 90be
00000050: 4e0d d93d 1e09 87be a961 abbd cfa2 653e
00000060: 1795 843e 1ffc 38be ea32 1c3e 51d1 183e
00000070: 1771 e1bc 3eb8 543e 43d3 973d ff6f 94bc
00000080: 9fc7 6ebe db0d 033e 3511 493e fe7e 42be
00000090: a872 523e 8d58 903e 208e cabd 3294 2b3e
000000a0: 9cfd 6e3e aa86 05be b0b8 893c b5d6 09be
000000b0: 2841 c1bd b822 93bc cf7a 93be 04ed 493e
000000c0: c4de f13d d315 5a3d ee34 8abd b49a 78be
000000d0: 96c1 4fbe 9577 42be 1612 643e 910c 563d
000000e0: db07 0d3e 6988 dfbd 61e3 f13d 4a86 55be
000000f0: 9ace 8dbe e40f 1c3e fc13 7dbe 6f4a 313e
00000100: 4210 7bbe 06c5 52be e77f f93d 2720 073e
00000110: 995c 6e3e 1e4e 8abe dec0 e13c 34c6 75be
00000120: e93a 053e 2087 45be 2b24 eabd cc80 69be
00000130: 4793 febc ecfb eebb 44c2 1ebe 353d b83d
00000140: cd77 c0bb f029 523e a59e 023e e2cc de3d
00000150: 1ee6 253e 2cf7 053e dfbd 693e 04e9 25be
00000160: c54b 2dbe 293f 7e3e e958 e83c 53c6 6abe
00000170: b9ed ccbd 9fc3 75be 71cd 353e d790 793e
00000180: dfe1 5dbe aa38 523e c1e7 723e 1104 213e
00000190: 9ab5 13bd c64d 80be e1fa d0bd 3246 37be
000001a0: 54d3 6f3e 5a42 da3d d939 babd 4e0d 7bbe
000001b0: 0cd1 713e 0360 2f3e 8c8b 89be 26fc b3bc
000001c0: efc0 1abd e0fd 303e fa02 1e3e 3db5 903c
000001d0: cb08 1bbe 2e87 863d ba4d 57be 1f92 eebd
000001e0: e4da be3d 6b32 e7bd 0b02 b1bd 8480 25be
000001f0: 46e4 243e e101 f7bc e02c 253e 54b3 443e
00000200: bd62 033d 740d e63d 8bd1 aebc 0ae1 72be
00000210: 5b66 783e 17c3 703e 304a 5d3e 9a72 fb3c
00000220: b538 c7bd 457b 7e3e 01dc 363e e513 0f3d
00000230: 6c65 0f3e 4af8 e03d e822 213e 1200 8abe
00000240: b470 243d 8496 40be b502 82bd 383a 1ebe
00000250: 7d07 eb3c 7638 5d3e 3640 07be c4d3 6abe
00000260: 26a1 f1bd ed09 1b3e 1b24 d3bd 3aa9 67be
00000270: 5742 28be 8b59 733e 37b6 733e a93b 1bbe
00000280: 9a5f 68bd 11f0 163e 843a 13bd 90d4 203e
00000290: a99f dd3c 0f34 efbc 75c2 66be b33c 753e
000002a0: 7838 6a3e 27c0 103e 6a25 7e3e a057 303e
000002b0: 372e 843e 85dc 09be 3de4 d73d ab6f 833e
000002c0: 7951 22be 55bf 56bd 46e8 0a3e bfde 213e
000002d0: 44e6 223d ead1 6a3e 2120 47be af78 fabd
000002e0: 325b 523d d6fd 2c3e 8e31 063d 44b2 143e
000002f0: 399d 27be 06e4 b0bb ce78 763e ff8b 613c
00000300: 121d 7fbe cfad 363d 02a6 89be d6a2 50be
00000310: 81bd 2d3e 7f0d 7dbd 8bee 673e 2274 48bc
00000320: 58ab b33d b873 063e 3028 2abe c57d d8bd
00000330: 91a4 bd3d e929 75be 4eb6 9ebc dd14 233e
00000340: 5932 9abc 2cc6 6e3e e040 78be 4782 d3bd
00000350: f168 3ebe d81d 573e e301 323e 3c9c bebc
00000360: 7a9d 18be 3db8 2f3e 156e 933d 0681 42be
00000370: 24e5 b73d b480 28be 4156 8a3e 791f 0f3c
00000380: 1e42 1f3e 4d79 ca3d 1333 12be 5789 89be
00000390: 6fb0 4d3e 7c82 ed3d d76e 27be cc63 41bc
000003a0: c828 163e 6270 00be 926d 3cbe 7668 12be
000003b0: 59bd 933d 2463 16bd e117 273d 875b 403e
000003c0: 7676 763e 3ab8 38bd 7146 3e3e e3cc bebc
000003d0: 9685 323e 1d88 7cbe dc3e cb3d 5fe6 64be
000003e0: fa8d 493e 6b45 2abd 0485 32be dfee 3ebe
000003f0: cc6c 7abd d0f0 143e 6452 633e d8e8 813e
0.2603941 0.26015893 0.016912699 0.21695018 -0.24810342 0.18551415 -0.1748129 0.120476335
0.14418665 -0.10229302 -0.1879627 0.1907047 0.1005033 0.13140702 0.20003717 0.09122011
-0.054369636 -0.0593836 -0.017235098 -0.2819957 0.10598241 -0.26374143 -0.083682366 0.22425388
0.25894997 -0.18064927 0.15253797 0.14923598 -0.027519746 0.20773408 0.07413342 -0.01811981
-0.23318337 0.12798254 0.1963547 -0.18993756 0.2055155 0.2819256 -0.098903894 0.16755751
0.23338932 -0.13039652 0.016811699 -0.1346081 -0.09436256 -0.017960891 -0.28804633 0.1971932
0.11810067 0.05324347 -0.06748377 -0.24277765 -0.20288691 -0.1899093 0.22272524 0.052258078
0.13772528 -0.1091469 0.11810947 -0.20852008 -0.27696687 0.15240437 -0.24714655 0.1731355
-0.2451792 -0.20582971 0.121825986 0.13195859 0.2327751 -0.27012724 0.027557787 -0.2400139
0.13010754 -0.19289827 -0.1143268 -0.22803038 -0.031076087 -0.007293215 -0.15503794 0.08996049
-0.0058736564 0.2052381 0.1275583 0.10878922 0.16201064 0.1308257 0.22826336 -0.1620217
-0.16923435 0.24828781 0.028362708 -0.22927217 -0.100062795 -0.24000405 0.17754151 0.24371658
-0.21668194 0.20529428 0.2372122 0.15724207 -0.03606186 -0.25059336 -0.10204101 -0.17897871
0.23420459 0.10657187 -0.09093065 -0.24516794 0.23614901 0.1712647 -0.26864278 -0.02197082
-0.037781652 0.17284346 0.15430823 0.017664546 -0.15140073 0.06568752 -0.21025744 -0.11648964
0.09319094 -0.11288913 -0.08642968 -0.16162306 0.16102704 -0.030152263 0.161304 0.19209033
0.032076586 0.11233035 -0.021340152 -0.23718658 0.24257796 0.23511921 0.21610332 0.030694295
-0.09727613 0.24851711 0.17857362 0.034931082 0.14003533 0.109848574 0.15735972 -0.2695318
0.040146545 -0.18807417 -0.063481726 -0.15451896 0.028690094 0.2160357 -0.13208088 -0.22932345
-0.11798315 0.15140505 -0.10309621 -0.22623149 -0.16431557 0.23764627 0.23799978 -0.15159477
-0.056731798 0.14740016 -0.035944477 0.15706086 0.027053671 -0.029199628 -0.22535117 0.23948936
0.22873104 0.141358 0.2481896 0.17220926 0.2581651 -0.13463028 0.1054158 0.25671133
-0.15851392 -0.052428562 0.13565168 0.15807627 0.03977038 0.22931638 -0.1944585 -0.1223005
0.051356502 0.16893706 0.032762103 0.14521128 -0.1636857 -0.0053982763 0.24069521 0.013766288
-0.24913433 0.04459935 -0.26884466 -0.20374617 0.16966821 -0.06178045 0.2264959 -0.0122347195
0.087729156 0.1313008 -0.16616893 -0.10570864 0.09259904 -0.23941769 -0.019374039 0.15925927
-0.018822836 0.23317784 -0.24243498 -0.10327583 -0.1859472 0.21007478 0.17383532 -0.023267858
-0.14903823 0.17160125 0.07198731 -0.18994531 0.08979252 -0.16455346 0.27018932 0.008735531
0.15552565 0.098864175 -0.14277296 -0.26862594 0.20086835 0.115971535 -0.16350876 -0.011803579
0.14663994 -0.1254287 -0.18401173 -0.14297661 0.072138496 -0.03671564 0.040794257 0.18784915
0.24068627 -0.045097567 0.18581559 -0.023291057 0.17433771 -0.24661298 0.09924099 -0.22353505
0.19683066 -0.04157011 -0.17433554 -0.1864581 -0.061138913 0.14544988 0.22199398 0.25372958

value_network.0.bias f4 [150]
00000000: 691d 01be 197b 503e 834d 00be cb6c 70bc
00000010: 52dc c2bc 8d9f 61be e627 223e a210 0cbe
00000020: c19a 30be 12e7 18be caa0 063e 83ca 50be
00000030: 2331 e63d e6cd dcbd df4a 77be 7736 b73c
00000040: 9b48 3ebd 2001 00bd e4c6 53be 1cfe febc
00000050: f7b9 863e 8d18 3fbd 3703 26be 6fc4 72be
00000060: b156 893e b02d f1bd 3a47 493e 45fe 433e
00000070: 93ba 69bd 929f 8ebc ad64 4dbe 6951 ae3b
00000080: e37e 8bbe c987 4d3e 1a8d 35bd 672d 333c
00000090: ce0f 833e 98ea 513e 7c1b 58be 9217 31bd
000000a0: bc82 38be 7abb e73d 584e 93bd 05e1 debc
000000b0: 7b06 c13d ddf0 06bd 1b43 283e fa05 65be
000000c0: b6a4 8b3e 890b c2bc 3c83 63bd 9cb0 86bc
000000d0: 44c6 8ebd c543 633d f9a7 76be 1b79 c8bd
000000e0: cc91 abbd d89c fcbd 4a72 93bd 6cde 32be
000000f0: 3b30 ea3d e9a9 81be 3424 653e b720 81be
00000100: e9d7 bd3d 99d3 1e3e abb4 613e 3e57 85bd
00000110: 34a2 02be bc52 79bd 2d95 583d a278 373e
00000120: 0217 8abe 9c90 803e 7b09 3fbd 7c91 a13c
00000130: 373a 00be 475d 02be be79 0f3d b658 833d
00000140: b2bf 0bbe 9e78 3dbd 456a 6dbd 3b01 31bd
00000150: 8809 973d cb54 69be ea92 73be 36b8 e83c
00000160: 3d3b 49be 4907 023e 738b 993d ee65 3ebe
00000170: 5c34 9a3d 3463 db3d 6ca1 493e 3058 803e
00000180: 5700 463e 8027 bcbd 24ca 49be 6d0a 27be
00000190: f4d5 2fbe e980 4ebe 1a13 0b3e bbe2 433e
000001a0: 8a79 843e 297a 553e 4c33 b33c 658b c63b
000001b0: 0863 503c 55d5 6abe 1b58 433e 2422 bf3d
000001c0: 8c2f b2bd 92ed b73d 01a0 763e a0ec eabd
000001d0: d6e8 4dbe 63d8 efbd e27e 533e 8158 54bd
000001e0: 9b73 183e 3ff2 673e c446 70be 4efe 66bb
000001f0: d354 57be 87af b73c 2c2b d9bd 3920 2cbd
00000200: 0292 61be 8888 623c 17cc 363e 385d 853e
00000210: 5d3c 3e3e 8e1c f53d 0fd2 3e3e 7f37 c3bd
00000220: 1e9d 1e3e 4663 313e d988 673c c830 e7bd
00000230: 94c0 62be 560f 53be 0018 35be 63ac 013e
00000240: a5f5 1e3d 99c5 033e 2e92 853d f3a3 8c3c
00000250: d16d 43be 0c57 223d
-0.12608875 0.20359458 -0.12529568 -0.014674376 -0.023786698 -0.2203352 0.15835533 -0.1367822
-0.17246534 -0.14931896 0.13147274 -0.20389752 0.11239841 -0.107814595 -0.24149655 0.022364838
-0.04645596 -0.031251073 -0.2068134 -0.031127028 0.26313755 -0.046654273 -0.16212164 -0.23707746
0.26823953 -0.11776292 0.19656077 0.19139965 -0.057062697 -0.017410073 -0.20057936 0.0053197634
-0.27245244 0.20071329 -0.044324018 0.010936118 0.25597996 0.20499647 -0.21104234 -0.04323537
-0.18018621 0.11315055 -0.07192677 -0.027206907 0.09425064 -0.03294455 0.16431849 -0.22365561
0.27274102 -0.023687141 -0.055545077 -0.016441636 -0.0697141 0.055484552 -0.24087514 -0.09788724
-0.08377418 -0.12334603 -0.07199533 -0.1746766 0.114349805 -0.25324944 0.22377092 -0.25220272
0.09269697 0.15510406 0.22041576 -0.06510781 -0.12757188 -0.060869917 0.05287664 0.17917112
-0.2697068 0.25110328 -0.0466399 0.019722693 -0.12522207 -0.12730895 0.03502821 0.06413405
-0.13647345 -0.046257608 -0.057962675 -0.043214064 0.07374865 -0.22786252 -0.23786512 0.028408151
-0.19651504 0.12698092 0.07497301 -0.1859357 0.07529518 0.10712281 0.19690484 0.25067282
0.19336067 -0.091872215 -0.19706017 -0.16312571 -0.1717146 -0.20166363 0.13581505 0.1912946
0.25873977 0.20847382 0.021875046 0.0060590976 0.012718923 -0.22932942 0.19076578 0.09332684
-0.08700475 0.0898086 0.24084474 -0.11470914 -0.20108351 -0.11711194 0.2065387 -0.051842216
0.1488785 0.22651003 -0.23464495 -0.0035246792 -0.21028452 0.022422565 -0.106039375 -0.042022917
-0.22028354 0.013826497 0.17851292 0.26047683 0.18577714 0.11968337 0.18634818 -0.095320694
0.15489623 0.17323026 0.014131748 -0.11288601 -0.22143775 -0.20611319 -0.17684937 0.12663417
0.038808484 0.12868346 0.06522022 0.01716802 -0.1908486 0.039633796

value_network.2.weight f4 [100, 150]
00000000: 2f40 a6bd f7ec 8abd 36ba 9cbd bbd2 f93c
00000010: 5750 8abd b08a 89bd 43f8 3c3d d21d 303d
00000020: 9804 a6bd 57b2 5cbc 8b69 973c cbe6 a93c
00000030: e6aa 7f3d 2fef 88bd 0d83 a53d a75a b53c
00000040: 182c 0a3d 0c7a 70bb 2665 9dbd bf03 6b3d
00000050: 22cf b93b 5896 5c3d 8449 9d3d bab0 2fbd
00000060: 7010 2f3c e0ea a23d ba1a 69bd 0f9b 72bc
00000070: a1ad 05bd f329 bf3c baf9 a0bb 724e c7bc
00000080: 0130 cd3c 50f0 463d 31ab b63c 240e 95bd
00000090: 42cd 24bd fef0 5b3d 6ce1 b9ba db2c ac3b
000000a0: 5db4 313d 4e1c 293d b326 543d 8d30 4bbd
000000b0: 2f15 403c 9599 2cbd 1493 883d 8351 9fbd
000000c0: 5938 92bc ab0b 2e3d 7782 92bc 82d4 873c
000000d0: 0aec 943d 1fc7 7b3d b067 2a3d ce88 6bbb
000000e0: eef1 9a3d c7ef b3bc ae93 993d e6fa eabb
000000f0: bebb 1fbc df50 9a3d 14dd bbbc adfb 36bc
00000100: c1e8 9d3d 61cc a13d 429c 8abd 0f11 193d
00000110: 584a f53c 4a2b 71bd 1e33 453d 36ce cebc
00000120: 5795 3bbd f190 f1bc 69d6 0cbd db53 5e3b
00000130: 8f73 64bd a055 cd3c 4395 a63d 46f5 2b3d
00000140: bbff 67bd 9442 2a3d 8092 9b3d 8ebe a2bc
00000150: d47b 07bd 9374 2cbd e5ce 5a3d b599 363d
00000160: 0f63 39bd 8016 5fbd 9577 e53c a970 9f3d
00000170: c987 3bbd 91b4 12bd 9760 16bd e42e c4bc
00000180: 305b edbc 1195 2fbd a647 89bb f5fb 993d
00000190: d8b0 473d 47d8 6a39 51ed 78bc daed 88bc
000001a0: d975 a23c f423 a73c 1973 79bd f487 523d
000001b0: 096e f9bb b6b9 54bd 0450 80bd 8f23 423d
000001c0: 4259 063d 22ba 4dbd 281b 7fbc b815 843c
000001d0: e9c4 74bd 0862 6bbd 9651 00bd d684 f9bc
000001e0: 97ab 32bd 4ada 503d c070 9ebd 0ccd a13d
000001f0: e059 6f3d a5d5 533d 775b d73c b7f8 0dbc
00000200: 471b 26bd 7a0a e0bc 9600 713d eb11 333d
00000210: f761 5bbd 772a 833d afd0 043d 8265 cf3c
00000220: e4eb 2abc fcd7 cc39 a3af 3ebd c903 1f3c
00000230: 240b 3cbd 9a1d 88bd 2494 46bd 0868 87bd
00000240: 5e1b 6c3d 5721 5b3d 2f14 453c c334 8abd
00000250: 1d80 f53c 1d54 0fbd 0903 193c 15a2 a43d
00000260: 026d 4e3d cf00 74bd 7250 76ba 6f03 85bd
00000270: d27a b43d 46ba a0bd 2bb1 b63d af76 963c
00000280: 288d 943d e1e3 8dbc 37a2 393d 09b6 c8bc
00000290: 332e 71bb 45e6 66bd 02b2 9e3c 1872 ae3c
000002a0: a438 dc3c 7123 63bd dc0f 383d 28c3 9a3c
000002b0: 8df5 883d ee78 8cbd 2aba 8fbd 178e 193d
000002c0: fde7 003d a266 09bc 3c12 9d3d 2376 68bd
000002d0: 952a 49bd b067 8a3d b43e 773b ca9b 8b3d
000002e0: fd13 41bc 34c5 5f3c a24f 5dbd f33d 823d
000002f0: 6158 443d 1a9c 42bc 369d a13c d01c 6a3b
00000300: 299d 253d 58fd 363d d820 ec3a d120 653d
00000310: 7189 a23d 60d3 183d 4026 f3bb 9cd4 4cbd
00000320: 588d 64bd dc4f 023d 67e9 ef3a 137c 7a3d
00000330: 02f0 2dbd 1a24 7bbd bdda d8b9 5f0c c0bd
00000340: ecb0 403c 6f1c 373d d168 5dbd 8a87 743c
00000350: 6f0e 1f3c 41e4 77bd 151f d33c ce88 ddbc
00000360: b60f 00bd e663 7ebd a45c ad3d 23bd 46bc
00000370: f8ca 5abd 39dc 0d3d f3cf a5bd 7d10 773d
00000380: 3258 323d 8058 823d 466a ac3d b859 ed3a
00000390: b41d 6a3a d1f3 9a3d 1b74 a63d dbb5 e9bc
000003a0: 70d8 8fbb 4e45 943c bfd3 8ebc 279f 2fbc
000003b0: bdc3 903d 30cc 1a3d 62ad ad3b abe2 01bd
000003c0: b04e 803d e3f4 8bbd 4528 c83d 1f7b 903d
000003d0: 219c aa3d 1173 f6bc 9acb 80bd 5149 83bd
000003e0: 4715 70bd cb8b 983d ee0a a6bd d496 80bd
000003f0: b6c9 5b3d 5ba4 26bb 5b43 8fbc b0e7 793b
-0.08117711 -0.06783479 -0.076527044 0.030495992 -0.06753605 -0.06715906 0.0461352 0.04299719
-0.08106345 -0.013470254 0.018482944 0.020739933 0.06241884 -0.06686246 0.080816366 0.022137953
0.033733457 -0.003669384 -0.07685308 0.05737662 0.005670444 0.053854316 0.076800376 -0.04289315
0.010685071 0.07954955 -0.056910254 -0.014807477 -0.03263629 0.023335433 -0.004912582 -0.024329398
0.025047304 0.048569024 0.022298427 -0.07278088 -0.04023481 0.053696625 -0.0014181561 0.0052543706
0.0433849 0.04128676 0.05179472 -0.04960685 0.011723801 -0.042138655 0.06668678 -0.07779219
-0.017849134 0.042491596 -0.017884476 0.016580824 0.072715834 0.061469194 0.04160279 -0.0035939696
0.07565676 -0.02196492 0.07498871 -0.0071710227 -0.009749351 0.07534956 -0.022932567 -0.011168403
0.0771041 0.0790031 -0.06768085 0.037369784 0.029942676 -0.058879174 0.048144452 -0.025244813
-0.04579672 -0.029488059 -0.034384165 0.0033924493 -0.055774268 0.025065243 0.08133938 0.041981958
-0.056640368 0.0415674 0.07596302 -0.019866254 -0.033077076 -0.04210336 0.053419966 0.04458018
-0.045260485 -0.054464817 0.028011123 0.0778516 -0.04578379 -0.035816733 -0.03671321 -0.02394814
-0.028974146 -0.04286677 -0.0041894494 0.0751876 0.048752636 0.00022396549 -0.015193299 -0.016714979
0.019831585 0.020402886 -0.06090078 0.051399186 -0.007611994 -0.05193492 -0.06265262 0.047397193
0.032799967 -0.05022634 -0.015570439 0.016123638 -0.0597581 -0.057466537 -0.031327806 -0.030458849
-0.043620672 0.050989427 -0.07736349 0.07900438 0.05843532 0.05171742 0.026288731 -0.008665255
-0.040553357 -0.027348746 0.05883845 0.04371826 -0.053560223 0.06404584 0.03242558 0.025316957
-0.010432217 0.00039070833 -0.04655422 0.009705492 -0.045909062 -0.06646271 -0.04848112 -0.06611639
0.057643287 0.053498592 0.012028738 -0.06748345 0.029968316 -0.034992326 0.009339103 0.08038727
0.050396927 -0.059571084 -0.00093961426 -0.064947955 0.088124886 -0.07848029 0.08920511 0.01836714
0.07253486 -0.017320575 0.045320716 -0.024500864 -0.0036801219 -0.056371946 0.01937199 0.021294639
0.026882477 -0.05545372 0.044937 0.018891886 0.0668746 -0.06859003 -0.0701793 0.037489023
0.03147124 -0.008386286 0.076694936 -0.05675329 -0.049112875 0.06758058 0.0037726583 0.06816824
-0.011784551 0.013657857 -0.054031022 0.06359472 0.047935847 -0.011878038 0.019728284 0.003572274
0.040433083 0.0446752 0.0018015159 0.0559395 0.07936371 0.037310958 -0.0074203312 -0.050007448
-0.05579886 0.03181444 0.0018303812 0.061153483 -0.042465217 -0.061313726 -0.00041361703 -0.093773596
0.011760931 0.04470485 -0.05405504 0.014924893 0.009708031 -0.060520414 0.025771657 -0.027042773
-0.031264983 -0.06210699 0.084649354 -0.012130055 -0.053416222 0.03463385 -0.08096304 0.06031846
0.04354114 0.06364536 0.084187075 0.0018108403 0.0008930818 0.075660355 0.08127614 -0.028529098
-0.004389815 0.018099453 -0.017434953 -0.010719097 0.07068584 0.037792385 0.00530021 -0.031710308
0.062650084 -0.06833818 0.09773306 0.070547335 0.083305605 -0.030084165 -0.06288834 -0.06410468
-0.05861404 0.074485384 -0.081075534 -0.06278768 0.053659163 -0.0025427553 -0.017488172 0.0038132481

value_network.2.bias f4 [100]
00000000: b7fd 89bd 38ff 2e3c 42cc 2fbd ee13 213d
00000010: 50b5 7c3d 4655 ad3d 6e79 993d 954e 223d
00000020: ca2e 6f3c 95e2 5ebd cd61 0cbb d5f3 403d
00000030: 9555 253d 593f 96bc f3b0 29bc 8ab4 5d3d
00000040: 7dee 32b9 26e5 82bd 9db6 1abd 16e3 663d
00000050: 746e 883d ac87 8abd 293a 7c3d 4e37 68bc
00000060: 6b17 9b3d 4421 4fbc cb58 133d 90aa 423d
00000070: 89d3 6cbb 3adb 1ebd ab37 ba3c ff5f ccbb
00000080: 1474 bd39 21e8 90bd 5fc8 5e3c 4e97 9fbd
00000090: 67c9 4fba 487b f03b 1b33 0d3c af23 2fbd
000000a0: 11a3 bf3c ba65 dcbc 011a 8e3d 9186 45bd
000000b0: 5f3d 31bd 4427 813c 858a 7c3d 05ee 9a3b
000000c0: 0763 4abd f186 78bd 65af bc3c 95ad 3bbd
000000d0: 0ecf efbc 2b52 943d 78ff c8bd 4712 34bd
000000e0: c970 1d3d 597c 3a3d f3a8 7cbd 6077 7c3c
000000f0: ee83 06bc 2470 7f3d 4b17 19bc e725 ae3b
00000100: 9906 7b3d 5305 3c3d 773a 5c3c faf8 01bc
00000110: 5c20 833c 8511 853b feda 3dbd 5d6a 3e3d
00000120: cbda 0e3d 1048 04bd 79ea 7dbc 0582 8dbd
00000130: c826 75b9 5944 8f3d c340 f03b 6a4f 36bb
00000140: 5e7d b23c bd82 bdbd 3a04 ff3c 60d2 7d3a
00000150: a90f 94bd f0f6 e43c cc5e ab3d 2f7f abbd
00000160: fec0 e83c 26db c43c 4914 7bbd e21a debb
00000170: 59e7 913d fcd2 133d 54f3 443d e6ed 9d3c
00000180: 7910 513d fc0e d33b 43e5 973c 9ead 5b3c
-0.067378454 0.010680966 -0.042919405 0.039325647 0.06169635 0.0846353 0.07493864 0.039625723
0.014598558 -0.054415304 -0.0021420598 0.047107536 0.04036482 -0.018340753 -0.010357129 0.054127254
-0.00017064247 -0.06391363 -0.03777181 0.05636891 0.06661692 -0.067641586 0.061578903 -0.014173342
0.07572826 -0.0126422085 0.03597335 0.047525942 -0.0036136827 -0.03878329 0.022731623 -0.0062370296
0.00036135374 -0.07075525 0.013597577 -0.07792531 -0.00079264346 0.007338915 0.0086181415 -0.04275864
0.023393186 -0.026903976 0.069385536 -0.048224036 -0.04327142 0.015765794 0.06165554 0.004728081
-0.049410846 -0.060675565 0.023032853 -0.045819838 -0.029273536 0.07242235 -0.09814352 -0.043962743
0.03843764 0.045528743 -0.06168456 0.015409321 -0.008210165 0.062362805 -0.009343932 0.005314577
0.06128559 0.045903515 0.0134416735 -0.007932896 0.016006641 0.0040609264 -0.046351425 0.046488155
0.034876626 -0.032295287 -0.015497797 -0.06909565 -0.00023379468 0.06995458 0.007331939 -0.002781833
0.021788295 -0.09253452 0.031129945 0.00096825324 -0.072295494 0.02794978 0.083676904 -0.08373868
0.028412338 0.02403028 -0.061298642 -0.006778107 0.07124204 0.036089882 0.04808362 0.019278478
0.0510411 0.0064409953 0.018541938 0.013408093

value_network.4.weight f4 [100, 100]
00000000: d0c4 913d c32b 9bbd c2eb ae3c 0b74 36bd
00000010: 09e1 4d3d 1970 6fbd d3c5 bf3c 0819 32bd
00000020: b8f5 173d 04f0 4ebd ae5c 393c 4045 86bc
00000030: fa16 7c3d 689f bb3d c6fb 37bd 635a 813d
00000040: ec2d 2bbd 64ff 19bd bcef 093d fd1f d53d
00000050: 4bd4 adbc 4b2b 9d3c 8dfc 783c 0846 023b
00000060: e367 afbd 883d 983d b4be a33d 7778 8cbd
00000070: a1ab ee3c 04a9 bcbc 41c4 92bd cb40 5dbd
00000080: b191 e93c 91d8 c43c bdc1 3dbd f210 c3bd
00000090: 257c 813d fa5b b2bd c4bd b23d 5ff2 91bd
000000a0: 37a1 d2bd 83ff 04bd d548 2a3d ed07 1dbd
000000b0: 60ef 703d 7f2a 9d3d 340b fcbc 56d5 9fbd
000000c0: 944a d33c 5e78 6fbd 15b9 b1bd 8815 89bd
000000d0: ae7e 97bd e1bc 80bd c742 0cbd 0075 1cbd
000000e0: d7d2 c73d 6cb9 59bc cf43 e83c 5349 873d
000000f0: fec5 963d d61f 863c fb34 8abd b858 853d
00000100: 75d4 9a3c 9a14 bdbc 0d35 b9bd 8b78 de3b
00000110: f1cb a93d 493b 8e3c 7aab 8dbd ff61 d13c
00000120: a7e4 93bd 9f47 4e3d 38a0 e0bb aac5 923d
00000130: 6469 e4bc f23d bebd e197 1f3d 9198 3c3d
00000140: 051b 8abd 9b3a 04bb 7e16 b03d 9658 a4bc
00000150: ff8f 98bd e976 b7b8 bb08 41bc 7934 283d
00000160: 2240 253d 50ea fbbc a2e3 bb3d fe9a ac3d
00000170: 272e a13d a6f4 95bb af81 7d3c 3fbc 08bd
00000180: 2709 a4bd c388 c5bd b3a5 cdbd b345 513c
00000190: ca0f 583d 8ece 313c 15bb 9fbd ca8c 06bc
000001a0: 87d0 8abd cfca 0b3d ed3d babd a56b 2cbd
000001b0: 21ab bc3c bfd7 c7bd f6bc 9abd 3ac0 8cbc
000001c0: ec70 8ebd 8d28 72bd f95a 7bbc bd7a 2b3d
000001d0: 3371 a23d 2cea 1bbd 19fb 53bd cd77 a6bd
000001e0: 949d 933d b182 e93c 43a9 d8bc 0146 a53c
000001f0: 8892 aa3d 3a4b 04bd c4bd ce3d a63d a7bd
00000200: 3453 01ba e3c4 8abd 3127 a4bb 6f90 51bc
00000210: 66df 6d3d 9a54 d23b cd8c dfba 914d 8bbd
00000220: 1b37 babd 7bf7 bd3c 3dc9 b63d c46a 573c
00000230: d90b 623d e6ef 09bc a415 903d 379c 3abd
00000240: 4068 01bc 3e8a 823c e95d d1bd cb33 343c
00000250: cb6e b33d d2c4 adbd 4cca 8ebd 8f7f 8a3d
00000260: af26 953c 3db2 ae3b 0c27 f039 4797 c6bd
00000270: 68ed a5bc c574 1dbd 2396 bcbd f3a8 1f3c
00000280: cc65 493c 6c0b cfbd e5f0 a1bc 7ce6 5f3d
00000290: a7d4 2f3d 3516 a3bd dd4d 223c f608 f5bc
000002a0: 2038 90bd cd96 b0bc d013 723d 6763 c5bb
000002b0: c07d 27bc af46 863d 3785 533a c40b 5b3d
000002c0: 294e 703d e1cb 8c3d a1f1 863d c190 babd
000002d0: 2551 32bd 871b c3bd e15e 1d3b 4762 b53d
000002e0: dd4a ab3d d6e2 963d 3fad 34bd 7a6b 1ebd
000002f0: a7ae 88bd 4d71 0f3c e39b 523d c336 45bb
00000300: ac59 c1bd 855a 95bc ee50 2e3d 89ab 8a3d
00000310: 2817 22bd 5b7f 513c 0582 a8bd a949 84bd
00000320: fdcf 71bd b3ab 4a3d 2ce5 823d 83c6 693d
00000330: 769b b63d 9766 473d dade 65bc d00d 19bd
00000340: 7f47 ab3d 135e 9a3d eef0 493b 234d 5bbd
00000350: 4fee d0bc 03ab 9fbd e3dd 44bb 51f1 c939
00000360: b060 81bd 5027 e4bb ee59 a4bd a595 3cbd
00000370: 842d 593d dfc3 833d 2d67 b63d 7325 d5bc
00000380: 132d 88bb 7832 f6bc 2369 853d 7a98 81bd
00000390: fd73 4e3d c46c cfbc 7836 293d 30f9 5c3d
000003a0: 4e0b ab3d f302 f4bc b26c 8abd d056 bdbc
000003b0: c457 203d 87f0 18bd 0bc1 adbc dc9e ccba
000003c0: 1575 563d d507 b23d afb2 093d 11fd e23d
000003d0: 8707 b73c 042f 503d 49fc 9bbd 592e 59bd
000003e0: de22 82bd 9194 ca3d 3674 54bd 18c8 e73b
000003f0: 9bed 3fbd 765e b9bc cb6a bf3c 4fa0 91bd
0.07117617 -0.07576706 0.021352652 -0.04454426 0.05026344 -0.058456514 0.02340976 -0.043480903
0.03709957 -0.050521865 0.0113136 -0.016390443 0.06154535 0.09161264 -0.044917844 0.06316068
-0.04179184 -0.037597075 0.033675894 0.10406492 -0.021219393 0.019185683 0.015196932 0.0019878168
-0.08564737 0.07433611 0.07995358 -0.06858914 0.029134573 -0.023029812 -0.07166339 -0.05401687
0.028511854 0.024029048 -0.04632734 -0.095247164 0.06322507 -0.087089494 0.08727601 -0.07126307
-0.102846555 -0.032470237 0.041573364 -0.038337637 0.058822036 0.07674121 -0.03076706 -0.078043625
0.025792398 -0.0584644 -0.0867788 -0.0669356 -0.07397209 -0.06286026 -0.03424337 -0.038197517
0.097570114 -0.013288837 0.028352646 0.06605782 0.07361983 0.016372602 -0.067483865 0.065110624
0.018900136 -0.023081113 -0.09043322 0.006789272 0.08290852 0.017362254 -0.06917472 0.025559423
-0.07221346 0.050361272 -0.006855037 0.07166608 -0.027882285 -0.09289159 0.038963202 0.046043936
-0.06743435 -0.0020176533 0.0859804 -0.020061772 -0.0744934 -8.748269e-05 -0.011781867 0.041065667
0.040344365 -0.030751377 0.09174277 0.08428 0.07870131 -0.0045762835 0.0154728135 -0.03338265
-0.08009558 -0.09645226 -0.1004137 0.012772965 0.052749433 0.010852469 -0.07799355 -0.008212278
-0.06778055 0.03412896 -0.09093843 -0.042094845 0.02303082 -0.09757947 -0.07555573 -0.017181505
-0.06955132 -0.059120703 -0.015341514 0.0418651 0.07931747 -0.03806512 -0.051753137 -0.08128319
0.0720779 0.028504701 -0.026447898 0.020174982 0.0832873 -0.032298304 0.10094789 -0.081660554
-0.00049333577 -0.067758344 -0.005009555 -0.012790783 0.058074377 0.0064187767 -0.0017055512 -0.06801904
-0.09092542 0.023189297 0.08925102 0.0131480135 0.05518708 -0.008419013 0.070353776 -0.045559134
-0.00789839 0.01593506 -0.1022299 0.0109986765 0.087613665 -0.08484806 -0.06972179 0.06762611
0.018206922 0.0053313063 0.0004580546 -0.096968226 -0.020254806 -0.03844144 -0.09208324 0.0097448705
0.012292337 -0.101096004 -0.019768188 0.054663166 0.04292741 -0.0796322 0.009906259 -0.0299115
-0.07041955 -0.021556282 0.059100926 -0.0060238126 -0.010222852 0.065564506 0.0008068862 0.053478017
0.05866829 0.06874824 0.06589056 -0.09109641 -0.043534417 -0.09526735 0.002401285 0.088566355
0.083638884 0.07367484 -0.044110533 -0.038676716 -0.06673937 0.00875504 0.051418196 -0.0030092455
-0.09440932 -0.01823164 0.04255765 0.06770999 -0.039572865 0.012786712 -0.08227924 -0.06459362
-0.059036244 0.04948015 0.06391367 0.05707408 0.089163706 0.04868182 -0.014030183 -0.03736669
0.08363246 0.075374745 0.0030813771 -0.05354036 -0.02550426 -0.0779629 -0.0030039481 0.00038517502
-0.0631727 -0.006962694 -0.08024965 -0.04604115 0.053021923 0.06433844 0.08906398 -0.026018834
-0.004155764 -0.030053362 0.06514194 -0.06327911 0.050403584 -0.025320418 0.04131171 0.05394858
0.083517656 -0.029786563 -0.06759013 -0.023112684 0.0391462 -0.03733876 -0.021210214 -0.0015611309
0.052357752 0.086929 0.03361767 0.11083425 0.022342457 0.050826088 -0.07616479 -0.053022716
-0.06354307 0.09891618 -0.05186864 0.0070734136 -0.046857458 -0.02262805 0.023366353 -0.071106546

value_network.4.bias f4 [100]
00000000: 496a 973d 02b2 093e cb4c 203d cc85 843c
00000010: 46ee b5bd e53f 93bd 59e2 5f3d c500 e4bd
00000020: d21c 1f3d 5196 8bbd ed1f e0bd a7ff c13d
00000030: 549c 8ebd b2f6 293d 4ca2 c23d 920c 4a3c
00000040: 1473 ccbc 4d9f bdbc 07e8 9bbd eb2c e83d
00000050: efc3 d23d ad69 93bd e260 e8bd dc47 80bd
00000060: 27f2 c9bd 253d 93bc 234d 3e3d ba67 6c3d
00000070: 89f7 863d 3b73 aebc 83e1 ce3d c04a 03bd
00000080: 6e21 7f3d c17c 4d3d 43ca aa3c 2d94 e0bd
00000090: bcdb 743d 1cc8 b3bc 8a29 e6bc 266c df3d
000000a0: 8629 6d3b bc45 3bbd 0191 e9bd 087c b0bd
000000b0: 024a 53bd 86a7 773d 04a3 32bd 8207 0dbd
000000c0: 3d74 83bd a0f0 6cbd 209c 94bc 272b 2a3e
000000d0: 877a ab3c 5153 f6bc c9f0 dbbd 72a5 7f39
000000e0: 18db c5bd 18d3 cd3d 56f8 c43d 5653 3bbd
000000f0: ff71 843d 3776 b73d bbb9 143e d101 7bbd
00000100: dabf 54bd a841 103e ff1b a6bc f1ec 9cbc
00000110: ed3c 073d 1ec1 913d 3032 4dbd bee8 873d
00000120: 3246 71bc a36c 2c3d 734d c1bd db2d babd
00000130: d8a7 9dbc e923 aabc e813 b63d 4842 ab3d
00000140: 4b4a 5dbd d585 d5bd 4672 7bbc 2068 2b3e
00000150: a0c0 bbbc d939 6f3d fee2 99bc 63e2 983b
00000160: b0d1 84bc 7f9a afba c42f 70bd 0e48 a6bd
00000170: 4b11 643d 07dc 0dbd 848f b73d 27d0 313d
00000180: 694c 023d 38b9 cf3d ba69 a73d 5bb4 e3bc
0.07393319 0.13446811 0.039135735 0.01617708 -0.08883338 -0.07189921 0.05465922 -0.11132959
0.038845845 -0.0681578 -0.10943589 0.0947259 -0.06963411 0.041495033 0.09503612 0.012332099
-0.024957217 -0.02314725 -0.07612615 0.113366924 0.102912776 -0.071978904 -0.11346604 -0.06263706
-0.0986064 -0.017973492 0.046460282 0.05771611 0.06590182 -0.02129518 0.10101607 -0.03205371
0.06228774 0.050167803 0.020848399 -0.10965762 0.059779868 -0.021946006 -0.02809598 0.109092996
0.003618808 -0.0457208 -0.114046104 -0.08617407 -0.05158425 0.060462497 -0.043612495 -0.034430988
-0.06418655 -0.057846665 -0.018140852 0.16618024 0.020932449 -0.030069025 -0.107392855 0.00024380328
-0.096609294 0.100500286 0.09617679 -0.045733772 0.064670555 0.089580946 0.14523976 -0.06128103
-0.051940776 0.14087546 -0.020277021 -0.019155951 0.033017088 0.07116912 -0.05009669 0.06636189
-0.0147262085 0.04209579 -0.094386004 -0.090907775 -0.019245073 -0.020769076 0.088905156 0.083622515
-0.05402593 -0.10425917 -0.015347069 0.1673894 -0.022919 0.058404777 -0.018784996 0.0046656593
-0.016213268 -0.0013397484 -0.058639303 -0.08119212 0.055680554 -0.034633663 0.0896292 0.0434114
0.03181115 0.101427495 0.081744626 -0.027795961

value_network.6.weight f4 [1, 100]
00000000: ba1a 95bd 2c2c b73d 4081 363e 9d4e a8bd
00000010: 828b 263d d721 77bd 2d4a 61bd a135 50bd
00000020: 0ce9 b2be 20d9 92bd af2e 3ebe 46af 2dbe
00000030: 8c5e 433d 4804 e2bc fa22 013e b060 443d
00000040: bef8 ec3d a39f aa3d b072 493d acf2 2c3e
00000050: fa09 003e 9d4c 8a3d be0b c9bd cad4 10be
00000060: 50a8 233d a6d1 413c 9c52 05bd 1068 a63d
00000070: f883 38bd 0a24 5ebe 20da 5e3e 6b9a 00bd
00000080: 01fc b23b 29aa 0b3e a9c5 66bd c09b d23d
00000090: 6c92 86bd 0cf4 dcbd 844a e1bc 44a6 b63d
000000a0: b81b 5b3d f52d 1bbe a7db f9bc 3a8a 503d
000000b0: 856f a43d f55b 12be ec69 07be 6bfd 5bbd
000000c0: 00cd bebd 8339 b13c 1ee8 cf3c 96e0 5d3e
000000d0: 3836 8abd 7620 753d 25d3 02be 0984 d4bd
000000e0: 7162 fabd fc69 ca3d 605d 903d ebf3 76bd
000000f0: 1ba1 b53d b815 0d3e 29ec 453e 8357 f7bb
00000100: 23fe a7bd da75 133e 3be3 f2bc cfff abbd
00000110: 1503 c8bc 5743 883d 5451 02bd 47bc 083c
00000120: 7aee 1fbe 8da7 123c 89c5 dcbd 0218 b2bd
00000130: 1512 1dbe 92df 9dbd dd49 563e 78f1 7dbc
00000140: 7d60 9bbd 4ee6 afbd 3839 36bd 4826 5a3e
00000150: 201b 62bd 53bc a73d 73e4 2f3d deb9 a53d
00000160: 87e7 16be 6b53 bb3b aefc 3f3d c865 2bbd
00000170: e493 e33c 2b2e f43d 0b0a cc3d b588 76be
00000180: bc9d aebd 44c8 b63d 1aaa 0bbd b38e 7a3d
-0.07280488 0.08943972 0.17822742 -0.08218119 0.04066039 -0.060335007 -0.05500238 -0.050832395
-0.34943426 -0.071703196 -0.18572496 -0.16961393 0.04769759 -0.027589932 0.12610999 0.04794377
0.11570881 0.083312295 0.04918164 0.16889447 0.12503806 0.06752894 -0.09816693 -0.14143673
0.039955437 0.011829769 -0.032549486 0.08125317 -0.04504773 -0.21693435 0.21762896 -0.031397264
0.00546217 0.1363913 -0.056340847 0.10283613 -0.065708965 -0.10788736 -0.027501352 0.089184314
0.05349323 -0.1515425 -0.030500246 0.050913073 0.08029083 -0.14292891 -0.13224 -0.053708475
-0.093164444 0.021633869 0.025379237 0.21667704 -0.06748623 0.05984541 -0.12775858 -0.10376746
-0.122258075 0.09883496 0.0704906 -0.060291212 0.08868619 0.13777816 0.19328369 -0.007548274
-0.082027696 0.14400426 -0.029649368 -0.08398401 -0.024415532 0.06653469 -0.03181584 0.00834567
-0.15618315 0.00895108 -0.10779864 -0.086959854 -0.15338929 -0.07708658 0.20926614 -0.015499465
-0.07586763 -0.08588849 -0.04448816 0.21303666 -0.05520165 0.08190217 0.042942476 0.08092092
-0.14736758 0.0057167313 0.046871834 -0.041845113 0.02778048 0.11922868 0.09962853 -0.24075587
-0.08526179 0.089249164 -0.03409777 0.061171245
