models/LSTM_RL/output/il_model.pth (torch, 190913 bytes, 11 tensors)

mlp.0.weight f4 [150, 56]
00000000: 2b58 a0b9 9642 0c3e 7777 8c3d 534e a23d
00000010: 438f 413d ee64 1f3d d91e f63c 2024 8dbc
00000020: 4c92 37bd 41d2 4dbd e634 abbd 60bb 4dbc
00000030: 4010 fb3c e2fc b0bc 1e6d 0e3d 7d6b c33d
00000040: 5515 06be 5120 c0bc 691b 0cbe c336 f83c
00000050: ab50 ae3b a541 8fbd e835 bfba 9a80 0cbd
00000060: 4569 68bd cf8c 9ebc dffc a43d 3321 1cbc
00000070: 1b77 d43d 172e c33d 4542 a4bd 0460 8e3d
00000080: e6d6 33bc cc04 a23d 7773 f7bd 33bc a2bd
00000090: 140e 833d ec03 ca3c 09bb ce3d fabe b5bc
000000a0: 0a14 b83d a180 723d 6433 4fbd a2aa 9b3b
000000b0: c0e7 da3d 9ea5 8abb a6e4 92bd 972a f9bd
000000c0: 94e4 38bd c123 afbc 9379 20bd b56f cd3c
000000d0: bd9e 27bd 23f6 c1bd 4d86 c0bd 503e 89bd
000000e0: 25df 473d e9c4 d5bd 4586 3d3c f1c7 14bd
000000f0: 72b9 bdbd e60c 363e 8d32 203d 1961 943d
00000100: d6a8 083e fb8c 20bc 10e5 773d d07e 90bd
00000110: 31cb 12bd 45ca fdbd 64df bc3d b929 cd3d
00000120: ec82 813d 9c5a 0e3d b817 703c ff25 9e3d
00000130: ab1e 9fbd ce32 dcbc d44b 53bc 1fc2 f5bc
00000140: 4419 a1bd 2074 c13c c2e2 7ebd f44e 5d3d
00000150: 7c67 99bd dace cabd c0b7 5abc 7a93 aabd
00000160: 3ff3 e83c e7a2 8e3b ac66 98bc 2050 b2bd
00000170: ce2f 4b3b b131 853d 7529 ae3c 8b1e e33d
00000180: b9ac 04be 9286 da3d d3d6 c23d 9755 a2bd
00000190: 32b5 0d3a 5bf0 c5bd 8ca7 15ba d581 c4bd
000001a0: a254 ddbd 876c 843d b1a8 8f3d e61e 62bd
000001b0: 6c5e c4bd 445b a23d ed37 f3bd b4a9 8f3d
000001c0: a755 5f3d e7f9 673d bba1 033e 2db7 453d
000001d0: ab2c 9dbc feda 78bd 8722 67bc bc88 9fbd
000001e0: de3a 373d b14d 643c deaf 79bd 673a 433d
000001f0: cdff fa3d d57a b6bc 6fc0 f43d c034 26bd
00000200: 8f4c 1e3c c130 003e a172 043e f7ea c13d
00000210: 4c19 83bc f3de 443d 05ea a7bd 1745 053e
00000220: 5a79 de3c 41a2 3bbb 55d2 bfbd 9449 2bbd
00000230: fb70 0c3e b63b 6b3b d863 533d 6967 593d
00000240: 236d edbd 37b9 ed3c 12a6 683d 3312 803d
00000250: 9236 b03c 15ec e83d c2a4 723c 790e b03d
00000260: 550c 563d 9f40 bc3d 954e 56bd 9a51 07be
00000270: d6e7 c93d 2a7d 6a3d 1478 a13d baea 823d
00000280: 2403 9e3d ed1c c33d 41ef d63d fca1 873d
00000290: 35cb a93c 6a81 cc3d b86d 153d f509 75bb
000002a0: 7b1c 8fbd a115 973d 02f7 013e ca79 96bd
000002b0: dd58 a93d 3248 bc3c 24fb cc39 1729 c93d
000002c0: d6c7 d03b 96ef d9bb 1427 203d c9e7 59bd
000002d0: 0159 80bd 02a4 a7bb ceda 653d 4351 a93c
000002e0: 252a f63d 714c 94bd e0bb 5b3c fa3b 963d
000002f0: f05c e6bd 81b5 c73c 468a 923d 543c 99bd
00000300: 8d10 a93b 2be6 acbc cde6 0e3d c015 6abd
00000310: a04c 603d 3e19 c8bd 1423 803c 1c0a 313d
00000320: 6d42 683d d561 d8bd 363f c53d 0adf 1b3c
00000330: 464d f63d 744e b3bd dbf9 b53d f32b cdbc
00000340: b501 bc3d 128c cdbd f56a f0bc 4603 75bc
00000350: f7f4 fdbd 2d85 163d ab32 dd3d 9b53 c5bd
00000360: 1bf7 9abd e966 da3d 5f7f 54bd 4962 b0bc
00000370: 919c c5bd 4f71 b23d 1bc9 c63d d4cf 8cbd
00000380: feb6 ec3b a0e3 5dbc 428d dfbd 71ad 86bd
00000390: 2791 c6bd f087 003e ef99 06be d4fd b7bc
000003a0: 7390 863c 98f8 ffbd 51dd 8fbd a7ad ee3d
000003b0: 2599 0e3d e661 ccbd cbdd ffbd b6cd 96bd
000003c0: 02f3 fcbc a4cb 46bc af4c 953d 7f4e e73d
000003d0: f951 1d3d 7fc7 483d 0d45 6ebc 5460 abbb
000003e0: e2a3 bd3d 7a65 10bd d951 33bd 884c 99bd
000003f0: 8884 7cbc 1d5f 7cbd 27ab f03d a5eb bfbd
-0.00030583268 0.13697276 0.068587236 0.079250954 0.047255766 0.038914613 0.030044006 -0.01722914
-0.044817254 -0.050249342 -0.08359699 -0.012556881 0.030647397 -0.021604959 0.03477203 0.09541986
-0.13094075 -0.02345291 -0.13682331 0.03029955 0.005319675 -0.069949426 -0.0014588209 -0.03430233
-0.056741018 -0.019354252 0.08056044 -0.0095294 0.1037428 0.09530275 -0.080204524 0.06951907
-0.010976529 0.07911071 -0.1208257 -0.079460524 0.063991696 0.024660073 0.10094268 -0.022185791
0.08988197 0.0592047 -0.05058612 0.0047505656 0.10688734 -0.004231169 -0.071725175 -0.121663265
-0.045139864 -0.021379353 -0.039178442 0.02507768 -0.04092287 -0.09470775 -0.09400616 -0.06701338
0.04879679 -0.10437948 0.011567657 -0.03632349 -0.092638865 0.17778358 0.03911071 0.072450824
0.13345656 -0.009799237 0.060521185 -0.070554376 -0.03583831 -0.123920955 0.09222296 0.100177236
0.063237995 0.03475438 0.0146540925 0.07722091 -0.07769521 -0.026879694 -0.012896497 -0.02999979
-0.07866147 0.023614943 -0.06222797 0.054030374 -0.07490441 -0.09902735 -0.0133494735 -0.0832891
0.028436301 0.0043529156 -0.018603645 -0.08706689 0.0031003836 0.065036185 0.021260003 0.1108981
-0.12956513 0.106701985 0.09513631 -0.07926481 0.00054057234 -0.09664985 -0.00057088654 -0.09595076
-0.10807158 0.064660124 0.07014597 -0.05520525 -0.09588322 0.07927564 -0.11875901 0.0701479
0.054525044 0.05663481 0.12854664 0.048270393 -0.019186338 -0.060755722 -0.014107353 -0.07789752
0.044733874 0.013934539 -0.060958736 0.04766312 0.122558214 -0.022275368 0.11950766 -0.04057765
0.009661808 0.12518598 0.12934352 0.09468644 -0.016003273 0.048064183 -0.081989326 0.13014637
0.027157474 -0.0028630646 -0.093662895 -0.041818216 0.13714974 0.0035893745 0.05160889 0.053077135
-0.11593082 0.029018981 0.056799002 0.06253471 0.021510396 0.11373154 0.014809789 0.085965104
0.052257854 0.09192013 -0.052321035 -0.13214722 0.09858672 0.057248272 0.07884231 0.06392427
0.07715443 0.095270015 0.10494853 0.06622693 0.02072678 0.09985621 0.03648159 -0.0037389968
-0.06987854 0.07377172 0.12691882 -0.07347448 0.082689025 0.022983644 0.00039097026 0.098222904
0.0063714786 -0.0066508753 0.039099768 -0.053199563 -0.06266976 -0.005115987 0.05611687 0.020668631
0.12019757 -0.072411425 0.013411492 0.07335658 -0.11248195 0.02437854 0.0715528 -0.0748221
0.0051594437 -0.021105846 0.034888078 -0.05714965 0.054760575 -0.097704396 0.015641727 0.04322253
0.056703974 -0.10565535 0.09631197 0.009513626 0.120264575 -0.08755198 0.08885547 -0.02504537
0.09180013 -0.10036482 -0.029347876 -0.014954394 -0.12400239 0.0367481 0.1080068 -0.09635087
-0.07566663 0.1066416 -0.051879283 -0.021531241 -0.09649003 0.08713018 0.097063266 -0.068755776
0.007223963 -0.01354304 -0.10915615 -0.0657605 -0.09695654 0.12551856 -0.13144659 -0.022459902
0.0164263 -0.12498587 -0.07024635 0.11654215 0.03481402 -0.0997961 -0.124934755 -0.07363455
-0.030877594 -0.012133513 0.07290017 0.11294269 0.038408253 0.04901838 -0.01454283 -0.005229989
0.09259774 -0.035253026 -0.043779228 -0.074853 -0.015412457 -0.061614145 0.11751395 -0.093711175

mlp.0.bias f4 [150]
00000000: 62e7 a23d c71b a43d 1ad5 8fbd 27a1 07be
00000010: f4f8 f3bb 7f18 68bc 4b99 e23d 2dfb 64bd
00000020: e43a eabd 31fd afbd f275 46bc 6ecd 983d
00000030: 8030 7fbb 936c 663d ff27 253d b416 0d3e
00000040: 0c34 1ebc 73dc 0abe 7218 00ba 9894 e1bd
00000050: 0d5f f3bd b2ba 9cba 3be5 003d cd49 06bd
00000060: 8025 aa3c d5d1 07be 93e9 a83d c459 d93d
00000070: f207 cabd 78de 02be 091c a33c 80f1 d9bd
00000080: ddbc d73d 467b 5dbd 2114 13bd 4a85 debc
00000090: def2 bebd e6a8 cc3c 4b27 d53d 997d aabd
000000a0: 2099 043e b04e bc3d 595c a93d 80d7 7d3d
000000b0: 685a 923d cc71 5fbd 505f bd3c fc67 f7bc
000000c0: 0ec4 a43d 6fc5 223d e357 c63d 656b 9abd
000000d0: 1f87 7f3d 52de 96bd 8cae b23d 6977 8e3d
000000e0: fab8 ccbd afe0 2e3d 16bf 963c 404a c9bd
000000f0: fb2b 20bd 2da7 9cbd 2309 46bc 43ca 79bd
00000100: 0f74 ffbd c421 ef3d 4d3a 443d 458f e93d
00000110: 6f18 3f3b 25a1 cebd 8ef9 40bb ada1 013e
00000120: 12c4 f13d b98c 04be c5bf c4bd 44ed d1bc
00000130: c2e3 e83b 4621 b1bc 04ae 733c 8cf9 f73d
00000140: 0bd7 f9bc 2ee5 c33d 03ff a6bd 07e3 2c3d
00000150: 213d 833d 8889 c13d aaf5 043d d899 81bd
00000160: d675 c83d 46c4 d33d 8496 b23d 37e5 43bd
00000170: 8017 e0bd fe54 f53d f4f6 893d ae8a 9cbc
00000180: 4cdc c5bc 2ecb 9d3d afed eb3d dc44 d13d
00000190: 393b dc3d 341c ae3d 9681 1abc 3d07 5d3d
000001a0: 26b6 fe3d eaba 373d 5e6e 70bd e438 cdbd
000001b0: 8cf3 5cbd 9ec3 ef3c c076 fd3c 593a 87bd
000001c0: 66f6 f03b 4ed7 10bd 5673 52bd ad45 b83c
000001d0: 9fce ddbb 4e91 d53c 4de2 cc3d 6d0d 34bd
000001e0: 13cc 9fbd 6834 08be 133b 8cbd 6679 cdbd
000001f0: 039a 753d 3cbf b2bd 90be c9bd 54f6 b4bc
00000200: c5e9 073e d43a ff3c f928 b0bd 2d8d 323d
00000210: 0283 1b3d 0a17 ec3d b93b dd3d d11f 743d
00000220: 52d9 d23b aca2 c7bd b5ad 1b3e ee43 c63d
00000230: 3072 a0bd 79e0 a5bc 6055 01be 24cf b43d
00000240: 03ab 91bd d1c4 5fbc 1eb6 b7ba c11b 133e
00000250: 6f9e c03b 954d ea3d
0.07954289 0.080131106 -0.07023068 -0.13245068 -0.007445449 -0.014165997 0.110643946 -0.055903602
-0.11437014 -0.08593214 -0.012113081 0.074610576 -0.003893882 0.05625589 0.040321346 0.13778192
-0.009655964 -0.13560657 -0.0004886455 -0.1101467 -0.11883364 -0.0011957495 0.03146861 -0.032785226
0.020769835 -0.13263638 0.08247676 0.106128246 -0.09864797 -0.12780178 0.01991083 -0.106417656
0.1053407 -0.05407264 -0.03590787 -0.027163167 -0.09323667 0.02498288 0.10407885 -0.08324737
0.12949038 0.09194696 0.08269567 0.061973095 0.0714615 -0.054551885 0.023116738 -0.03020095
0.08045207 0.03973907 0.09684732 -0.07540015 0.06238472 -0.07366623 0.087246984 0.069563694
-0.09996219 0.042694744 0.018401664 -0.09828615 -0.039104443 -0.07649074 -0.012087139 -0.060983907
-0.12473308 0.11676362 0.047907162 0.114042796 0.002915885 -0.1008933 -0.0029445621 0.1265933
0.118049756 -0.12944306 -0.0960689 -0.025625832 0.007107229 -0.021622311 0.0148730315 0.12108144
-0.030498048 0.09565197 -0.081541084 0.042208698 0.06408144 0.0945006 0.032460846 -0.063281715
0.097881004 0.103401706 0.08720115 -0.04782602 -0.10941982 0.119791016 0.06736556 -0.019109096
-0.024152897 0.07704769 0.11519944 0.10218212 0.10753483 0.08501473 -0.00943031 0.05396198
0.12437086 0.04485599 -0.058699004 -0.10020617 -0.053943202 0.029268082 0.030940413 -0.06602926
0.0073535917 -0.03536158 -0.051379524 0.022494162 -0.006769016 0.026070263 0.10004101 -0.043958116
-0.07802596 -0.13301241 -0.06847205 -0.100329205 0.05996133 -0.08727881 -0.098508 -0.022090115
0.1327277 0.031155981 -0.08601565 0.043591667 0.037966736 0.11527832 0.10802407 0.059600655
0.006434598 -0.09747824 0.15202983 0.09680925 -0.078342795 -0.020248638 -0.12630224 0.088285714
-0.07112696 -0.0136577645 -0.0014016067 0.14366056 0.0058782618 0.11440579

mlp.2.weight f4 [100, 150]
00000000: cd7d 1dbd 204a a1bd bfc8 fa3a 0db6 9abd
00000010: 8c1e 06bd 7eea a2bc a785 b13c 5fdd d83b
00000020: 9a9e 983d 467d 4abd 5ee7 3c3c b383 103a
00000030: 6244 08bd 12d1 30bc 5e7a 303d e583 9d3d
00000040: c815 26bd 6951 f23c 38ba 82bd 8305 a4bb
00000050: 9572 62bd 22f5 9639 cdb5 28bd 049f 52bd
00000060: ef1c ce3c 4b37 313d 0c69 8dbd 7967 a4bd
00000070: 2997 95bd 2de7 953d 0fb4 87bd 4463 e9bc
00000080: 387e fb3b 3453 c6bc bf82 493d 4e39 2a3d
00000090: ecf1 573d b84c a53d d620 7bbd 2469 72bd
000000a0: 6f96 73bd 6d2f a43d 3ba7 a03d 5b10 c53b
000000b0: 11e3 343d 3c0d 44bd 3d3d 1fbb ca0b 6b3c
000000c0: 0edd 653c 07fc a23d 299b fbbc 7a76 37bc
000000d0: 5843 9b3d 53e2 983d 33d2 c5bc 088f 153d
000000e0: f17e 1e3d cdb6 94bd 4226 723d 5ab5 4bbc
000000f0: b213 8ebd 8c0b c8bc 6f42 29bd 4236 d0bb
00000100: 1fa0 72bc b460 8abd 38a7 0c3d c841 4ebd
00000110: f534 cbbc a3f6 0b3d b18c 783d 6119 233d
00000120: 98ad efbc 1f95 3ebd 28dd 66bd 3509 0c3d
00000130: 7de6 1a3d 7d64 ffbc 4326 babc 243c e13c
00000140: 4c9b 243d f326 663d 952d a7bd c3ad 87bd
00000150: f835 b3ba 4d2b 6e3d ec5b d6bb 3998 f23a
00000160: e577 e439 7218 2d3c 794d 3cbd c342 70bd
00000170: a5ae 2d3d 80b8 84bd 22d5 d73b 3fbb 433d
00000180: 7c98 a5bd 0e51 693d fbbb 373d 55f2 8fbd
00000190: 9f4b 573d ffbf 97bd 5efb a33d 1b76 46bc
000001a0: 1291 293c b92f 9ebd 2eb9 86bb 85cc 5a3c
000001b0: 5ca9 383c 5629 053d 4aaa 103c 697b 233c
000001c0: 471c 74bd 8f43 cc3c 6395 423d 6d7b fdbb
000001d0: 21ba 8d3d d64d f9bc 4174 87bd 4208 843d
000001e0: dab5 973d 4958 ed3c c955 9a3d a637 2ebc
000001f0: 5ffe fa3b 8665 673d 98bd 523d 47e0 89bd
00000200: 2aa6 8d3d 9966 d1bc 212e 923c 06a7 f33c
00000210: 6f51 8bbc 2581 8dbd 6050 8dbd e7b0 cebc
00000220: a3f3 8d3d aec6 7bbd 9a74 293d c532 8d3d
00000230: 99fb 6ebc e3ca 633d 5f39 20bd b31e 923d
00000240: d3d9 7dbd 7e3a 333d b160 87bd 0091 53bc
00000250: d66c 80bd 026b c83c 2ee4 1dbd 8366 2f39
00000260: 8407 2dbd 4a21 9a3d 3710 6e3c 89d6 fe3c
00000270: 7ec9 cabc 5804 4e3d 91a9 f33c 2ac6 1abd
00000280: ba75 c0bb e034 873d cc7f 163d 7f67 773d
00000290: 8f73 babc 1dab 12bc 0f8d 9d3d 5a25 32bd
000002a0: ae24 cabc f1b7 a83b ff53 03bc e660 54bd
000002b0: 165b 5f3b 7db9 90bd 6aca d6bc d1ba e5bc
000002c0: cd05 383c 6b5b fabc aa21 88bd b7e8 3cbd
000002d0: 1624 89bd 4721 88bb c1cf afbd 62cc 44bd
000002e0: 11af 85bd 5ecf 31bd bf17 7bbd 17a1 183d
000002f0: a758 563d df58 6d3d a710 d63c 0574 473d
00000300: a03c 3c3d 173e 193c a898 483b a2f4 8abd
00000310: 386f 7abc 2145 c03a eba6 9d3c 236a 8dbd
00000320: 240b df3c f87e 2c3c a9de 823d 52a1 13bd
00000330: 0d54 1a3d d52e 3ebb 2d6d 2c3d 9d58 123d
00000340: 4542 993d 9c6d 803d 9613 453d bf07 e23c
00000350: b2e8 483d 62b6 923d 0a9d 08bd 4b7f 4f3d
00000360: b64a 313d a70c 14bd a108 e93c 10dd 2cbd
00000370: 3c7b 88ba f00a 6ebc 8ea0 3cbd cd95 493d
00000380: c05d 81bd e065 44bd 918c 1f3d 771a aabd
00000390: 4114 84bd 35c9 c5bd e52f e1bc ae5c 313d
000003a0: b23d 87bd 9b0c 7bbd 0e11 da3c 8bff 793d
000003b0: 979d 843d b681 d5bc ff76 6bbc f700 383d
000003c0: 8db6 393d 1f45 753d 5a67 91bd 8fa7 50bd
000003d0: 5d62 29bb 7b1f 96bd 8804 dc3b 1a73 13bd
000003e0: 5b58 643d d6a8 14bc a95c 993c c250 733d
000003f0: 632f 7f3c 2e24 78bd a73b d1bc c174 3b3c
-0.03845005 -0.07875466 0.0019133313 -0.07554255 -0.032743976 -0.019887205 0.021670176 0.0066181864
0.07452126 -0.049435876 0.011529772 0.0005512789 -0.03326834 -0.010792034 0.04308545 0.076911725
-0.040548116 0.029579835 -0.06383175 -0.00500554 -0.055285055 0.00028792868 -0.041189004 -0.05142118
0.025160281 0.043265622 -0.06904802 -0.08027548 -0.07304222 0.07319484 -0.0662614 -0.028489716
0.0076749586 -0.024209596 0.049196955 0.041558556 0.05272095 0.080712736 -0.06131061 -0.0591823
-0.059469637 0.08016858 0.07844397 0.0060139126 0.04416186 -0.047864184 -0.0024297975 0.014346072
0.014029754 0.07958227 -0.030713635 -0.011197681 0.07581204 0.07465043 -0.024148082 0.03651336
0.03869528 -0.07261429 0.059118517 -0.012433374 -0.0693735 -0.024419568 -0.04132312 -0.0063541243
-0.014808684 -0.06756726 0.03433916 -0.050355703 -0.024805525 0.034170758 0.06068105 0.039819125
-0.02925758 -0.04652893 -0.056363255 0.034188468 0.037817467 -0.031175846 -0.022723323 0.027494498
0.040187165 0.05618949 -0.08162991 -0.06624939 -0.00136727 0.058146764 -0.0065417197 0.0018508501
0.00043576877 0.01056491 -0.04597232 -0.05865742 0.042402882 -0.06480503 0.0065866867 0.047785994
-0.08085725 0.056962065 0.044857007 -0.07028643 0.052562352 -0.07409667 0.08006929 -0.0121131195
0.010349529 -0.07723946 -0.0041114306 0.013354425 0.011270847 0.032510124 0.008829663 0.009978154
-0.05959728 0.024934558 0.047505748 -0.0077356608 0.06920267 -0.030432623 -0.066139705 0.064468876
0.07407732 0.028972762 0.075358935 -0.010633385 0.007659718 0.056493305 0.051450342 -0.06732231
0.06916459 -0.025561618 0.017844262 0.029742729 -0.017006604 -0.06909398 -0.06900096 -0.025230838
0.06931236 -0.061468773 0.041370966 0.06894449 -0.014586353 0.05561341 -0.039117213 0.07134762
-0.06197531 0.043756954 -0.06610239 -0.012912989 -0.06270759 0.024465088 -0.038547687 0.00016727489
-0.042243496 0.07525881 0.014530233 0.031108158 -0.024754282 0.05029711 0.029743942 -0.03778664
-0.005873409 0.06601882 0.03674297 0.060401436 -0.02276018 -0.008951929 0.076929204 -0.043492652
-0.024675693 0.0051488806 -0.008015632 -0.051850222 0.003408139 -0.07066629 -0.026219565 -0.028043183
0.011231852 -0.03056117 -0.06647046 -0.04612037 -0.06696336 -0.0041543576 -0.08584548 -0.048046477
-0.06527532 -0.04341065 -0.061301943 0.037263002 0.05233064 0.057946082 0.026130987 0.04869463
0.045956254 0.009353182 0.0030608568 -0.06784941 -0.015285306 0.001466904 0.019244632 -0.069050096
0.027226992 0.010528319 0.06390125 -0.03604252 0.037677813 -0.0029019613 0.042096306 0.03572904
0.07483343 0.06270906 0.04811438 0.027591584 0.04905004 0.07163693 -0.03335289 0.050658505
0.04328414 -0.03614488 0.028446497 -0.04220301 -0.0010412703 -0.014528975 -0.046051554 0.049215127
-0.063167095 -0.047948718 0.038952414 -0.08305829 -0.064491756 -0.09657518 -0.027488658 0.043301277
-0.06603564 -0.06129132 0.02661946 0.06103472 0.064753704 -0.026062828 -0.014371633 0.044922795
0.04534011 0.059880372 -0.07099791 -0.050941046 -0.0025845983 -0.07330223 0.0067144074 -0.03599844
0.055748325 -0.009073457 0.018720942 0.05940319 0.015575263 -0.06058138 -0.02554114 0.0114414105

mlp.2.bias f4 [100]
00000000: ffc8 2fbd a359 203c e420 cebc bbf9 83bc
00000010: 685c 093b 031a ab3d 7d7e ac3d db51 8f3d
00000020: d87f 5e3d 0621 bb3c 7a45 50bd 562b 843c
00000030: 952d c6bc e133 ff3c ee9e 403d 7afc 4b3a
00000040: ac10 443d 69f0 113d 7d05 83bd dcad 39bd
00000050: 79c9 75bd b57a e0bc e322 4e3d 8b72 1ebd
00000060: 0d82 9dbd c0cb 70bb ad1e d4bd 0c57 4dbd
00000070: d1f3 823d 19a8 313c 8137 b43d 9754 16bc
00000080: a041 3abd d34e fc3c f2e8 0bbd cd69 4a3c
00000090: e3b4 f93c 775c f8bc b162 4cbd 6e9b a9bd
000000a0: a490 8dbd 0b85 8b3c 33b2 9cbd 4259 973c
000000b0: 9c68 86bd 3930 943c 643c 8f3d 189b 963b
000000c0: 1183 98bd 82d0 42bd b3c8 a43d 2cba 7cbd
000000d0: de0b f43c 89f4 bb3d 0620 a5bc 7968 813c
000000e0: 9cc9 4cbc 1c51 d5bc 6dad 283c 360e 9b3d
000000f0: 13dd c63d 79fb 953c 1a87 2bbd 0aaf a73d
00000100: e2c1 633d 401d 84bc 09b6 cd3c a12a da3c
00000110: bc0a 30bd 6ce9 183d 5949 273d a8b9 f9bc
00000120: 9b86 163d f291 703d 7fa0 0ebd ff28 d23c
00000130: 8317 b73d 18f8 8b3d 9bce babc 35fd 9a3d
00000140: e3d1 aebd 35c3 b73d 1136 8bbc 8dfd 95bd
00000150: f723 2bbd a26c 08bd eed6 9cbd be81 63bd
00000160: 502d a0bd 5be3 2fbd 434a 56bd b3ef 93bc
00000170: 4b4f 35bd cb90 18bc 0df2 a43c 1cff b93d
00000180: 4728 26bd ef01 a03d 3a2a 2c3d 66a2 40bb
-0.042916294 0.009786996 -0.025162168 -0.016110292 0.002095962 0.08354571 0.08422563 0.069980346
0.05432114 0.022842895 -0.050847508 0.016133945 -0.024191657 0.031152667 0.047026567 0.00077814574
0.047867462 0.035629664 -0.06397531 -0.04533182 -0.060006592 -0.027402261 0.05032624 -0.038683455
-0.07690821 -0.0036742538 -0.103574134 -0.050131842 0.063941605 0.0108433 0.08799649 -0.009175441
-0.04547274 0.030799305 -0.0341577 0.012354326 0.030481761 -0.030317528 -0.049898807 -0.08281599
-0.06912354 0.017031213 -0.07651176 0.018475179 -0.065629214 0.0180894 0.069939405 0.0045961253
-0.07446874 -0.04756213 0.08046093 -0.061700985 0.029790815 0.09177501 -0.020156872 0.015796887
-0.012499239 -0.026039653 0.010295254 0.0757107 0.09710135 0.018308388 -0.04187689 0.08187683
0.055604823 -0.016127229 0.025111215 0.026631655 -0.042978987 0.037331983 0.040841434 -0.030484036
0.036749464 0.058732934 -0.03482103 0.025654314 0.089400314 0.068344295 -0.022803595 0.07567827
-0.085361265 0.0897278 -0.016993554 -0.073237516 -0.041782346 -0.033306725 -0.07658182 -0.055543654
-0.07821143 -0.042941432 -0.052316915 -0.018058633 -0.044265073 -0.009311865 0.02013495 0.090818614
-0.040565755 0.07812869 0.042032458 -0.0029393672

mlp.4.weight f4 [100, 100]
00000000: 3970 7e3d 49f1 44bd 1b64 bcbd 104b 933d
00000010: 4de6 fdbc 206c a0bd 60fd 1d3d cf87 90bc
00000020: c81a 4f3d d164 af3b 7df4 8dbd 565c 2c3d
00000030: 04c0 4f3d 6396 3ebd c3de 97bc e2db c93d
00000040: 5963 ddbd 58ff cb3b c23f dd3c 1a52 9c3d
00000050: fab7 193d d9e5 953d f5ed d13c ca0e 623d
00000060: f837 8bbd 56c7 85bd 33ea a03c 6bd6 253d
00000070: f746 8a3d 808d 3cbd a2fe 0a3e d5b7 083d
00000080: 5d1f b2bd 537e 0ebd 48ba 0f3d f5ad 303d
00000090: 413c 4dbd 1412 5f3d 6a86 5bbd fa3f aa3d
000000a0: 9e72 d0b9 b767 e53b 1d66 803d b003 65bd
000000b0: e26f 13bc 44c9 353c 5c08 3d3d 96fe bdbc
000000c0: df01 973d 58ab 43bd 445e b1bb 93c8 6bbd
000000d0: 89fc 76bd cccf e1bd 5566 90bd 13c6 c03d
000000e0: 7adf cabd 7fb5 8f3d 6d91 24bd e6b4 fe3a
000000f0: 4d70 6a3d 3022 ebbd 8316 b93c cead 4e3d
00000100: 0811 9d3d 47f2 25bd 86f3 6d3d 45f3 b53d
00000110: e981 793d e6f5 65bd fcb6 403d e4cd 98bc
00000120: 4b9c 92bd 543e 8dbd 457e a53d d248 133d
00000130: 991c 9f3d e585 be3c 68f2 85bd 45a5 9ebd
00000140: 2afa 8bbd e19e cfbd f957 aebd 23b0 c5bd
00000150: f2c1 3a3d 753e 96bc ee39 c43d 92da d5bc
00000160: c324 983d 6de3 81bd 04b7 9e3d 96cd 253d
00000170: 629c ae3d f11b 87bd 6fec 863c d79d cc3d
00000180: 75ce 4cbc 9dcd c83d e7dc b0bd 1654 c93c
00000190: daba 243c b8f4 47bd 7a31 c7bd 05b0 7bbd
000001a0: a196 943d af38 b6bd ba79 c73d 630d 083d
000001b0: 955c 91bd 14db 61bd b54a 48bc f297 0f3d
000001c0: fa15 46bd d35e 903c 722f ce3c 525f 943d
000001d0: bcb1 b23d b1e7 df3c a7b4 a2bc 4f4a c73d
000001e0: b38c fbbc a077 dfbc 55a8 9abd 87fb 803c
000001f0: f01d 5cbd e611 9dbd 5a1b 44bd ad74 bdbd
00000200: 7fc8 1fbb 8a74 363d e925 30bd 97de 4ebd
00000210: cb98 a63d 92f2 233d a55a 8bbc 53b7 5cbd
00000220: 6a7c babd 1af2 29bc 7a63 f03c 60d3 81bd
00000230: 061b dabc 7ca9 353d 00ee 833b 4a9c cbbd
00000240: 02f3 bdbd afd7 00bb f65f bfbd a3d2 4dbd
00000250: 9327 b73c 3c43 3fbd 67f5 663d 426f bfbd
00000260: 028e 9abd 0b11 b8bd d0be b6bd 9205 96bd
00000270: ff1b 813c e852 ba3d 3b8f b23d 0bec ba3d
00000280: ab0d 903d af12 d93c 81bc 833d 1c03 15bc
00000290: d9a3 99bd 16f1 c13d 9ac9 223c 3a61 843d
000002a0: 3a7f b8bc 5dd4 bc3d 3560 9c3d 4f28 f03a
000002b0: c4f4 743d c222 96bc c852 483d 3d4b a0bd
000002c0: b2dd 0dbc eee6 853d 4a21 363d f0e7 b73d
000002d0: c9c7 c13d 25c5 aebd b78d 3fbd 4086 953c
000002e0: b9c2 d43c 2426 50bd 299f f3bc 624b a93d
000002f0: 137a 773d 9688 ca3d ffd0 893d cd11 693b
00000300: 578f c43d 505d cbbd 350a b0bd dd39 eab9
00000310: 276a bebd 3f75 a93d 7fdd d93c 3d01 73bd
00000320: 3d85 dabb a5cd a2bc f262 9fbd 4977 a53d
00000330: 2749 3c3d d511 aebd a1c9 7b3a 771e 77bd
00000340: 19a1 bf3d 193e 6f3d 0053 ebbd 6946 893c
00000350: 4821 a8bb b18b c33c 5cc9 65bd bfea 00bd
00000360: 7bea b23d 8441 81bc a8ad 223d 511d a5bd
00000370: 4789 a6bd 95ee 8abd 2901 a93d f87d 91bd
00000380: 9216 9abc 3060 67bd cb51 fbbc 904c e4bc
00000390: 1639 a33d 07c6 91bd cef7 f9bb 6125 87bc
000003a0: d9b0 813d a5c6 35bd ba48 1b3d 1423 d03c
000003b0: 3ce3 bfbc 279a 5bbd e292 15bc 584c c03d
000003c0: 5b70 483d 2c25 8e3c 1356 953c 4d82 68bd
000003d0: adb1 613d 94b6 cfbd c32f c23d cc2b 383d
000003e0: 0008 b43c 99af 2e3c b0b2 41bd 7322 2f3d
000003f0: 5eae c93d 4575 fb3d 2dc4 9d3d 8d0b 353c
0.062118743 -0.04808167 -0.09198781 0.071920514 -0.030993605 -0.07833123 0.038571715 -0.017642884
0.05056265 0.0053525944 -0.06931398 0.042080246 0.05072023 -0.04653014 -0.018538838 0.098563924
-0.10809965 0.0062255077 0.027007941 0.07632847 0.03752897 0.073192306 0.025626162 0.055189885
-0.067977846 -0.06532161 0.019642925 0.040487688 0.06751817 -0.046033382 0.13573697 0.03337844
-0.08697388 -0.03478844 0.03508976 0.04313465 -0.05010629 0.0544606 -0.053594984 0.08312984
-0.00039758248 0.007000889 0.062694766 -0.05591172 -0.008998843 0.011095349 0.04615055 -0.023192685
0.07373404 -0.047770828 -0.0054128487 -0.05756433 -0.06029943 -0.11025962 -0.07050768 0.0941278
-0.09905906 0.070170395 -0.04017775 0.0019432574 0.057236005 -0.1148113 0.022593742 0.05045872
0.07669264 -0.040514257 0.05809357 0.088842906 0.060914908 -0.05614271 0.047049507 -0.018652864
-0.07158717 -0.06896654 0.080807246 0.03595812 0.077691264 0.023257205 -0.06540376 -0.077463664
-0.068348244 -0.101377256 -0.08512873 -0.09652736 0.045595117 -0.018340329 0.09581362 -0.026105199
0.07428887 -0.06342206 0.07749751 0.040479265 0.085259214 -0.06597126 0.016470162 0.09991043
-0.012500395 0.098048426 -0.08635884 0.024576228 0.0100543145 -0.048817366 -0.09726234 -0.061447162
0.07255293 -0.0889753 0.097400144 0.03321589 -0.07097737 -0.05514057 -0.012224843 0.035057016
-0.048360802 0.01762334 0.025169108 0.072447434 0.087253064 0.027332159 -0.019861532 0.0973097
-0.030706739 -0.027278721 -0.07551638 0.015744938 -0.053739488 -0.076694295 -0.047877647 -0.0925077
-0.002438098 0.044544734 -0.043004904 -0.050505247 0.08134612 0.040026255 -0.017010996 -0.05388577
-0.09105761 -0.010372663 0.02934431 -0.06339145 -0.026624214 0.044351086 0.0040261745 -0.09941919
-0.09274866 -0.0019659807 -0.09344475 -0.050249707 0.022357738 -0.04669498 0.056386378 -0.093473926
-0.07546617 -0.08987626 -0.08923113 -0.07325281 0.01576042 0.09097844 0.08718725 0.09127053
0.07033857 0.026498167 0.06432439 -0.00909498 -0.075019546 0.094698116 0.009935761 0.06463857
-0.022521604 0.092201926 0.076355375 0.001832256 0.05980374 -0.01832712 0.04890707 -0.078268506
-0.008658813 0.06538187 0.04446534 0.089797854 0.09461934 -0.08533696 -0.04676601 0.018252492
0.025971757 -0.050817624 -0.02973898 0.08266331 0.060419153 0.09889333 0.06729316 0.0035563589
0.095976524 -0.09929907 -0.08595697 -0.0004467507 -0.09297591 0.08274316 0.026594875 -0.059327353
-0.0066687153 -0.01987345 -0.07782544 0.080793925 0.0459682 -0.08499495 0.0009604935 -0.060331788
0.09356899 0.05840883 -0.1149044 0.016757207 -0.0051309206 0.023870321 -0.056100234 -0.03147387
0.0873613 -0.01577831 0.039716393 -0.08062232 -0.08131652 -0.06783787 0.082521744 -0.07104105
-0.01880959 -0.056488216 -0.03067865 -0.02786854 0.07969873 -0.07117849 -0.0076284176 -0.016497316
0.06332559 -0.044378895 0.037911154 0.025407352 -0.023423783 -0.053613808 -0.009129258 0.093895614
0.048935276 0.01735171 0.01822952 -0.05676489 0.055101085 -0.10142246 0.09481766 0.044963643
0.021976471 0.010661983 -0.04728955 0.042757463 0.09847711 0.12278227 0.07703433 0.011050117

mlp.4.bias f4 [100]
00000000: 6add d03d 8a20 87bd d1ac 043d 9d64 9c3d
00000010: 57ad 8f3d 3e74 a6bc ef27 bf3c e596 f2bc
00000020: 9b60 bfbd d133 ad3d 1fc3 cbbc da34 97bc
00000030: d527 c9bd 589b a3bb 3375 b53d 281a 89bd
00000040: fd47 1cbd a572 d9bd fda8 72bd c79b 78bd
00000050: c595 90bd ee65 81bd df8e 3e3d ccf9 8f3d
00000060: e1a2 07bc fd0f 733c a05f 9d3c a82d 063d
00000070: 0769 84bd baca bbbc 0047 33bd 9de9 edbb
00000080: 354d b03d 1b51 f1bb 4d29 af3d 2540 2c3d
00000090: fbd8 cf3c d12d dc3c 1807 9bbd 676a 1a3d
000000a0: 6a30 b93c 719f 0dba 8d28 bebd a74b 923c
000000b0: 9f38 923d 931e 13bd 9750 84bd 8115 96bd
000000c0: d666 803d c3ce 773b 9263 383d 4f65 77bc
000000d0: bc25 9dbd 30b3 cf3d 169b 80bd 271c b3bd
000000e0: f7cb 6b3d 8a54 b8bd 13d0 4abd be42 a73d
000000f0: 48cf 87bd b35d 4fbd bee1 1abd 9224 0a3d
00000100: 1577 973c 6532 cabd 67fc 67bc 2644 9b3d
00000110: d862 d83d b7dd adbc f9fe ea3d a0d1 623d
00000120: a23f 0bbc 8510 26bc 5030 cabd bdf8 09bd
00000130: 953f 33bd b636 27bd fe19 bb3d 8d7a d63c
00000140: c969 313d b00a 1e3d 06d3 473d 1a3e dbbc
00000150: 0353 ba3d 85e2 cd3d 576d 713d cd5c 35bb
00000160: 436e 16bd 8dcb ae3c 89a2 59bb 6ccc b93d
00000170: b561 91bd 6dd2 c9bd bae8 7fbc 337f 8cbd
00000180: 1b98 053d f36b 333b 762d cc3d 3615 373b
0.101984814 -0.06598003 0.032391373 0.07636378 0.07015484 -0.0203191 0.023334472 -0.029612968
-0.09344598 0.08457149 -0.024873314 -0.018457819 -0.098220505 -0.0049928837 0.088602446 -0.06694442
-0.03815459 -0.1061757 -0.05924319 -0.060695436 -0.07059816 -0.0631827 0.04652297 0.07030067
-0.008278579 0.014835355 0.019210637 0.032758385 -0.06465345 -0.022923816 -0.043768883 -0.007260515
0.08608476 -0.007364405 0.085527994 0.04205336 0.025372019 0.026877316 -0.075697124 0.03769913
0.022606093 -0.0005402482 -0.09285078 0.01785834 0.07139706 -0.03591783 -0.06460684 -0.0732832
0.062696144 0.0037812449 0.045016833 -0.015099837 -0.07673213 0.10141599 -0.0627958 -0.08745604
0.057567563 -0.090004995 -0.04951484 0.08167027 -0.06631333 -0.050626468 -0.03781294 0.033726282
0.0184894 -0.09872893 -0.0141592985 0.07581358 0.10565728 -0.021223886 0.114744134 0.055375695
-0.008499058 -0.0101357745 -0.09872496 -0.03368448 -0.04376181 -0.04082366 0.09135817 0.026181484
0.043313775 0.03858441 0.048785232 -0.02676301 0.090978645 0.10052971 0.058942165 -0.0027673722
-0.036726248 0.021337295 -0.003320845 0.090721935 -0.07098714 -0.09854589 -0.015619451 -0.06860199
0.032615762 0.0027377575 0.099696085 0.0027936227

mlp.6.weight f4 [1, 100]
00000000: 8811 473e 4051 69bd f853 73be 16f2 e5bd
00000010: 7a3d f63d 5280 8a3c 4b34 fdbd 8b5e 93bd
00000020: 9b9c 903d 400d 613e 34dc 273d df85 a8bd
00000030: adc8 813d 0ae8 a9bd f4ef 013e bd0f a9bd
00000040: 40e0 6cbd 4f16 9fbd fbdd 8ebd 278b b93c
00000050: 2b5c 40bd 354a a8bd 5b69 adbd d108 803e
00000060: e5b1 3fbe b14a ebbc 93aa 963d d4a3 40bd
00000070: f450 743c e076 d1bc e8b5 9a3d 3739 91bd
00000080: bb4a edbd 1ffb a0bd 87c1 4a3e f7c7 7fbd
00000090: 63a9 df3d 58be 04be afda 77bd 78c7 5e3d
000000a0: a7d4 c63c cd89 19be 9a3b d93b 327f 9f39
000000b0: 4150 2f3e 6cf6 803b 7213 8a3d dc0b 893d
000000c0: b669 273e c027 85bd 748a bebd 2920 ccbd
000000d0: 20ba 42bd 0620 4b3e e36c 013d 3dea 7cbd
000000e0: 2840 433d 7d6d 3f3d 3341 60bd 8254 a13d
000000f0: 609b 67bd e2dd 1fbe ac1f 86bc ef27 7e3c
00000100: 9f62 863d f3c9 703c 4306 abbd 499f 1f3e
00000110: 92b2 623e 19d0 9bbd 8748 663e 5e2e f03c
00000120: 9598 613b cfe2 3abc afda 1a3b aaa3 47bd
00000130: 2ddb 413d 5179 ac3d a588 703e 1203 913d
00000140: 1e98 13be 0215 b1bd fe08 243e 9a07 8dbb
00000150: 9caf 193e c1c8 843e 5f66 e43c d7df 32bd
00000160: 67a6 c1b9 ca48 753c 448f fabc 26d8 a73d
00000170: 18a8 c1bd 8b96 283d 3f77 8cbd 462c 29bd
00000180: dfbb 2abc 2437 26bd 4782 b03e d086 b3bc
0.19440281 -0.05696225 -0.237625 -0.11227815 0.120234445 0.016906891 -0.1236349 -0.07195767
0.0706112 0.2197771 0.040981486 -0.08228659 0.06337104 -0.08296211 0.12689191 -0.08254955
-0.05783105 -0.07767927 -0.06975933 0.02264936 -0.0469629 -0.08217279 -0.084673606 0.25006726
-0.18720205 -0.02872214 0.07356753 -0.04703124 0.014911879 -0.02556938 0.07554227 -0.07090991
-0.11586519 -0.078603975 0.19800387 -0.06244656 0.1092098 -0.12963235 -0.060511287 0.054389447
0.024271322 -0.14993973 0.0066294195 0.0003042161 0.17120458 0.003935626 0.0674199 0.06691715
0.1634892 -0.06501722 -0.093037516 -0.099670716 -0.047540784 0.19836435 0.031597983 -0.061746825
0.047668606 0.046735276 -0.05474968 0.07877447 -0.05654466 -0.15611985 -0.016372524 0.015512451
0.06561779 0.014696586 -0.08350804 0.15588106 0.22138432 -0.07608051 0.22488604 0.029318985
0.0034423221 -0.011406614 0.002362888 -0.048740067 0.047328163 0.08421577 0.23489626 0.07080664
-0.14413497 -0.08646585 0.16019055 -0.0043038847 0.15008396 0.25934413 0.027880846 -0.0436705
-0.00036935808 0.014970968 -0.030585892 0.08195524 -0.094558895 0.041159194 -0.06858682 -0.041301988
-0.0104207685 -0.04057993 0.34474394 -0.02191487

lstm.weight_ih_l0 f4 [200, 13]
00000000: b2ec e8bd 9e8f 86bd 3954 fe3d 40b0 033e
00000010: c2a5 b13d 3194 0f3e 9170 95bc 4b57 653d
00000020: e17f b63d 4d57 aabd f179 fcbd e9ef d43d
00000030: 85d6 dcbd 3fe4 5d3d db3c 013e e9c1 543d
00000040: 2051 c4bc daae 02bd 16cd 473c 489c 06be
00000050: 5269 dc3c 8175 0b3e ba2f 80bd ecc4 083e
00000060: 8406 3e3b 4b98 f33c e10e 1e3d 7259 86bc
00000070: f9da 0dbe 357e 04bd 96ff e3bd 72f6 ac3d
00000080: 9fdd 2bbd 26b5 47bd e584 09be b7ff 103c
00000090: 6e23 f73d 3c70 d63d 9876 a1bc 0daf f0bd
000000a0: bdc7 f83d ef6a 0b3c 5898 00be 6295 b2bd
000000b0: ce53 e53d 69f9 d83d c3e8 043c 0f99 acbd
000000c0: b1af ccbd 3f21 8dbd e383 8bbd 1dc5 103e
000000d0: 2a84 a4bc 0b40 d8bd f89b da3c 0e95 0e3c
000000e0: b154 c23d e0ff d1bd 47f6 073c 4564 a93d
000000f0: 0b70 9b3c 1cdd f8bd 6926 b83d 9d0b 00be
00000100: 3944 c8bd 7095 6ebd db2f 043c 386d babd
00000110: 360e d13c e529 9cbc 2dc4 b8bd 5075 d23c
00000120: 4822 ce3d b5ce aabc be34 b5bd f1bb 6dbd
00000130: 832c 94bd e881 ff3d a18b 123d be40 1a3c
00000140: 9b9f 763d eddf f3bd 4e11 3cbd 5696 043e
00000150: f4bd d73d 0c70 88bd 678f 1b3e 9ee8 debd
00000160: 5f36 91bd 9304 ba3d 1c87 e1bd 624b 763d
00000170: daf4 0abd 622c 8b3d 2086 0a3d bdd0 23bd
00000180: e072 06be d027 963d 9d6a 02be c577 dd3d
00000190: c0fc 39bd 5677 2cbc f825 f9bd 4986 cd3d
000001a0: 5a75 ab3d 4110 ffbd 4715 ca3d 66ae 81bd
000001b0: da31 dfbd 7df6 27bd 4220 0abe 12d8 d03d
000001c0: 70df 0b3e dc31 92bb ddfc 9a3d bcc0 0dbe
000001d0: 7bfe 0d3e 2ac8 403d 8c26 cdbd 099e 02be
000001e0: 7296 8b3d da84 e33d 5227 143d f951 113c
000001f0: 69d7 edbd ffcd 24bd 985e a1bd bed3 f53d
00000200: 3900 51bd 6d4a b0bd adb8 cc3d 6494 59bd
00000210: 9db8 c6bd 09ba e6bd 55a7 ed3c d7cb 04be
00000220: 5c74 103c 2d14 103e 41d9 0f3d 6fb4 cdbd
00000230: 3925 ebbd e477 c63d 2bc6 0cbe 44fa 4d3d
00000240: 9ca0 d63d 79ef 0a3b 02d4 e23d 2da4 b5bc
00000250: 098d 563d 9a93 ca3d 9373 23bc f023 93bb
00000260: ca0d 293c 13ca eb3d 55ab 243d 802d fbbc
00000270: a399 a1bd 0ce6 da3d bedc 01be e98b 12bd
00000280: 2e17 363d a18e febd 4000 e0bd 9cb0 b7bd
00000290: 5e78 fe3d 7874 fbbd 120c aa3d 9532 d0bd
000002a0: 5aba bfbd 13a1 443d b2aa e63c ac47 ba3c
000002b0: a9bc 54bd 106b 103e 1967 0dbe 2fa4 b3bc
000002c0: 85f2 d5bd 6e07 833d 39c9 9e3d 2e51 c13d
000002d0: 4f14 e03d 37a4 e73d bbee 043d 91e0 d13d
000002e0: 756c 103d 535f 4dbd 7a77 013e e535 04bd
000002f0: 2951 8ebb d3e2 1cbd e9a7 8a3c 6382 db3d
00000300: b4ec 643c b4a5 0fb7 7c5c a5bd 994f bbbd
00000310: 0f96 a7bb 2cd8 f63d d508 ca3c fd21 eabd
00000320: 6736 89bd 994d 0dbd b232 1e3d 8d33 0f3e
00000330: f2c3 d13d ac26 d33d 4c9a f53d f731 7f3c
00000340: 840b e4bc c5a2 f03c 3a7f 4d3d a402 993d
00000350: ade8 cebd 82bf babd c404 41bd 44ef 013e
00000360: adbd ec3d 56ab b13a e443 773d bcb8 a4bc
00000370: 632e 07be 084c e53d 8b68 fe3d 587d f93d
00000380: d93a a33d edde 593d 2426 2e3c 058c 803d
00000390: 6052 b1bd f9f3 1d3e c0a6 09be 17d7 d33d
000003a0: 3a5e 28be a50f c63c 5774 d93b 6751 8b3d
000003b0: 051c c3bd 8121 0cbe f9c7 0a3e 9481 e0bd
000003c0: 570e e9bc 37cc b9bd 33fc 073e e080 5cbd
000003d0: f9ae 9ebd fe6f 89bd 68a2 06be 5909 a7bc
000003e0: 7a0b 043e 0045 c0bc 5d3c e1bd 3fd5 cc3d
000003f0: 618b 17bd 1ffd 383d cad4 a43d 89c9 81bd
-0.11373271 -0.065703616 0.12418408 0.12860203 0.08674194 0.14021374 -0.018242152 0.055991452
0.0891111 -0.083174326 -0.12327946 0.10397322 -0.10783104 0.05417275 0.12620871 0.05194274
-0.023964465 -0.031905033 0.012194892 -0.13145554 0.02690569 0.13619043 -0.06259103 0.1335637
0.0028995583 0.029735705 0.03858841 -0.016400073 -0.13853063 -0.032346923 -0.111327335 0.08445443
-0.0419594 -0.04875674 -0.13429601 0.00885003 0.120673046 0.10470626 -0.01970987 -0.11752138
0.12147472 0.008509382 -0.12558115 -0.08719899 0.11197625 0.10594446 0.008112135 -0.08427631
-0.09994448 -0.06891107 -0.06812265 0.14137693 -0.020082552 -0.1055909 0.0266857 0.00870253
0.0948881 -0.102538824 0.008298463 0.08271078 0.018974325 -0.12151548 0.08991701 -0.1250443
-0.097786374 -0.058247983 0.00806805 -0.09102863 0.025519472 -0.019062946 -0.090217926 0.025690705
0.100651324 -0.020850519 -0.088479504 -0.058040563 -0.072350524 0.124759495 0.03577769 0.00941485
0.060210805 -0.11907945 -0.04591494 0.12947974 0.105342776 -0.06661996 0.15191422 -0.10884212
-0.070904486 0.09082904 -0.11012098 0.060130484 -0.033924915 0.06795575 0.033819318 -0.03999399
-0.13129759 0.073318124 -0.12735982 0.1081386 -0.045407057 -0.010526499 -0.12165445 0.100353785
0.083719924 -0.12454272 0.098673396 -0.06332092 -0.1089818 -0.041006554 -0.13488868 0.10197462
0.13659453 -0.00446151 0.07567761 -0.13843054 0.13866608 0.04706589 -0.10017118 -0.12755598
0.068158045 0.11109324 0.03617031 0.008869641 -0.11613352 -0.040235516 -0.078793705 0.12003277
-0.051025603 -0.086079456 0.099961616 -0.053120032 -0.09703181 -0.11265952 0.029010454 -0.12968384
0.008816805 0.14070196 0.0351193 -0.100441806 -0.11481709 0.09690836 -0.1374747 0.0502875
0.104798526 0.0021199866 0.110755935 -0.022173012 0.052380595 0.09891434 -0.0099762855 -0.004490368
0.010318229 0.11513152 0.040202457 -0.030661345 -0.07890632 0.10688409 -0.12681863 -0.03577796
0.0444557 -0.12429548 -0.10937548 -0.089692324 0.12425302 -0.12278074 0.083030835 -0.10165898
-0.093617156 0.048005175 0.028157566 0.022739254 -0.051937733 0.14103341 -0.1380886 -0.021928875
-0.104466476 0.063979015 0.07753224 0.09439312 0.109413736 0.11310618 0.032454234 0.10247911
0.035259683 -0.050139736 0.12643233 -0.03227796 -0.004343171 -0.038302254 0.016925769 0.10718229
0.01397245 -8.562045e-06 -0.080742806 -0.091460414 -0.005114324 0.1205295 0.024662415 -0.11432264
-0.066998295 -0.03449783 0.038622566 0.13984509 0.10242452 0.103101104 0.119923204 0.015575877
-0.027837522 0.02937449 0.05017016 0.07471207 -0.10102973 -0.091185585 -0.047123685 0.12688929
0.11559615 0.001355509 0.06036748 -0.02010762 -0.13201289 0.111961424 0.12422284 0.121821105
0.07970209 0.053191114 0.010629211 0.062767066 -0.0865829 0.154251 -0.13442516 0.103437595
-0.16442195 0.024177382 0.0066361832 0.06802636 -0.09526829 -0.13684656 0.13552846 -0.10962215
-0.02844922 -0.09072154 0.132798 -0.053833842 -0.07748217 -0.06710814 -0.1314789 -0.0203902
0.12895003 -0.023470402 -0.109978415 0.10001611 -0.036998156 0.04516327 0.08048399 -0.06337268

lstm.weight_hh_l0 f4 [200, 50]
00000000: e213 89bc b3ed 993d fcc3 af3d 1e5a 4cbb
00000010: 19fd 96bd db26 fabd e9dd 57bd e65b c3bd
00000020: 0d04 c43d 99b3 00bd 459b 81bd 628a 0c3e
00000030: 2e92 d93d 3506 c93d 6c4e 62bd 5fe0 ad3d
00000040: a025 f9bd 1107 c0bd 936d a33d 77fb 03bd
00000050: 0c59 9bbd a8fe 883d c826 e8bc 1a9d e03d
00000060: d90b 24bc 2195 cfbd 4acc 8c3c 01f1 d43d
00000070: 9a52 ce3c ea52 33bc 61e2 973d b7c2 3fbd
00000080: cc83 95bd c41c f9bc 5e70 083e bff5 b23d
00000090: fdec 0e3e 1c42 f43c f038 9cbd 608e 95bc
000000a0: 444c b13d 730f 90bd 9140 a8bc f41c 293d
000000b0: 42b1 a1bc 5397 073e bd90 313d 8502 b73d
000000c0: 097b 043e d3b0 92bd f6db c43b 03ec f83d
000000d0: e54d 873d 904d 8f3a 5494 04be e83c f5bd
000000e0: 2534 fdbd fd27 e63d 6aea 71bd f749 223d
000000f0: 1f9d 973d 6063 1fbd 12ee fc3c 995b 50bd
00000100: b199 abbd 761b 063e 5afa 1f3c 1760 013e
00000110: ebea 133d 5894 a53d 94d1 0d3e edad dfbc
00000120: 9420 3d3d 0a4f 8e3d 26ae 02bd 71dd d6bd
00000130: 83ba cabb 30d7 683d 6366 09be 1b7c 833d
00000140: ab10 053e bd97 803d 98e2 a93b 7316 0a3e
00000150: d965 7e3c b6e3 643d 92c2 97bd 4685 963d
00000160: a81a c4bd 5767 213d 119d b83c 1f48 c23d
00000170: f4d5 6bbd dcc7 d2bd abf3 e13d b2b6 503d
00000180: 3205 b7bd 0aed 703c ddb9 42bc c21b 083e
00000190: da23 14bd 452c 9e3d ed73 f53d c4cd 55bc
000001a0: 9582 9c3c 20ce 89bc 8943 4fbd 86a7 c7bc
000001b0: 3db2 0c3e cb4f 033d e731 01bd b710 913c
000001c0: 9f90 14be 9387 c3bd d0f0 56bd 1978 c33d
000001d0: b1f6 e8bd 33db 2b3d ceb8 063e c960 c03d
000001e0: c404 353c 5873 873c 70a5 c33d 49e0 b13d
000001f0: c56b edbd 54bf c0bd 24a7 cbbd 742e 113e
00000200: a77d 963d 8d5f 533d 698b 213c c3f9 0fbe
00000210: 4cca 08be 0b2a a13d 16d9 86bc 8fbe 9e3d
00000220: 9b1d c4bd 3389 d5bd 1dd1 54bd 65f2 efbd
00000230: 95f2 edbd e573 b7bb 1fcb 013e 1515 d6bb
00000240: cb72 5c3c a617 85bd 6df2 cb3d 43f7 c93d
00000250: 7f3b 9ebd 1c4d 5a3c f590 e5bd ba4d 87bc
00000260: a290 bcbd 3469 b53d 343e ea3d 04ca d0bd
00000270: 5e86 c13d aebe fc3d b560 03be a8dd 96bd
00000280: 1fe1 0f3e b529 d8bc e377 4a3d b7bf 6fbd
00000290: f8eb 743b 07e5 0c3d 6097 6f3d 5905 c23d
000002a0: bae0 ccbd 5201 19bc 71f3 05be ae55 bebd
000002b0: 44dc 19bb d76c 83bd 26ea ae3d ce8b ce3d
000002c0: 4fea 0fbe 8281 013e c829 1e3d 4156 6dbd
000002d0: 986f debd 5759 38bc 50d5 9e3c 5b8b 2cbd
000002e0: 2766 a6bd 0a90 a23d 0d86 b2bd 04c6 903d
000002f0: aaba 5abd f46f 7fbd 46f9 d9bd 9691 c6bd
00000300: 422e b9bc 8ff5 9ebd 5e19 713d 565e 87bd
00000310: f025 96bd 762c dcbb abe5 b43d f48a b23d
00000320: 3651 b23b 91ad e13c 1f9b b93d e726 a0bd
00000330: f19e 543c dbe1 01bd 705a e6bd 6a31 b2bd
00000340: d2e7 b03d e93c 4a3b c4e1 943d 600a 313d
00000350: d784 e93d e26b 0abe d19f 933d fcd1 d3bd
00000360: b5cb c73d f887 95bd 95ab 733c cca5 b7bd
00000370: 8f74 f13c 1009 c3bd 9e1c 983d d492 683c
00000380: dec6 01be 4ef3 1c3d 14cb ccbd 0581 693d
00000390: cb2c c23c 0dfb 043e e80b 8b3d 9e10 99bd
000003a0: 49ba e83c 9ff3 6bbd d762 0bbe a623 c93d
000003b0: 2d07 0dbe 2e07 0b3e 660c 0abe 709a c73d
000003c0: e2fd 783d 7796 60bd 7305 ad3d d9c0 1a3d
000003d0: b52e a93b d9b0 523d 39eb 57bd 619e b33d
000003e0: 6b7d dbbc 57ae 82bd 41ac e13d dc0c f4bd
000003f0: 6b67 e9bc 16b5 f9bd 99c2 bfbd 84a5 3fbd
-0.016733114 0.07516041 0.08582303 -0.0031181644 -0.07372493 -0.12214442 -0.052701864 -0.095390126
0.09571085 -0.031421278 -0.063284434 0.13724664 0.10623585 0.09815637 -0.05525057 0.08490061
-0.121653795 -0.09376348 0.07979884 -0.032222237 -0.07585344 0.06689197 -0.028338805 0.10967465
-0.01001259 -0.10135866 0.017187256 0.1039753 0.025185872 -0.010945061 0.07416225 -0.046816554
-0.07300529 -0.030409224 0.13324115 0.087382786 0.13957591 0.02981668 -0.076280475 -0.018256366
0.08657125 -0.07034197 -0.0205386 0.041287377 -0.019737843 0.1324132 0.043350924 0.089360274
0.12937559 -0.07162633 0.0060076667 0.12154391 0.06606654 0.001093315 -0.12947208 -0.119745076
-0.123634614 0.11238096 -0.059061445 0.03962132 0.07403015 -0.03891313 0.03087524 -0.050868604
-0.08378924 0.13096413 0.009764278 0.12634312 0.036112707 0.08084935 0.13849479 -0.027304614
0.046173647 0.06948669 -0.031904362 -0.10491455 -0.0061867847 0.056845844 -0.13417964 0.064201556
0.1299464 0.06278942 0.005184483 0.13485126 0.015527212 0.055881225 -0.07410158 0.07349639
-0.09575397 0.039405193 0.022535833 0.09486412 -0.05757709 -0.102920264 0.11032804 0.05095548
-0.08936538 0.014704952 -0.011885134 0.13291839 -0.036167003 0.077232875 0.11985002 -0.013049547
0.019105235 -0.01682192 -0.050601516 -0.024371874 0.13739868 0.03205852 -0.03154173 0.017708166
-0.14508294 -0.09547343 -0.05247575 0.09544391 -0.11375178 0.04195709 0.13156435 0.0939346
0.0110484995 0.016534492 0.09553039 0.08685357 -0.11592821 -0.09411493 -0.09943989 0.14177877
0.07348185 0.051604796 0.009859898 -0.1406012 -0.1335842 0.07869347 -0.016460937 0.0775119
-0.09575959 -0.10426559 -0.05195724 -0.11716155 -0.116185345 -0.0055985325 0.12675141 -0.006533275
0.013455103 -0.06498651 0.099583484 0.098616146 -0.07726192 0.013324048 -0.11209289 -0.016516555
-0.09207274 0.088579565 0.114376456 -0.101947814 0.09449457 0.12341057 -0.1282986 -0.07366496
0.1405072 -0.026387075 0.04943074 -0.058532443 0.0037372094 0.034398105 0.05849397 0.09473676
-0.10003801 -0.009338694 -0.13081147 -0.09293686 -0.0023477236 -0.06417244 0.08540754 0.100852594
-0.14054225 0.1264706 0.038614064 -0.057943586 -0.108611286 -0.011251769 0.019388825 -0.042125087
-0.08124953 0.079376295 -0.087169744 0.070690185 -0.053400673 -0.062362626 -0.10643248 -0.09695737
-0.022605065 -0.0776168 0.058862083 -0.0660979 -0.07331455 -0.0067191673 0.08832868 0.087179095
0.00544181 0.027548583 0.0906279 -0.0781992 0.012977348 -0.031709533 -0.11247718 -0.08700831
0.08637966 0.003085906 0.07269624 0.043222785 0.1140229 -0.13517717 0.07208217 -0.10342786
0.09755651 -0.073013246 0.014872451 -0.0896717 0.029474525 -0.09523213 0.07427333 0.014195163
-0.12673518 0.03831797 -0.099996716 0.05700781 0.023703 0.12986393 0.0678938 -0.074738726
0.02840914 -0.057605382 -0.13611923 0.098212525 -0.13772269 0.13576958 -0.13481292 0.097462535
0.060788997 -0.054830994 0.08448305 0.03778157 0.0051630386 0.051438186 -0.05271456 0.08770443
-0.026793202 -0.06380909 0.11019183 -0.11916515 -0.028491696 -0.121927425 -0.093632884 -0.046788707

lstm.bias_ih_l0 f4 [200]
00000000: 8711 7b3c ca56 883c 5bae 42bd d627 cabc
00000010: ed27 123e 6330 d1bd a539 243d 45c2 813d
00000020: abc5 003e cd4b a9bc 2762 76bd 98af 053e
00000030: 9caf a3bd ca90 f73d 86ef c4bd 35bc 893d
00000040: 5b63 f13c ddfc 913d fddd 083e f14e c1bd
00000050: 3920 8b3d 80e8 823d 33c8 5bbd f7ea d3bd
00000060: 36cd 52bd 4985 d8bc 9d1a 40bd c3d3 00be
00000070: 6a0a 03bd dbe8 efbc f93a e73d d510 c13d
00000080: 973f 363d 828f 8bbd 7fe2 8e3c 28e4 7fbd
00000090: fd50 613d 90fc 12bd a60d 09be 2ebe 983d
000000a0: 3e30 cc3d 476a 0ebd 0a34 4d3c d00a 9dbd
000000b0: 4f88 8ebd 1a58 b23d a3c5 4ebd d4bf 6abd
000000c0: 1fb1 003d c1b2 973d 692e d43d 9829 013e
000000d0: 04ef f33d d524 5dbc 3976 b1bd 6640 bd3d
000000e0: 6576 313a f405 a23d ae09 223d 3857 0a3e
000000f0: f52f 1ebd 1f86 383d 2117 f8bd 0682 0d3e
00000100: dc57 a5bc 5d48 17bd 0adf 00be ced3 023c
00000110: b3ca fbbc 813a 993d 5164 ef3b 83ee e4bd
00000120: 3fa4 3bbd ebb4 c93d becd 1ebc beab 95bd
00000130: c884 f7bd 1edd 8fbd c8c1 67bb 29df 9e3d
00000140: 1316 d0bd d716 c63d 041a 433d 7faa f3bd
00000150: 4300 37bd 37ce ddbd e111 0dbe 0eb8 df3d
00000160: a428 e83d 703e 0d3c 0147 113e 0375 833b
00000170: ce0e dbbc 33be 213c c0c5 92bc 2e7f 00bd
00000180: a2f8 973c c067 0d3e 902e 093d d99d f0bc
00000190: afbf aa3c 9b4b 193c 2b22 ca3d bf47 09be
000001a0: 50ec aabd d51c 453c cb5b 223d 883e c8bd
000001b0: 4b1a 333d df93 cdbd eb37 b4bd f020 153a
000001c0: 2f0b cfbd aadf 7e3d 1fb0 c83d b710 0a3e
000001d0: 2309 17be b582 d4bb af65 cc3d b259 033e
000001e0: cc55 cf3c 9ed7 d33d ed9d abbd 71df aabd
000001f0: ace0 653c ecca 08bd 2837 f8bd 4960 053d
00000200: 1254 e33d b7b3 ffbc 9a77 e43d 5764 9e3d
00000210: 5751 17be 2991 a7bd 8f6a bfbd 50e6 173d
00000220: 5928 ccbc a4d7 973c c38f 283d 4211 1f3c
00000230: b887 f6bd 602e 2a3c c944 e1bd e689 3abc
00000240: 7601 ea3d bfd8 51bd 1f14 503d b326 8e3d
00000250: 1f99 41bd af9b 0dbe 72d0 be3d 4bb2 1d3c
00000260: b10f a33d 5640 50bc 0ef4 fd3d 39b1 033e
00000270: 7d37 093d f612 aabd 6716 cb3d a9c7 0abe
00000280: f2ea f23d 3d56 a5bc 4e37 283c 4b5d 78bb
00000290: 8407 acbd 51ac c8bd cb17 ab3d a1a6 a53d
000002a0: ec71 9a3d f830 3c3c 1e8c f43d b9d5 7e3d
000002b0: 4cbe cb3d cc41 7c3c d4ee 57bd 6e2b 1d3d
000002c0: 69c4 823d b3a8 fa3d db44 02be cbbd b2bc
000002d0: 57a3 1bbd f020 31bd d3c5 c3bc ddaf a7bc
000002e0: dce0 8c3d 6c0d 70bd 5b23 acbd 4b95 7e3c
000002f0: 19f2 1a3e bc00 0fbc 7ebe ec3b e8f1 93bc
00000300: 8f6b adbd 9473 2fbd 12f3 fb3d 051e 5abb
00000310: fc8f 113d 3fc8 593b c120 01be e1df 85bd
0.015324003 0.016642947 -0.04752956 -0.024677198 0.14273043 -0.10214307 0.040094037 0.06335882
0.12575404 -0.020666027 -0.0601522 0.13055265 -0.07992479 0.12088163 -0.09615998 0.06725351
0.029466322 0.07128308 0.13365932 -0.09438885 0.06793255 0.06392002 -0.05365772 -0.1034755
-0.051465236 -0.026430743 -0.04690038 -0.1258078 -0.031992353 -0.029285839 0.11290545 0.094270386
0.044494238 -0.06814481 0.017441986 -0.062473446 0.055008877 -0.035885394 -0.13384113 0.07458149
0.09970139 -0.034769323 0.012524614 -0.07668078 -0.069595926 0.0870821 -0.05048145 -0.057311848
0.031418916 0.074071415 0.103604145 0.12613523 0.11910823 -0.013497551 -0.08665127 0.09240799
0.00067696563 0.07911292 0.039560013 0.13509834 -0.038619954 0.045049783 -0.121137865 0.13819131
-0.020183496 -0.036934245 -0.12585083 0.0079850685 -0.030736303 0.07481862 0.00730566 -0.11178305
-0.045810934 0.098489605 -0.009692607 -0.07308148 -0.12085873 -0.07024597 -0.0035363305 0.07757408
-0.1016046 0.09672325 0.047632232 -0.11897754 -0.044677984 -0.10830348 -0.13776352 0.109237775
0.113358766 0.008620843 0.14187242 0.0040117516 -0.026740458 0.009872007 -0.01791656 -0.031371288
0.018551175 0.13809109 0.03349167 -0.029372143 0.020843355 0.009356405 0.09869798 -0.13406275
-0.08345854 0.0120308 0.03963832 -0.09777552 0.043726247 -0.1003797 -0.08799728 0.0005688807
-0.10109555 0.06222502 0.097992174 0.13482939 -0.14749579 -0.006485308 0.09980332 0.12827185
0.025309466 0.1034386 -0.08379731 -0.08343399 0.014030617 -0.033396646 -0.12119895 0.032562528
0.111000195 -0.031213624 0.11155625 0.07733982 -0.14777122 -0.08181984 -0.09346496 0.037084877
-0.024921583 0.018535443 0.041152727 0.009708704 -0.12037605 0.010387033 -0.10999448 -0.011385417
0.1142606 -0.051232096 0.05080044 0.06940975 -0.04726517 -0.1382892 0.093171015 0.009625028
0.07961977 -0.012710651 0.12400065 0.12860574 0.033500183 -0.08304398 0.09916382 -0.13552727
0.118612185 -0.020182723 0.010267092 -0.0037897404 -0.08399871 -0.09798492 0.083541475 0.080884226
0.0754126 0.011486284 0.11940788 0.06221554 0.099484056 0.015396547 -0.052718 0.038371496
0.063851185 0.12239208 -0.12721579 -0.021819016 -0.03799757 -0.043244302 -0.02389804 -0.0204696
0.06878826 -0.05860655 -0.08405181 0.015538524 0.15131415 -0.008728202 0.007224857 -0.018059686
-0.08467781 -0.042834833 0.12302221 -0.0033282053 0.035537705 0.0033230928 -0.12610151 -0.06536842
