models/LSTM_RL/output/il_model.pth (torch, 190913 bytes, 11 tensors)

mlp.0.weight f4 [150, 56]
-0.069782704 -0.006061198 0.103321284 0.09278851 -0.062476955 -0.12466302 -0.114732265 -0.068142526
0.08124175 0.009215231 0.011872306 -0.11149586 -0.11214062 -0.111776315 -0.1236329 0.031896185
0.053891193 -0.047556203 -0.0001485529 0.02150878 0.12523511 0.085947126 -0.044839833 0.009114522
0.12556756 0.08710644 -0.13089362 -0.07400072 -0.0100867 0.12754975 -0.069049455 0.10961216
0.028759282 -0.07003394 -0.11473541 -0.025932137 0.004276707 -0.02355456 -0.07044992 -0.0474695
-0.007826788 -0.09349838 -0.033199217 0.033647463 -0.0071838694 0.0058596563 -0.09059744 0.042872082
-0.052510336 0.094539806 0.008607733 0.06684264 -0.016295526 -0.024247374 -0.023399753 -0.02967484
0.041709993 0.07255336 -0.09563724 -0.12130182 -0.056318443 -0.056193158 -0.12988096 -0.07035698
-0.080885224 -0.059765693 -0.037293743 -0.035134424 0.043473035 0.04218831 0.04806818 0.018641321
-0.038956545 -0.027143922 0.06763178 -0.12346237 0.10641034 -0.07975431 0.0052823992 -0.100761525
0.12341025 -0.10393315 -0.1088783 0.07150413 -0.035612743 -0.09921942 0.12270362 -0.12626946
0.08771228 -0.08466621 0.023612212 -0.10777994 0.079611346 0.040521726 0.052259583 -0.12383334
-0.07947194 -0.10337602 0.064336024 0.09349971 -0.10220195 -0.08470575 -0.11771036 -0.046488497
0.09348703 0.13026379 0.030241584 -0.1360876 -0.12543784 0.084000915 0.060619645 -0.090048686
0.01747176 -0.05784424 0.07815743 0.024146384 0.13033262 0.020646099 -0.07606655 -0.02389831
0.114925034 0.094440326 -0.0018366299 0.05172165 -0.10754559 0.10291666 0.045899004 0.047806773
0.13047354 -0.12760608 -0.12849028 0.06685796 0.119287275 0.08684664 0.07424785 -0.10218845
-0.09989999 0.020337028 0.049600467 0.015149661 0.08341354 0.037089325 -0.0917882 -0.026449062
0.122877665 -0.0009684933 -0.05966899 -0.09020454 -0.095995456 -0.043471944 0.05309443 -0.036439195
-0.002896616 0.05928492 -0.037508514 -0.009550701 0.07586009 0.048900694 0.025308678 -0.094393596
-0.025240187 -0.05511646 0.013499945 0.011197153 -0.04404791 -0.014349073 -0.07691587 -0.013410919
-0.032198206 0.059218053 -0.067413054 0.067454465 0.110413626 0.097486325 -0.09859275 0.014402408
0.072834246 -0.12626094 0.11421754 -0.003292667 -0.08983277 -0.13798794 -0.041220754 -0.01068729
-0.0792223 -0.121806554 -0.13086551 0.11588067 -0.09104532 -0.12829652 0.13966571 -0.034828484
-0.021719867 0.05886923 0.04070221 -0.10305037 0.037234858 0.045667842 -0.07371301 0.06363422
-0.08051488 -0.09856265 -0.12083966 -0.08164709 -0.075409725 0.010753066 -0.07784337 0.07667017
-0.060735967 0.05244711 0.048734147 -0.0046086987 -0.00090786 0.027046496 -0.12764452 0.044523243
-0.09653145 0.07635741 -0.12586066 0.13695034 -0.08131059 -0.09340811 0.09743586 -0.018960414
0.030747883 0.085612044 0.12248976 -0.08364528 -0.029230122 -0.024486993 -0.12094794 0.1328189
-0.06192594 0.04311125 -0.042816 0.1267816 0.004178629 0.0270393 0.02145871 0.12399348
0.042730596 -0.06992128 0.050790913 0.07671659 0.007974087 0.09048384 0.0674028 0.049157172
0.038013436 0.081178784 -0.08985627 -0.09646837 0.081100486 -0.04121553 -0.08640256 -0.014484579
00000000: 3cea 8ebd 049d c6bb 1c9a d33d e707 be3d
00000010: d6e7 7fbd 534f ffbd c0f8 eabd 4f8e 8bbd
00000020: 1362 a63d 7bfb 163c 0f84 423c f157 e4bd
00000030: fba9 e5bd fbea e4bd 3f33 fdbd 93a5 023d
00000040: 03bd 5c3d 4bca 42bd dec4 1bb9 2e33 b03c
00000050: a23d 003e 0c05 b03d f9a9 37bd 1355 153c
00000060: c894 003e dc64 b23d fa08 06be b18d 97bd
00000070: b042 25bc 679c 023e cd69 8dbd 577c e03d
00000080: 9698 eb3c f46d 8fbd 66fa eabd a26f d4bc
00000090: 9e23 8c3b 7ef5 c0bc 0c48 90bd 616f 42bd
000000a0: ee3b 00bc 147c bfbd e7fb 07bd ecd1 093d
000000b0: aa66 ebbb 5c02 c03b 278b b9bd a39a 2f3d
000000c0: 1415 57bd 169e c13d 7307 0d3c cbe4 883d
000000d0: 327e 85bc 6ea2 c6bc d7b0 bfbc a618 f3bc
000000e0: 19d8 2a3d db96 943d 75dd c3bd 176d f8bd
000000f0: 2bae 66bd cc2a 66bd 84ff 04be 5217 90bd
00000100: 27a7 a5bd dfcc 74bd 53c1 18bd 1de9 0fbd
00000110: c810 323d a6cd 2c3d 24e3 443d afb5 983c
00000120: e690 1fbd ee5c debc 8882 8a3d d7d9 fcbd
00000130: aaed d93d 3a56 a3bd fa17 ad3b 0f5c cebd
00000140: 83be fc3d e7da d4bd 96fb debd c270 923d
00000150: abde 11bd 8d33 cbbd 094c fb3d c84c 01be
00000160: 7fa2 b33d 7a65 adbd 666e c13c bbbb dcbd
00000170: 460b a33d 1cfa 253d 250e 563d 569c fdbd
00000180: 2fc2 a2bd cfb6 d3bd 9bc2 833d c77c bf3d
00000190: 424f d1bd 357a adbd 2112 f1bd b96a 3ebd
000001a0: 2176 bf3d df63 053e 33bd f73c 8c5a 0bbe
000001b0: c772 00be ac08 ac3d 4e4c 783d 726b b8bd
000001c0: f020 8f3c 15ee 6cbd 0111 a03d a3ce c53c
000001d0: ea75 053e 0222 a93c c8c8 9bbd 63c6 c3bc
000001e0: d15d eb3d ee69 c13d 13bb f0ba 15da 533d
000001f0: dd40 dcbd f8c5 d23d 9800 3c3d 09d1 433d
00000200: db9a 053e 2bab 02be f592 03be d3ec 883d
00000210: e34c f43d a7dc b13d 420f 983d 2e48 d1bd
00000220: 5e98 ccbd d799 a63c dc29 4b3d 4936 783c
00000230: b8d4 aa3d faea 173d 74fb bbbd b4ab d8bc
00000240: 49a7 fb3d 7ce2 7dba 7967 74bd 28bd b8bd
00000250: 4499 c4bd a30f 32bd 8c79 593d 4441 15bd
00000260: 27d5 3dbb bfd4 723d 87a2 19bd 8b7a 1cbc
00000270: 895c 9b3d 184c 483d 2554 cf3c 6e51 c1bd
00000280: 82c4 cebc ccc1 61bd e02e 5d3c 4374 373c
00000290: 956b 34bd 6018 6bbc 1186 9dbd 79b9 5bbc
000002a0: 44e2 03bd a18e 723d db0f 8abd 9125 8a3d
000002b0: 8a20 e23d e9a6 c73d ffea c9bd 14f8 6b3c
000002c0: 1f2a 953d 8c4a 01be e3ea e93d c9c9 57bb
000002d0: 3efa b7bd b64c 0dbe 18d7 28bd be19 2fbc
000002e0: 4d3f a2bd b775 f9bd 9c01 06be d852 ed3d
000002f0: f875 babd 2a60 03be 8704 0f3e 50a8 0ebd
00000300: dded b1bc dd20 713d 5cb7 263d 130c d3bd
00000310: 9483 183d 340e 3b3d d9f6 96bd a852 823d
00000320: fce4 a4bd 37db c9bd c97a f7bd 9736 a7bd
00000330: 6a70 9abd a12d 303c 586c 9fbd 4005 9d3d
00000340: 47c6 78bd c8d2 563d 759d 473d 9104 97bb
00000350: 74fd 6dba 9d90 dd3c 3fb5 02be 015e 363d
00000360: 48b2 c5bd 4661 9c3d 9ee1 00be b63c 0c3e
00000370: 2b86 a6bd c04c bfbd 748c c73d df52 9bbc
00000380: fce2 fb3c 5e55 af3d e9db fa3d 374e abbd
00000390: 0274 efbc f298 c8bc 8eb3 f7bd ad01 083e
000003a0: 0ea6 7dbd 6c95 303d d45f 2fbd 09d3 013e
000003b0: e1ec 883b 8681 dd3c 2dca af3c 4bf0 fd3d
000003c0: 4706 2f3d e332 8fbd 220a 503d 961d 9d3d
000003d0: bfa5 023c 974f b93d 7b0a 8a3d 0859 493d
000003e0: fab3 1b3d 1041 a63d 9006 b8bd 3591 c5bd
000003f0: 0318 a63d 9ed1 28bd d3f3 b0bd ba50 6dbc

mlp.0.bias f4 [150]
0.0018176143 0.015589609 0.014858576 -0.03360633 0.0033600116 0.116319455 -0.06197861 0.08443132
-0.11963897 0.12006252 -0.036056865 0.053024814 0.114222445 -0.087112494 0.07264936 -0.11121455
-0.037764993 -0.009104384 -0.06256915 0.09298246 0.080138355 0.12203343 0.08397314 -0.07456719
0.11516532 0.060927607 0.023462856 -0.034177568 0.08698403 -0.017867452 -0.0039400323 -0.11379263
-0.06544138 0.10648753 0.10016964 -0.09154924 0.10816841 0.09258477 0.022979612 0.065861486
-0.012694574 0.13139041 -0.00727818 0.02182646 -0.09082603 -0.08283557 -0.08252933 0.07022015
0.0017826069 -0.053308573 -0.09576943 0.02341581 -0.07891529 0.030490248 0.0338679 -0.056423705
0.031439405 0.0751244 -0.04686495 -0.07874777 -0.09690381 0.07218601 -0.12842977 0.06775605
-0.098910585 0.083827645 0.07399097 -0.039117407 0.10762743 0.0015776606 -0.08393466 0.004328654
-0.038210418 0.1054356 0.11177203 0.031835224 -0.039895322 -0.13194972 0.0606914 0.099157944
-0.067830764 -0.03896516 -0.07507705 0.1454221 0.13342066 -0.11195803 -0.06322501 0.076786704
-0.03619929 -0.076180525 -0.12609804 -0.104009174 0.08630551 -0.015124523 -0.13656963 0.06365909
0.008858217 0.017337264 0.027210606 0.015516131 0.0646556 -0.12501961 -0.0056521916 0.108545765
0.05710947 -0.10109103 -0.099658474 0.1241796 0.07658208 -0.12995929 0.12117512 -0.09126162
0.111798964 -0.09921776 -0.052549236 0.049182516 -0.10859961 -0.003199039 -0.06818792 -0.06785963
0.090535484 -0.12820148 0.09441836 0.08956056 0.12687497 -0.118287355 -0.023412907 0.063618824
0.087791085 0.048875403 0.1288357 0.056043398 -0.036347475 -0.055642065 0.055673122 -0.05910762
0.12254898 0.07784234 0.036204834 0.097821765 -0.13648114 -0.025154507 -0.07622564 0.10290273
-0.06799332 0.07232735 -0.11829701 0.11332609 0.054818224 0.040999733
00000000: 043d ee3a 8f6b 7f3c 6271 733c cba6 09bd
00000010: a433 5c3b e538 ee3d 48dd 7dbd 54ea ac3d
00000020: 4705 f5bd 57e3 f53d 5db0 13bd 8c30 593d
00000030: 75ed e93d 0968 b2bd 30c9 943d 74c4 e3bd
00000040: 77af 1abd 8e2a 15bc 4124 80bd 976d be3d
00000050: 941f a43d aaec f93d 1cfa ab3d afb6 98bd
00000060: ccdb eb3d 3a8f 793d 2d35 c03c c7fd 0bbd
00000070: af24 b23d c35e 92bc 631b 81bb 1c0c e9bd
00000080: 2106 86bd 2216 da3d bd25 cd3d 2b7e bbbd
00000090: 6687 dd3d 159d bd3d bd3f bc3c 63e2 863d
000000a0: e7fc 4fbc 358b 063e cd7d eebb 67cd b23c
000000b0: ff02 babd b2a5 a9bd 2305 a9bd 95cf 8f3d
000000c0: 5da6 e93a 175a 5abd c322 c4bd 83d2 bf3c
000000d0: 579e a1bd afc6 f93c 11b9 0a3d 8b1c 67bd
000000e0: 9bc6 003d d2da 993d 76f5 3fbd 8346 a1bd
000000f0: 8175 c6bd 42d6 933d 1883 03be afc3 8a3d
00000100: a291 cabd d4ad ab3d 9488 973d 9339 20bd
00000110: c56b dc3d 81c9 ce3a efe5 abbd 62d7 8d3b
00000120: 8782 1cbd 9fee d73d bce8 e43d a765 023d
00000130: 4769 23bd d41d 07be 8c97 783d 5213 cb3d
00000140: dbea 8abd ee99 1fbd ffc1 99bd 88e9 143e
00000150: 6d9f 083e 404a e5bd 1d7c 81bd 5942 9d3d
00000160: b545 14bd 8904 9cbd d81f 01be c302 d5bd
00000170: f1c0 b03d d9cc 77bc e9d8 0bbe b25f 823d
00000180: 0e22 113c e106 8e3c c7e8 de3c 5f37 7e3c
00000190: 286a 843d 2405 00be 0536 b9bb 3e4d de3d
000001a0: 9feb 693d d008 cfbd be19 ccbd e051 fe3d
000001b0: 11d7 9c3d 0c14 05be a92a f83d 5fe7 babd
000001c0: dbf6 e43d ae32 cbbd de3d 57bd 9b73 493d
000001d0: 7969 debd f8a6 51bb 1ca6 8bbd fdf9 8abd
000001e0: ab6a b93d 4047 03be 6a5e c13d 876b b73d
000001f0: 83eb 013e a440 f2bd 6dcc bfbc 964a 823d
00000200: d0cb b33d 9331 483d 81ed 033e c38d 653d
00000210: 17e1 14bd efe8 63bd 8009 643d d51a 72bd
00000220: f6fa fa3d ce6b 9f3d 854b 143d c756 c83d
00000230: b6c1 0bbe d310 cebc 301c 9cbd abbe d23d
00000240: 1540 8bbd 5d20 943d b445 f2bd 8217 e83d
00000250: 1389 603d 56ef 273d

mlp.2.weight f4 [100, 150]
-0.06534256 -0.06920471 0.050653446 -0.010748243 0.027591549 -0.010408575 -0.044904448 -0.026784008
-0.022988917 -0.07018157 0.021983026 -0.023705926 0.07113237 -0.089562535 0.043626565 0.05155222
-0.012430923 -0.02493644 -0.05225779 -0.068550475 0.008893962 -0.037580125 0.00027765575 0.0023679086
0.035518657 0.030120343 -0.02000905 -0.011610289 -0.0673149 0.07162628 0.009277251 -0.05389189
0.06761114 -0.024033487 0.055691987 0.07717063 -0.019951355 0.058227222 -0.022238595 0.02703594
0.08126307 0.0044321567 0.03568441 0.0056429105 -0.0028569582 0.07876691 0.009279403 -0.0795148
-0.02131726 0.017142149 0.035705686 -0.017398011 0.062490936 0.060260653 -0.0065900716 -0.023083735
0.030221049 -0.05482969 -0.068974644 -0.08725109 -0.03627292 -0.034005497 -0.032041274 0.07782964
0.022112366 0.06688841 0.047837444 -0.09076476 0.031987567 0.022756277 -0.048743144 0.047133204
0.032024316 0.0013831621 -0.003996227 -0.09128052 -0.040351167 -0.03820753 0.04327175 0.040461354
0.04192898 0.054601397 -0.04199485 0.064459994 -0.040737383 0.069250084 0.025891913 -0.0073315618
0.06282929 0.021968598 -0.027103212 0.048392147 -0.06723389 -0.0161248 -0.07597939 -0.031862605
0.0516721 0.03537625 0.038265254 0.07760645 -0.018570207 -0.04467993 -0.04038232 0.025997436
0.08419249 0.06914874 -0.04187088 -0.07202103 -0.0065170145 -0.052543014 -0.06433176 -0.03209106
0.020471094 0.03546262 0.035671476 -0.061583407 0.007146271 -0.020737298 0.061370354 -0.07755951
0.043105196 0.037575617 0.0652111 -0.09440326 0.057211895 -0.033401 -0.021014545 0.038194235
0.032631237 -0.06710217 -0.07738887 0.023789022 -0.017189192 -0.061819166 0.04952562 0.061758555
0.03490338 0.041375197 -0.00092878146 -0.031234602 -0.052567422 0.0497152 0.07849762 0.09860675
-0.060260702 -0.07200298 -0.052279998 0.08000194 0.03831235 0.064621374 -0.02148424 0.003293824
-0.0128959315 -0.051480453 0.0220346 -0.030045344 0.036727656 0.06219413 0.017178135 0.06284396
0.010953927 -0.03195049 -0.0016655267 0.044577036 0.06259952 0.07160431 0.004758094 0.00610834
0.057390276 -0.0077517363 0.007980712 -0.023824625 -0.008909683 -0.0405203 -0.03630659 0.05702287
0.0008437368 0.042819038 0.0074582063 0.06337314 0.03387314 0.013109009 -0.05862341 -0.02287513
0.06308624 -0.07091423 -0.0741759 -0.07201938 -0.079713315 0.0427186 -0.0054097762 0.055097956
-0.058263034 0.019724421 -0.0004589595 -0.06961582 0.015647817 0.028010368 0.05673705 -0.06381689
-0.018307986 -0.017998144 0.012297825 0.062481426 -0.062001992 0.05221922 -0.016664376 0.069235206
-0.007341462 -0.018798538 0.03080486 -0.060798798 0.077365026 -0.058631096 0.015033121 -0.08052544
-0.012680623 -0.041456897 0.04270523 0.02053596 0.054774687 -0.03176974 0.004855582 -0.03922247
-0.032799907 0.036957953 0.06433124 -0.0447306 0.020710781 0.06878898 0.07261164 -0.064721905
-0.08942144 -0.07731964 0.038524006 0.06284306 -0.08147405 -0.046286546 -0.06460545 -0.03130544
0.074270256 -0.070434794 -0.0186534 -0.0074157785 -0.057443958 -0.009962814 0.016750254 -0.008153603
0.08101433 0.041728027 0.03190883 -0.042585738 -0.025520189 0.0049300487 -0.05911429 -0.021897797
00000000: 52d2 85bd 33bb 8dbd fd79 4f3d 6619 30bc
00000010: ac07 e23c ba88 2abc baed 37bd 236a dbbc
00000020: 4153 bcbc 5bbb 8fbd bf15 b43c ee32 c2bc
00000030: d9ad 913d 906c b7bd c5b1 323d 6c28 533d
00000040: 12ab 4bbc 8147 ccbc 440c 56bd 3164 8cbd
00000050: fbb7 113c 9eed 19bd 5392 9139 ea2e 1b3b
00000060: 037c 113d f0be f63c 05ea a3bc 1539 3ebc
00000070: 65dc 89bd cdb0 923d 9cff 173c bebd 5cbd
00000080: b677 8a3d e0e1 c4bc 481d 643d a30b 9e3d
00000090: 0671 a3bc ab7f 6e3d b72d b6bc 7a7a dd3c
000000a0: 416d a63d a03b 913b d129 123d 2ae8 b83b
000000b0: ce3b 3bbb 8c50 a13d a308 183c a8d8 a2bd
000000c0: 89a1 aebc b16d 8c3c 2040 123d 4686 8ebc
000000d0: 7ff6 7f3d e0d3 763d 87f1 d7bb 1a1a bdbc
000000e0: 2292 f73c 1995 60bd 9442 8dbd b3b0 b2bd
000000f0: ea92 14bd 5949 0bbd b63d 03bd 2565 9f3d
00000100: fe24 b53c cafc 883d 32f1 433d e0e2 b9bd
00000110: 6505 033d 5f6b ba3c e4a6 47bd bf0e 413d
00000120: ee2b 033d 384b b53a c8f2 82bb 48f1 babd
00000130: 4447 25bd 807f 1cbd b83d 313d ceba 253d
00000140: b9bd 2b3d b7a5 5f3d cb02 2cbd 9a03 843d
00000150: 3edc 26bd fdd2 8d3d 471b d43c 993d f0bb
00000160: a5ac 803d 7df7 b33c 8e07 debc d836 463d
00000170: ecb1 89bd 2818 84bc 159b 9bbd 5d82 02bd
00000180: 20a6 533d b0e6 103d 07bc 1c3d 21f0 9e3d
00000190: 8c20 98bc 4d02 37bd ee67 25bd 93f8 d43c
000001a0: 1d6d ac3d db9d 8d3d cd80 2bbd c37f 93bd
000001b0: ae8c d5bb 5837 57bd 5fc0 83bd ea71 03bd
000001c0: ffb2 a73c 4141 113d 411c 123d e23e 7cbd
000001d0: 442b ea3b 44e1 a9bc 7b5f 7b3d 85d7 9ebd
000001e0: 138f 303d e4e8 193d 668d 853d 7f56 c1bd
000001f0: 0557 6a3d 7dcf 08bd b226 acbc 8f71 1c3d
00000200: 55a8 053d dd6c 89bd 0e7e 9ebd 32e1 c23c
00000210: 59d0 8cbc 1836 7dbd 60db 4a3d 8af6 7c3d
00000220: d9f6 0e3d 0a79 293d 7879 73ba b5df ffbc
00000230: f050 57bd 2aa2 4b3d 5cc3 a03d 56f2 c93d
00000240: edd3 76bd 4c76 93bd 8d23 56bd 0fd8 a33d
00000250: 69ed 1c3d 3658 843d b8ff afbc 32dd 573b
00000260: 7549 53bc 2bdd 52bd e881 b43c a721 f6bc
00000270: bd6f 163d 46bf 7e3d 29b9 8c3c 56b4 803d
00000280: 1a78 333c 84de 02bd cd4d daba 6996 363d
00000290: 2d34 803d 48a5 923d c9e9 9b3b 7828 c83b
000002a0: 1112 6b3d 4702 febb 88c1 023c dc2b c3bc
000002b0: ebf9 11bc 9df8 25bd 38b6 14bd d090 693d
000002c0: 382e 5d3a 0463 2f3d f863 f43b c7c9 813d
000002d0: 90be 0a3d 2bc7 563c 1a1f 70bd a064 bbbc
000002e0: 5c33 813d 7b3b 91bd 89e9 97bd e67e 93bd
000002f0: bc40 a3bd b3f9 2e3d 7e44 b1bb 65ae 613d
00000300: 38a5 6ebd 1c95 a13c 80a0 f0b9 bd92 8ebd
00000310: da2f 803c 0076 e53c 1c65 683d 6eb2 82bd
00000320: a1fa 95bc d870 93bc d17c 493c 86ec 7f3d
00000330: cdf5 7dbd d2e3 553d bb83 88bc 30cb 8d3d
00000340: a690 f0bb 64ff 99bc 795a fc3c 2908 79bd
00000350: 8e71 9e3d 2927 70bd 7b4d 763c 86ea a4bd
00000360: 63c2 4fbc b5ce 29bd aeeb 2e3d 083b a83c
00000370: 6c5b 603d fd20 02bd 931b 9f3b bea7 20bd
00000380: 3259 06bd 3961 173d 19c0 833d 6f37 37bd
00000390: a8a9 a93c 3de1 8c3d 69b5 943d eb8c 84bd
000003a0: 9722 b7bd c259 9ebd 59cb 1d3d ddb3 803d
000003b0: dedb a6bd f696 3dbd dd4f 84bd 223a 00bd
000003c0: 011b 983d 1e40 90bd 04cf 98bc 0f00 f3bb
000003d0: 5b4a 6bbd 123b 23bc d437 893c b196 05bc
000003e0: d7ea a53d 02eb 2a3d d5b2 023d 626e 2ebd
000003f0: b70f d1bc 3f8c a13b d321 72bd 0263 b3bc

mlp.2.bias f4 [100]
0.01628351 0.062141173 -0.041157432 0.02851872 -0.023186006 0.010519954 0.034807988 -0.05148268
0.014197524 0.04041457 -0.026350431 -0.06787405 -0.055161327 -0.062208403 0.061706226 -0.039550584
0.061552387 0.08488568 -0.050453525 -0.00090130273 -0.029422348 -0.0014252411 0.06576545 0.044601776
-0.029137969 0.009066411 -0.022305824 -0.026093677 0.012905594 0.05895042 0.048130766 0.049645763
-0.04525119 -0.035165288 -0.03251138 0.046863157 -0.05443777 0.018524926 0.060920224 -0.03216084
-0.0367281 -0.0068700076 0.07378207 0.12449955 0.08948474 0.039728027 -0.059155278 0.03179674
0.02505673 0.035411656 0.005824207 -0.016169991 -0.020106114 -0.046387184 -0.046516404 0.062074
-0.08262946 -0.08949253 -0.06374678 -0.034935586 -0.002552347 -0.0348493 0.039701637 -0.024143318
-0.04651809 0.07664937 0.017795406 0.05265707 -0.014615612 0.013241922 0.003141164 0.124781445
0.0007443161 0.004171003 -0.019668493 -0.08474389 0.062395524 -0.009565277 -0.08273427 -0.048199132
0.0010440641 0.010653067 -0.00030817397 0.07816474 0.08294164 -0.06744142 0.08924965 -0.024090206
0.05854682 0.025186466 0.06578309 -0.030855358 0.05254291 -0.024947945 0.014271149 0.0061373156
0.049925186 -0.0072638206 -0.035255592 -0.066404164
00000000: ff64 853c be87 7e3d b294 28bd 17a0 e93c
00000010: 94f0 bdbc e35b 2c3c d292 0e3d 81df 52bd
00000020: bb9c 683c c089 253d dcdc d7bc 8d01 8bbd
00000030: d8f0 61bd 3dce 7ebd abbf 7c3d cbff 21bd
00000040: 5b1e 7c3d 8bd8 ad3d 5ba8 4ebd 6745 6cba
00000050: 2307 f1bc 28cf baba 09b0 863d 5ab0 363d
00000060: c0b2 eebc 498b 143c b4ba b6bc 68c2 d5bc
00000070: fc71 533c ff75 713d c424 453d 5b59 4b3d
00000080: 5059 39bd 7a09 10bd a72a 05bd 95f3 3f3d
00000090: 24fa 5ebd 96c1 973c 7c87 793d 16bb 03bd
000000a0: 3470 16bd cd1d e1bb 0e1b 973d 9ff9 fe3d
000000b0: c643 b73d dbb9 223d ce4c 72bd 4c3d 023d
000000c0: c543 cd3c d00b 113d fdd8 be3b ee76 84bc
000000d0: 94b5 a4bc 7d00 3ebd fc87 3ebd 4e41 7e3d
000000e0: a239 a9bd dc47 b7bd ac8d 82bd 9e18 0fbd
000000f0: 4745 27bb 24be 0ebd 2f9e 223d 35c8 c5bc
00000100: c189 3ebd 58fa 9c3d acc7 913c f1ae 573d
00000110: 5276 6fbc a5f4 583c fddb 4d3b 6a8d ff3d
00000120: 351e 433a e9ac 883b d21f a1bc 348e adbd
00000130: 7392 7f3d aeb7 1cbc 9670 a9bd 746c 45bd
00000140: fad8 883a 348a 2e3c 6992 a1b9 d614 a03d
00000150: 4edd a93d ba1e 8abd 85c8 b63d d358 c5bc
00000160: cace 6f3d d953 ce3c 49b9 863d 60c4 fcbc
00000170: 3c37 573d a25f ccbc 8ad1 693c 891b c93b
00000180: 5a7e 4c3d 5805 eebb 2b68 10bd e8fe 87bd

mlp.4.weight f4 [100, 100]
0.030215034 0.08131499 -0.10015788 0.094880454 0.014245927 0.03680392 0.08484262 0.02138212
-0.040660538 -0.0017420957 0.02734064 -0.060536586 0.012533113 -0.054443456 0.09786653 0.063926935
-0.07639153 0.072477184 0.056826115 0.09984775 -0.09832493 0.008833745 0.07847823 -0.072028555
0.079796575 0.10290108 -0.072237365 0.00304657 0.040007662 0.01992587 -0.032524094 0.06532646
-0.009666157 0.0033512593 -0.067926146 0.0070757004 0.07214032 -0.00051947875 0.048448823 -0.07186563
0.014531109 0.00477515 0.032841586 0.04302283 0.0015065297 0.0727055 -0.0044018766 0.014543243
-0.084545605 0.035059508 -0.06589148 -0.07954662 -0.034740638 -0.0019248971 -0.02626747 -0.09493484
-0.05515476 0.0099670505 0.06863884 0.03177521 0.0771321 -0.08061766 -0.06644325 -0.032351434
0.035833236 -0.03517702 0.035129376 0.037490334 0.0246992 0.0007038424 -0.042708926 -0.1344197
-0.08360712 0.051949825 -0.06600255 0.06573123 -0.02133758 0.057780586 -0.009703044 0.0037882316
0.035067562 -0.07290361 -0.06889332 -0.045979403 0.013029588 -0.08055945 -0.07948684 0.09580088
-0.090726756 -0.095633104 0.08310162 0.04242044 -0.06617987 -0.050401844 -0.06300322 -0.03472878
-0.046902757 0.014393383 -0.015407181 0.0380255 0.06248144 0.09468434 -0.035245 0.07443761
-0.04756658 -0.09419192 -0.08168055 0.03422289 -0.04258858 0.01776023 0.035841085 0.07305004
-0.09432929 0.043643203 0.08116361 -0.007966948 -0.07753157 -0.051001593 0.060937263 -0.0092961155
-0.05366088 0.070920534 -0.09046105 -0.010513446 -0.04619546 0.07824799 -0.09357196 -0.06992998
0.07067595 -0.010430241 0.09136516 0.010232627 -0.053047087 0.054105353 0.018746687 0.062405434
-0.062245794 0.082545325 -0.05739366 -0.041713536 -0.06508739 -0.007908213 -0.01605208 -0.000118499534
-0.01232013 0.08258794 -0.012781692 0.041064918 0.08088622 0.0110060545 -0.011313415 -0.08067882
0.05305008 0.043321524 -0.093861856 0.064194575 0.018748332 -0.03431071 0.0035154105 -0.054776978
-0.013623977 -0.034784544 -0.0040434483 -0.020645155 0.074453644 -0.04597062 -0.00718205 -0.02801391
0.094063975 -0.045492806 0.010246548 -0.0019172949 -0.044274386 -0.09697329 0.016330099 -0.029946554
-0.012665558 -0.08454464 -0.09852443 0.068431936 0.03427452 -0.021103537 -0.026551783 0.06010082
0.004889492 -0.026833689 -0.09696747 -0.0435501 -0.016909104 -0.054444302 0.04816381 -0.0047842027
-0.025023341 -0.034654845 0.012695002 0.016428804 0.059381306 0.091633394 -0.08545073 0.03510017
0.011216271 -0.009365278 -0.09201886 0.09430659 0.063172065 -0.1044661 0.036038306 0.044606518
-0.0012162685 -0.045427382 0.04756031 -0.04879533 0.029381145 -0.033748046 0.10078973 -0.044634163
0.030093174 -0.068126895 -0.03729124 -0.024282193 0.030869996 -0.047781684 -0.012628919 -0.06939219
-0.06386904 -0.0579167 -0.045871746 -0.018333701 0.018326951 -0.04884187 -0.048648074 -0.0950969
0.06604125 0.043964412 0.08569926 -0.080537416 0.05308492 -0.08871898 -0.028676603 0.056554638
0.033774782 0.088047445 -0.03682784 -0.06179209 -0.08093845 0.005073551 0.07640795 0.090429865
0.012907208 0.043533847 0.021727882 0.012188232 0.02908417 0.018723281 -0.08780918 0.10159412
00000000: 8585 f73c 7988 a63d 931f cdbd af50 c23d
00000010: c067 693c b5bf 163d f8c1 ad3d 8e29 af3c
00000020: aa8b 26bd 0857 e4ba 7af9 df3c 36f5 77bd
00000030: b057 4d3c 1a00 5fbd 3f6e c83d 20ec 823d
00000040: 2a73 9cbd eb6e 943d 80c2 683d fa7c cc3d
00000050: 955e c9bd 69bb 103c 32b9 a03d b583 93bd
00000060: 636c a33d cdbd d23d 2ff1 93bd f7a8 473b
00000070: 13df 233d 943b a33c fc37 05bd e1c9 853d
00000080: cd5e 1ebc cda0 5b3b dd1c 8bbd 47db e73b
00000090: 4ebe 933d a12d 08ba 4672 463d 4a2e 93bd
000000a0: e313 6e3c dd78 9c3b e684 063d b538 303d
000000b0: c076 c53a 9fe6 943d 9e3d 90bb c846 6e3c
000000c0: 3f26 adbd 8f9a 0f3d 1df2 86bd 57e9 a2bd
000000d0: 334c 0ebd d44c fcba e12e d7bc 336d c2bd
000000e0: f5e9 61bd d74c 233c 8592 8c3d b926 023d
000000f0: 6ff7 9d3d df1a a5bd 6613 88bd f082 04bd
00000100: dfc5 123d c715 10bd d2e3 0f3d 778f 193d
00000110: fa55 ca3c 1082 383a 8eef 2ebd 51a5 09be
00000120: 363a abbd 57c9 543d 582c 87bd 189e 863d
00000130: 26cc aebc 56ab 6c3d 84f9 1ebc fb43 783b
00000140: 01a3 0f3d 7d4e 95bd f117 8dbd e654 3cbd
00000150: 0e7a 553c 5afc a4bd ffc9 a2bd 4033 c43d
00000160: f3ce b9bd 4adb c3bd 2f31 aa3d 0ec1 2d3d
00000170: 5089 87bd 2a72 4ebd d507 81bd c43f 0ebd
00000180: 1b1d 40bd 39d2 6b3c 676e 7cbc a0c0 1b3d
00000190: 8aec 7f3d dde9 c13d 105d 10bd bf72 983d
000001a0: 2dd5 42bd b1e7 c0bd 2248 a7bd 4d2d 0c3d
000001b0: 5d71 2ebd e77d 913c 1ace 123d 429b 953d
000001c0: b72f c1bd 37c3 323d 1b39 a63d cd87 02bc
000001d0: dfc8 9ebd 0ce7 50bd 5a99 793d bc4e 18bc
000001e0: 83cb 5bbd c93e 913d a543 b9bd 9740 2cbc
000001f0: 7337 3dbd 7b40 a03d a8a2 bfbd 7337 8fbd
00000200: 8dbe 903d 9ae3 2abc a81d bb3d c0a6 273c
00000210: e747 59bd 939d 5d3d a792 993c d79c 7f3d
00000220: 72f5 7ebd 860d a93d 9d15 6bbd d0db 2abd
00000230: 8a4c 85bd 7391 01bc a77f 83bc f482 f8b8
00000240: 5fda 49bc de23 a93d 4d6a 51bc b033 283d
00000250: ada7 a53d bd52 343c e75b 39bc f03a a5bd
00000260: 0a4b 593d e971 313d a53a c0bd 7278 833d
00000270: 1a96 993c 6389 0cbd cd62 663b d35d 60bd
00000280: 1a37 5fbc 3d7a 0ebd e77e 84bb 0720 a9bc
00000290: 277b 983d b04b 3cbd 6757 ebbb 6d7d e5bc
000002a0: 9da4 c03d aa56 3abd 23e1 273c be4d fbba
000002b0: 0f59 35bd ef99 c6bd b3c6 853c 7a52 f5bc
000002c0: 3383 4fbc bd25 adbd 2dc7 c9bd 0b26 8c3d
000002d0: 7063 0c3d 53e1 acbc 2083 d9bc 472c 763d
000002e0: 0838 a03b 53d2 dbbc e296 c6bd 9761 32bd
000002f0: f684 8abc fd00 5fbd 6a47 453d cdc4 9cbb
00000300: c0fd ccbc 3df2 0dbd b3fe 4f3c b395 863c
00000310: d039 733d 4aaa bb3d cb00 afbd 32c5 0f3d
00000320: 73c4 373c d370 19bc 6274 bcbd d023 c13d
00000330: 5b60 813d 53f2 d5bd e79c 133d 53b5 363d
00000340: 336b 9fba 1012 3abd 9ace 423d 9ddd 47bd
00000350: bab0 f03c 643b 0abd d96a ce3d 50d2 36bd
00000360: f685 f63c 1d86 8bbd b3be 18bd 73eb c6bc
00000370: 13e3 fc3c bab6 43bd 87e9 4ebc 7e1d 8ebd
00000380: c5cd 82bd 103a 6dbd 03e4 3bbd 8f30 96bc
00000390: 6722 963c 6a0e 48bd 3443 47bd 2ac2 c2bd
000003a0: a340 873d 0714 343d 1883 af3d cdf0 a4bd
000003b0: 936f 593d 4cb2 b5bd 32eb eabc d6a5 673d
000003c0: 6d57 0a3d 3852 b43d cad8 16bd b419 7dbd
000003d0: 0fc3 a5bd 0840 a63b c57b 9c3d 4b33 b93d
000003e0: c178 533c 8c50 323d acfe b13c 26b1 473c
000003f0: ed41 ee3c 9161 993c 4dd5 b3bd 9410 d03d

mlp.4.bias f4 [100]
0.06872348 -0.047311023 -0.01995049 0.08642646 0.0045313304 0.08824484 -0.06376982 -0.09057702
0.0025004805 -0.09449257 -0.04374325 0.016944267 -0.04210824 -0.004695003 0.10811163 -0.08943195
0.08003049 0.02602386 0.055585075 0.039781857 0.11442371 0.038162023 -0.017459165 -0.023795303
0.057962958 0.049569752 0.0063565327 -0.094606735 0.10220462 -0.045179557 0.08422922 0.11850612
0.049535237 0.013582531 -0.020319795 -0.031346917 -0.077314585 0.043277286 0.031572998 -0.03485814
0.05671943 -0.08658029 -0.093338646 -0.05125554 -0.0049862387 0.14260446 -0.038061373 0.027945785
-0.083347775 0.119690284 0.13252768 -0.054078694 -0.07929601 0.14655656 0.05217183 0.07848331
-0.09736255 -0.05396508 0.046047732 0.068564 0.07436106 -0.05074346 -0.09705883 -0.09520276
0.0334297 0.11181291 -0.0155580705 0.043549344 0.028412553 0.014641603 0.03509714 0.043666076
-0.0028904339 -0.02493134 0.054529816 0.061152644 0.063193426 0.050507788 0.017838007 -0.08606332
0.04488744 0.041161828 0.09395782 -0.0021390277 -0.051113307 -0.034553885 0.03319679 -0.087743565
-0.005382288 0.12422595 -0.045045365 0.024664026 -0.058849476 -0.061931476 0.037799504 0.006238476
-0.013674749 0.023053132 -0.048044275 -0.036283955
00000000: e5be 8c3d 34c9 41bd 366f a3bc 5b00 b13d
00000010: 8e7b 943b b6b9 b43d c099 82bd 7280 b9bd
00000020: 1adf 233b 5285 c1bd 1f2c 33bd b4ce 8a3c
00000030: b179 2cbd 8ad8 99bb a169 dd3d 1928 b7bd
00000040: 07e7 a33d fd2f d53c 2dad 633d 4df2 223d
00000050: fa56 ea3d c84f 1c3d 8606 8fbc 5eee c2bc
00000060: 916a 6d3d a709 4b3d 764a d03b 2dc1 c1bd
00000070: a850 d13d 330e 39bd 5f80 ac3d 56b3 f23d
00000080: 76e5 4a3d 4489 5e3c b375 a6bc a065 00bd
00000090: 1c57 9ebd 8643 313d b052 013d 69c7 0ebd
000000a0: a252 683d 0251 b1bd 5528 bfbd 54f1 51bd
000000b0: 9a63 a3bb e706 123e 3ee6 1bbd 8fee e43c
000000c0: 3db2 aabd 2e20 f53d 56b5 073e 9f81 5dbd
000000d0: f265 a2bd ec12 163e 21b2 553d dcbb a03d
000000e0: 0466 c7bd 7d0a 5dbd 8c9c 3c3d 486b 8c3d
000000f0: 9d4a 983d 60d8 4fbd c8c6 c6bd aaf9 c2bd
00000100: 95ed 083d 2bfe e43d 47e7 7ebc cc60 323d
00000110: 71c1 e83c 56e3 6f3c 05c2 0f3d 33db 323d
00000120: 6f6d 3dbb cf3c ccbc a85a 5f3d 327b 7a3d
00000130: 8e6b 813d 41e1 4e3d 0321 923c f741 b0bd
00000140: e4db 373d 4e99 283d f56c c03d ee2e 0cbb
00000150: 305c 51bd 6088 0dbd 5bf9 073d e6b2 b3bd
00000160: e75d b0bb 2d6a fe3d 7d81 38bd 360c ca3c
00000170: 260c 71bd dcab 7dbd a7d3 1a3d 216c cc3b
00000180: 0e0c 60bc ecd9 bc3c 13ca 44bd 7c9e 14bd

mlp.6.weight f4 [1, 100]
0.14211597 0.031736463 0.10945878 0.08342363 -0.065790825 -0.11604884 -0.056061205 0.07616215
-0.1680819 -0.16192894 -0.106909715 -0.028841572 0.08946878 0.10913904 0.15305568 0.10886284
0.13642716 -0.1640276 -0.2035732 -0.06106023 0.2323932 0.12914635 -0.020441448 -0.071145095
-0.011689612 -0.07804565 0.1891264 -0.021653363 0.18539298 0.06963706 0.14520055 0.2758636
-0.12625986 -0.06979988 -0.066179 0.03937743 0.019417513 0.08785258 0.06664483 0.09294935
0.07973194 0.0735658 0.16073744 0.09944706 -0.00730018 0.24255376 -0.0077683316 0.011652736
-0.027637083 0.22860697 0.23162724 0.033090916 0.059714664 0.27756923 0.05089307 0.13585089
-0.07788566 0.058954094 -0.0487752 -0.16614237 -0.099351175 -0.06861544 0.04777384 -0.008498239
0.14785473 0.1608922 0.04635964 -0.04324309 0.04426171 0.06597464 -0.050709225 0.07242619
-0.09793493 0.0040096906 -0.017127533 0.065387554 0.17306425 0.08808243 0.0143796895 0.05468855
-0.13486323 -0.028140932 0.14572313 -0.07051404 -0.022805646 0.077861324 -0.04789244 0.0018996547
-0.05082599 0.20959733 0.002762556 0.11614821 0.03025173 0.016000345 0.063700475 -0.06753199
0.11063471 -0.050990004 0.002095318 -0.052020285
00000000: d986 113e 18fe 013d ed2b e03d 02da aa3d
00000010: 57bd 86bd 04ab edbd 6fa0 65bd e7fa 9b3d
00000020: a91d 2cbe b3d0 25be 7bf3 dabd 2945 ecbc
00000030: 683b b73d 4a84 df3d a1ba 1c3e 7bf3 de3d
00000040: 90b3 0b3e daf6 27be 7e75 50be 4b1a 7abd
00000050: 7cf8 6d3e f13e 043e d374 a7bc 85b4 91bd
00000060: c985 3fbc 66d6 9fbd 5aaa 413e 6562 b1bc
00000070: a8d7 3d3e e09d 8e3d 74af 143e fe3d 8d3e
00000080: 444a 01be 3df3 8ebd db88 87bd 3a4a 213d
00000090: 7a11 9f3c 0eec b33d 167d 883d 3b5c be3d
000000a0: 804a a33d aba9 963d 5b98 243e e6aa cb3d
000000b0: 5936 efbb 0360 783e 7d8d febb 1eeb 3e3c
000000c0: 2a67 e2bc f217 6a3e b12f 6d3e 578a 073d
000000d0: 5d97 743d 8e1d 8e3e 4075 503d 7f1c 0b3e
000000e0: 8482 9fbd d979 713d 81c8 47bd 3a21 2abe
000000f0: a178 cbbd 4086 8cbd 81ae 433d 333c 0bbc
00000100: 3b67 173e edc0 243e 9be3 3d3d ab1f 31bd
00000110: c44b 353d b61d 873d 7ab4 4fbd 2f54 943d
00000120: 1c92 c8bd b963 833b 0a4f 8cbc e9e9 853d
00000130: c137 313e 9064 b43d ca98 6b3c 1a01 603d
00000140: 9619 0abe d087 e6bc 7238 153e aa69 90bd
00000150: e8d2 babc c275 9f3d dd2a 44bd d6fd f83a
00000160: ea2e 50bd afa0 563e 000c 353b 1ddf ed3d
00000170: 7ad2 f73c 2813 833c 6575 823d 364e 8abd
00000180: 7394 e23d e5da 50bd 9a51 093b 3913 55bd

lstm.weight_ih_l0 f4 [200, 13]
-0.085862696 0.09840753 -0.07358903 -0.09585433 0.085677825 0.014090481 -0.054087635 0.0039565363
-0.025498653 -0.052936673 -0.113976225 -0.10061268 0.0018264351 0.102607995 -0.03723266 -0.10545808
-0.096004575 0.14450292 0.056749754 0.15603037 0.1172837 -0.07561215 -0.013173298 0.06812391
0.10621988 -0.033609793 0.11566376 -0.10926915 -0.07154089 0.09091326 -0.02001012 0.1263131
0.120144606 0.0460526 0.09635737 -0.13990967 0.09928398 0.06776547 -0.01196051 0.038705807
-0.0820743 0.094583854 0.0766498 -0.11260455 -0.0033082522 0.118138716 -0.012841749 0.03886903
0.04684093 -0.048030507 0.12997717 0.033462703 0.0120302765 0.117526874 -0.043292657 -0.08635183
-0.044320136 -0.06503058 -0.044480592 0.067410514 0.012577588 0.08845083 -0.13491541 -0.076029554
-0.095795676 0.10688026 -0.08647757 0.046555966 -0.13440752 0.11605151 0.08455792 -0.072216354
-0.084644645 0.012178778 -0.05049212 -0.07535487 0.06961722 -0.016514618 -0.0031343426 -0.10533654
-0.020784635 0.0013949175 -0.07382854 0.0634319 -0.10137279 0.037069302 0.1252295 0.08966701
-0.12742127 0.07393901 0.10313735 0.0071886955 0.050225474 -0.09270765 0.012410931 -0.094134055
0.13096878 -0.031167788 0.035157334 -0.09502632 -0.05860708 0.06931267 0.11003985 0.109356314
0.094742 0.0011415534 -0.020072555 0.101058334 -0.054918922 0.06303181 0.035599977 0.089597985
-0.08416384 -0.09899657 0.08591672 0.13098833 0.0030161007 -0.08811972 -0.010514089 -0.09200868
0.039915636 -0.08690577 -0.027494159 0.13451056 0.12498287 -0.051516928 0.014678125 -0.11913941
0.11495111 0.04765937 -0.11735791 -0.08281974 -0.07553982 0.04502043 -0.017468464 -0.027002024
-0.06481272 -0.073851615 -0.0907733 -0.080285154 0.046338752 -0.025423367 0.1261407 0.046933923
0.00759628 -0.07820358 0.042279575 -0.054005962 -0.098681584 0.12728694 -0.06682994 -0.098763324
-0.12585934 -0.0044963458 0.07201193 -0.06462066 -0.1201781 -0.06663268 -0.04460457 -0.021244034
0.096605636 -0.10216566 0.09493707 0.12996908 0.0023911241 0.04994006 0.06745524 0.0046664947
-0.12934887 0.010427993 -0.0510674 -0.087801516 -0.024511715 0.13703798 0.018484091 -0.059846833
0.0016375736 -0.03963404 0.06117458 -0.049773414 0.099182196 -0.03280455 -0.09379726 0.08663021
-0.017347643 -0.055317488 -0.063830525 0.13263723 -0.058090854 0.12938762 -0.08443647 0.109778546
-0.057290025 0.034668803 -0.12254083 -0.10950361 0.069101565 -0.06513123 0.086205475 0.099850625
-0.13785966 0.05754175 -0.09814502 -0.04764578 0.091885105 -0.10437744 -0.09570387 -0.13732694
0.030166147 0.14319532 -0.013861509 0.1357546 0.00679812 0.14225206 -0.1373246 -0.12058173
-0.026861552 0.1420588 -0.02100302 0.05067521 -0.07343167 0.06097767 0.11543545 -0.08458571
0.016598336 0.053384278 -0.060809474 -0.12834914 -0.111435294 0.091748245 0.07077886 0.09893061
0.12363773 -0.05809195 0.002206337 -0.13558316 0.04013196 -0.011439311 -0.06275066 0.034387752
0.116784096 -0.02297795 0.009212676 0.037652142 -0.1305128 -0.10465847 -0.12228476 0.117905706
-0.0047659404 0.012538385 0.12521186 -0.100653514 0.005747296 -0.06429058 0.019609464 0.022180982
00000000: c8d8 afbd e389 c93d d8b5 96bd 464f c4bd
00000010: db77 af3d c3db 663c ff8a 5dbd d5a5 813b
00000020: 8de2 d0bc 20d4 58bd 5e6c e9bd 050e cebd
00000030: fe64 ef3a 2424 d23d 4681 18bd 68fa d7bd
00000040: 0c9e c4bd 93f8 133e 6e72 683d 6dc6 1f3e
00000050: 7032 f03d 8bda 9abd d1d4 57bc 8c84 8b3d
00000060: cf89 d93d 6caa 09bd 1fe1 ec3d 81c8 dfbd
00000070: 0884 92bd bb30 ba3d 43ec a3bc 3958 013e
00000080: 600e f63d a7a1 3c3d 0357 c53d 7b44 0fbe
00000090: 6655 cb3d 9fc8 8a3d 04f6 43bc fb89 1e3d
000000a0: 9216 a8bd 2eb5 c13d 92fa 9c3d 379d e6bd
000000b0: 43cf 58bb b6f2 f13d 3366 52bc 2235 1f3d
000000c0: 46dc 3f3d a3bb 44bd bc18 053e 3010 093d
000000d0: a31a 453c eeb1 f03d a453 31bd 3ad9 b0bd
000000e0: 0889 35bd c12e 85bd 4831 36bd 860e 8a3d
000000f0: 3a12 4e3c b525 b53d 4427 0abe 62b5 9bbd
00000100: 8630 c4bd 0ae4 da3d 271b b1bd 78b1 3e3d
00000110: 20a2 09be 6aac ed3d b42c ad3d 2be6 93bd
00000120: 2c5a adbd 7f89 473c d3d0 4ebd a753 9abd
00000130: 7993 8e3d aa49 87bc 8b69 4dbb afba d7bd
00000140: 8a44 aabc aad5 b63a 6b33 97bd 96e8 813d
00000150: 8a9c cfbd fbd5 173d 293c 003e 56a3 b73d
00000160: b97a 02be 566d 973d ad39 d33d 268f eb3b
00000170: 3ab9 4d3d 82dd bdbd 3857 4b3c 5bc9 c0bd
00000180: ae1c 063e 9753 ffbc 2301 103d 299d c2bd
00000190: fa0d 70bd cdf3 8d3d 935c e13d 34f6 df3d
000001a0: 1808 c23d 2da0 953a 336f a4bc acf7 ce3d
000001b0: aaf2 60bd d216 813d 48d1 113d 267f b73d
000001c0: 175e acbd b7be cabd 1bf5 af3d ce21 063e
000001d0: c6a9 453b 1d78 b4bd 4943 2cbc 0c6f bcbd
000001e0: 947e 233d a7fb b1bd 6e3b e1bc 23bd 093e
000001f0: 05f7 ff3d 6a03 53bd 857c 703c 5dff f3bd
00000200: 7d6b eb3d 7936 433d 5859 f0bd 659d a9bd
00000210: 9fb4 9abd 5867 383d 061a 8fbc 5933 ddbc
00000220: 88bc 84bd 843f 97bd 5ae7 b9bd 8b6c a4bd
00000230: b4cd 3d3d aa44 d0bc 072b 013e c93d 403d
00000240: 37ea f83b 3329 a0bd 592d 2d3d 5b35 5dbd
00000250: 9219 cabd 8257 023e 23de 88bd 6d44 cabd
00000260: 45e1 00be 1556 93bb fe7a 933d d657 84bd
00000270: f01f f6bd b776 88bd 48b3 36bd f807 aebc
00000280: 2dd9 c53d 3b3c d1bd 5e6e c23d 9d16 053e
00000290: 68b4 1c3b f38d 4c3d f925 8a3d 65e9 983b
000002a0: 0874 04be 2cda 2a3c 0d2c 51bd 48d1 b3bd
000002b0: cbcc c8bc af53 0c3e f36b 973c f421 75bd
000002c0: daa3 d63a 4e57 22bd 3292 7a3d 35df 4bbd
000002d0: 0920 cb3d 105e 06bd c718 c0bd 2e6b b13d
000002e0: a51c 8ebc 9794 62bd 94b9 82bd 0ed2 073e
000002f0: adf0 6dbd 307e 043e 07ed acbd 93d3 e03d
00000300: f2a8 6abd e000 0e3d b0f6 fabd 6e43 e0bd
00000310: 1f85 8d3d 8663 85bd 7f8c b03d 7c7e cc3d
00000320: 152b 0dbe e6b0 6b3d 4200 c9bd 3928 43bd
00000330: 422e bc3d d7c3 d5bd 6400 c4bd 6f9f 0cbe
00000340: ff1e f73c cba1 123e 621b 63bc 4103 0b3e
00000350: c4c2 de3b 86aa 113e d29e 0cbe 8ef3 f6bd
00000360: c20c dcbc dd77 113e 870e acbc cf90 4f3d
00000370: 5863 96bd b9c3 793d 6c69 ec3d 463b adbd
00000380: 3cf9 873c 79a9 5a3d 5b13 79bd f56d 03be
00000390: 3038 e4bd 81e6 bb3d 82f4 903d 229c ca3d
000003a0: c735 fd3d d3f1 6dbd 3198 103b 50d6 0abe
000003b0: 6961 243d f36b 3bbc 6b83 80bd 2cda 0c3d
000003c0: 802c ef3d 413c bcbc c4f0 163c 2239 1a3d
000003d0: 26a5 05be 2e57 d6bd 6f70 fabd 8c78 f13d
000003e0: 9b2b 9cbb cc6d 4d3c 8a37 003e 6e23 cebd
000003f0: d053 bc3b c8aa 83bd 07a4 a03c e4b4 b53c

lstm.weight_hh_l0 f4 [200, 50]
-0.13310233 -0.08084215 0.12583494 -0.13844593 -0.100858435 -0.079013206 0.07030407 0.08684975
-0.04876569 -0.016629985 0.0338332 -0.0016798057 0.036856085 -0.0018484774 0.01581725 -0.12373216
0.0771444 0.11675422 -0.07339029 0.027179293 0.00168313 -0.1214535 -0.14067864 -0.1279532
-0.09916248 -0.10673173 -0.022447253 0.02861505 0.044342544 -0.030027062 -0.016595105 0.078764476
0.042261463 -0.14063554 0.07296061 -0.12750696 0.116557315 0.017457038 -0.08567415 0.032243304
-0.05214938 -0.0373308 -0.038162522 0.029456776 -0.04099024 0.12187887 -0.053212345 0.026159303
0.11917226 -0.026342502 -0.13384365 -0.083875425 0.029286662 -0.112119794 -0.07249053 0.11537713
0.13262573 -0.030092396 0.07179841 0.031978395 -0.0520846 -0.1386076 -0.0036782927 -0.10160749
-0.05072509 0.09750901 -0.13969843 0.09526183 -0.06018613 -0.09376345 -0.1056918 0.019079538
0.01313468 -0.021916978 -0.10780148 -0.063192375 0.036913328 0.0463624 -0.06930158 0.047477763
-0.0792461 0.09064029 0.05707147 -0.07144287 -0.054613788 -0.13249928 -0.018217541 -0.0880411
0.058674436 0.12157695 0.09819551 0.13844165 -0.13705964 -0.13069925 -0.13345179 -0.122171216
-0.12835345 0.021623416 0.014694367 0.03915003 -0.083786786 0.01944982 -0.089025274 0.0005554162
-0.12540868 0.012481612 0.07700329 -0.070927024 0.113102555 0.11383346 0.13501817 0.005684335
-0.005020192 -0.092470184 -0.119784504 0.13262026 0.094466835 0.061516233 0.04805857 -0.13573633
0.070566416 -0.101266414 -0.12088961 -0.12579437 0.04035194 0.0011919657 0.050645698 0.12663105
-0.022059705 -0.12255545 0.1039498 -0.09160427 0.122435175 0.034430698 -0.062467016 -0.03868219
0.124444924 -0.11132792 -0.047615096 0.07418308 0.012901284 -0.004915257 0.06265938 -0.10569953
0.015127614 -0.037238657 -0.12908937 0.070364185 0.09222332 0.051926997 0.07534228 -0.13716301
0.09823924 0.07477084 0.006399452 -0.0020774726 -0.07512516 -0.06326611 -0.010599487 0.041093882
0.08895399 -0.13432536 0.034831703 -0.09801577 -0.086240076 -0.049623404 -0.11822725 -0.1083324
-0.088840306 0.0051390314 0.010975498 -0.121851996 0.055364106 -0.0535557 -0.01060323 -0.070064254
0.09801808 0.08436937 0.120518215 -0.05137591 0.057078622 0.04307006 0.036669634 0.13413532
0.057947043 -0.034472484 -0.04756768 -0.05347795 -0.030239359 0.025351545 -0.10023353 -0.0121301785
0.0039993087 0.047140196 -0.0179707 0.13975947 -0.062357076 0.062928155 0.08450088 0.13146718
-0.094622165 -0.06352295 -0.03417121 -0.06715266 0.07942035 -0.14113264 -0.10600072 -0.06594003
0.02187766 0.042849045 -0.11061215 0.023737177 0.13851774 -0.09855439 -0.04646498 0.088952966
-0.017509885 0.020612309 -0.0722523 -0.06785789 -0.009284051 -0.047346544 -0.02460238 -0.02877891
-0.02208289 -0.034360413 0.08971609 0.12508723 -0.016506145 0.061945327 0.12401663 -0.014836992
-0.0006008193 0.12443569 -0.053987637 -0.014008597 0.053779222 0.06257857 -0.019828573 0.037837733
0.111437574 0.04679714 -0.10230437 -0.08720376 0.000916222 0.10547599 0.035414204 -0.115325846
0.07234559 0.014641799 -0.08779452 0.034932423 0.053625587 0.11175235 0.011318901 0.0870757
00000000: fa4b 08be 9290 a5bd e0da 003e c5c4 0dbe
00000010: de8e cebd add1 a1bd 95fb 8f3d 48de b13d
00000020: 88be 47bd 9b3b 88bc ae94 0a3d ed2c dcba
00000030: 68f6 163d 9c48 f2ba 2d93 813c 4967 fdbd
00000040: e2fd 9d3d d61c ef3d a64d 96bd 1ca7 de3c
00000050: 799c dc3a 9dbc f8bd 100e 10be 2a06 03be
00000060: b315 cbbd 2a96 dabd 4de3 b7bc 1c6a ea3c
00000070: 87a0 353d 50fb f5bc 75f2 87bc 454f a13d
00000080: 5b1a 2d3d c302 10be 5f6c 953d 2f91 02be
00000090: 9ab5 ee3d 1002 8f3c ee75 afbd 8e11 043d
000000a0: 979a 55bd 2ee8 18bd 4e50 1cbd 564f f13c
000000b0: 62e5 27bd a19b f93d 30f5 59bd 094c d63c
000000c0: 9610 f43d 3bcc d7bc 4f0e 09be e1c6 abbd
000000d0: 95ea ef3c 109f e5bd ea75 94bd d84a ec3d
000000e0: 0acf 073e 5484 f6bc 0b0b 933d c7fb 023d
000000f0: a956 55bd 27ef 0dbe 830f 71bb 9617 d0bd
00000100: 1dc5 4fbd ceb2 c73d 1b0d 0fbe a218 c33d
00000110: bb85 76bd 0d07 c0bd f174 d8bd b14c 9c3c
00000120: d732 573c 3c8b b3bc 06c7 dcbd 016b 81bd
00000130: 6e32 173d 80e6 3d3d fded 8dbd 0b78 423d
00000140: c74b a2bd 9ea1 b93d c6c3 693d a450 92bd
00000150: b5b2 5fbd e4ad 07be f43c 95bc e44e b4bd
00000160: 9b54 703d 56fd f83d ba1a c93d a6c3 0d3e
00000170: 5d59 0cbe 06d6 05be 96a7 08be e734 fabd
00000180: 166f 03be 9723 b13c a4c0 703c c85b 203d
00000190: 6898 abbd 3b55 9f3c e252 b6bd 5a99 113a
000001a0: 226b 00be ad7f 4c3c e7b3 9d3d 3042 91bd
000001b0: 50a2 e73d 8421 e93d 3442 0a3e a843 ba3b
000001c0: 6c80 a4bb 0261 bdbd 9451 f5bd 9bcd 073e
000001d0: d477 c13d 72f8 7b3d 10d9 443d 77fe 0abe
000001e0: 2085 903d c464 cfbd f994 f7bd 3dd0 00be
000001f0: 1348 253d bb3b 9c3a dd71 4f3d 92ab 013e
00000200: 8eb6 b4bc 5afe fabd a2e3 d43d 059b bbbd
00000210: 4bbf fa3d 3407 0d3d 6add 7fbd 3771 1ebd
00000220: fbdc fe3d e4ff e3bd 0c08 43bd 4ced 973d
00000230: e85f 533c 2a10 a1bb 9053 803d ff78 d8bd
00000240: d0d9 773c 9087 18bd 0130 04be 191b 903d
00000250: 94df bc3d 67b1 543d 0e4d 9a3d 7674 0cbe
00000260: a831 c93d 7421 993d 7fb2 d13b 3526 08bb
00000270: 38db 99bd aa91 81bd 79a9 2dbc 0f52 283d
00000280: 822d b63d 968c 09be b0ab 0e3d 7ebc c8bd
00000290: a39e b0bd e941 4bbd 2121 f2bd 61dd ddbd
000002a0: e8f1 b5bd 5265 a83b 93d2 333c 8a8d f9bd
000002b0: 79c5 623d 395d 5bbd 2cb9 2dbc d97d 8fbd
000002c0: b4bd c83d d9c9 ac3d 41d2 f63d 8c6f 52bd
000002d0: 46cb 693d 3b6a 303d e632 163d c55a 093e
000002e0: e159 6d3d 0533 0dbd 54d6 42bd b20b 5bbd
000002f0: 88b8 f7bc 0bae cf3c 3d47 cdbd a8bd 46bc
00000300: a20c 833b 1416 413d 4a37 93bc 1b1d 0f3e
00000310: 226a 7fbd 7ae0 803d cc0e ad3d 559f 063e
00000320: 44c9 c1bd 5218 82bd 1cf7 0bbd 5587 89bd
00000330: 23a7 a23d 1385 10be e816 d9bd 910b 87bd
00000340: c738 b33c 7b82 2f3d 9f88 e2bd 7874 c23c
00000350: 98d7 0d3e e2d6 c9bd 1052 3ebd f92c b63d
00000360: e470 8fbc 25db a83c 04f9 93bd 14f9 8abd
00000370: 221c 18bc 73ee 41bd ee8a c9bc c0c1 ebbc
00000380: 2de7 b4bc 81bd 0cbd 12bd b73d de16 003e
00000390: e537 87bc 62ba 7d3d 6efc fd3d db16 73bc
000003a0: 4d80 1dba 24d8 fe3d 2422 5dbd 5084 65bc
000003b0: 9a47 5c3d 3129 803d 886f a2bc bdfb 1a3d
000003c0: 6239 e43d 5cae 3f3d f484 d1bd e397 b2bd
000003d0: 9e2e 703a cc03 d83d 7c0e 113d f52f ecbd
000003e0: ed29 943d 28e4 6f3c 9dcd b3bd 4d15 0f3d
000003f0: 81a6 5b3d 6bde e43d e972 393c bf54 b23d

lstm.bias_ih_l0 f4 [200]
0.115454525 -0.03265305 0.052348256 -0.106299125 0.0051499717 -0.0019838354 -0.08665171 -0.13515091
-0.13516639 -0.019221509 0.08149671 -0.024871007 -0.08163671 -0.082173325 -0.012980738 0.0812155
0.020950656 -0.061627578 0.06643534 -0.0849014 0.13975629 -0.032157905 -0.09785431 -0.06786258
0.04152711 -0.00043871318 0.1368565 0.0070825377 -0.1267958 -0.10007712 -0.08598279 0.024638202
-0.096710496 0.12476554 0.022913665 0.03328143 0.12375249 0.015143825 -0.10417391 -0.03798179
-0.13642393 0.0014709281 -0.11099178 -0.115637735 0.07122319 0.08704077 -0.085705705 -0.054454155
0.07812347 -0.024307545 -0.05742637 0.11560147 -0.032813102 -0.06749991 -0.048688952 -0.048885044
0.058527358 0.07348499 -0.046645503 -0.030666865 -0.042750377 0.006001713 -0.12274108 0.12002796
0.0921763 0.07863419 -0.093952395 -0.13433394 -0.1055751 -0.04554458 -0.003042851 0.10781411
-0.1214479 0.009822189 0.13915807 -0.13578866 -0.06464909 -0.10706415 -0.093353674 -0.13690503
0.047179203 0.123630546 -0.023907721 -0.07159553 0.1357671 0.10019613 0.037686955 0.12677655
0.010546527 -0.082743734 -0.10393119 -0.0005507342 0.019544685 -0.10154102 0.036602765 -0.0014890231
-0.014801793 0.14707735 0.13382024 -0.055740856 -0.06573996 -0.0035969235 0.045697402 0.06447681
-0.08252751 -0.030405821 -0.0026270472 0.014179914 0.09256231 0.08318111 0.049937177 -0.05116193
0.11502399 0.06087751 0.014476378 0.09908203 0.08273873 -0.0016317541 0.13923478 0.12843715
-0.04411744 -0.10025952 -0.025472447 0.050027844 -0.043518607 0.08274078 -0.0993016 -0.08672798
-0.1447749 -0.12268587 -0.007712896 0.018508723 0.101077706 0.10831907 -0.03568763 -0.058561366
-0.04183251 0.03955934 -0.09200133 0.14727888 -0.024688082 -0.0026284775 0.09821367 0.049972806
0.012344496 -0.10096443 0.048088927 0.025185395 0.036337413 0.0030917895 -0.007171921 0.002744684
0.10987242 0.12584303 -0.13940904 0.12551804 0.10202019 -0.118707985 0.07321647 -0.091366194
-0.086142056 -0.11263907 0.09128012 -0.12069929 0.085443616 0.06841971 0.076750696 0.060807534
0.068261795 0.14346085 -0.08646241 -0.12153566 -0.053838994 -0.14009301 -0.03921131 0.10411009
0.013793258 0.02347737 0.05371886 -0.060064502 -0.048588388 -0.08496472 -0.12495638 0.04548392
0.13089727 -0.027530445 0.0016134498 0.120634936 -0.11806428 0.072805114 0.12003488 0.005759511
0.08381103 -0.025080863 0.09943346 0.0857981 0.029579783 0.08209741 0.10510818 -0.09677451
00000000: 6c73 ec3d 34bf 05bd 206b 563d 5bb3 d9bd
00000010: 18c1 a83b 3c03 02bb 7476 b1bd 0065 0abe
00000020: 0f69 0abe 6d76 9dbc bfe7 a63d 48be cbbc
00000030: 2631 a7bd 7d4a a8bd 29ad 54bc 5054 a63d
00000040: b6a0 ab3c 336d 7cbd 400f 883d c9e0 adbd
00000050: 461c 0f3e 02b8 03bd d767 c8bd 89fb 8abd
00000060: 5518 2a3d 1603 e6b9 1c24 0c3e a214 e83b
00000070: c2d6 01be 3cf5 ccbd bf17 b0bd 0ed6 c93c
00000080: 2710 c6bd 1385 ff3d 70b5 bb3c 1c52 083d
00000090: f271 fd3d ce1d 783c 2259 d5bd cb92 1bbd
000000a0: b7b2 0bbe 28cc c03a a94f e3bd 7ad3 ecbd
000000b0: 77dd 913d 6e42 b23d 7986 afbd 520b 5fbd
000000c0: 33ff 9f3d 9e20 c7bc ea37 6bbd 77c0 ec3d
000000d0: 0867 06bd 653d 8abd 116e 47bd af3b 48bd
000000e0: 62ba 6f3d 4c7f 963d 5b0f 3fbd 1439 fbbc
000000f0: 051b 2fbd 05aa c43b ad5f fbbd 38d1 f53d
00000100: eec6 bc3d f60a a13d 1d6a c0bd d68e 09be
00000110: c237 d8bd f48c 3abd 926a 47bb a5cd dc3d
00000120: adb9 f8bd 3fed 203c 747f 0e3e 2f0c 0bbe
00000130: be66 84bd 7344 dbbd 3630 bfbd d530 0cbe
00000140: fb3e 413d 0332 fd3d 20da c3bc ada0 92bd
00000150: 8806 0b3e a133 cd3d a35d 1a3d b6d1 013e
00000160: 57cb 2c3c 8c75 a9bd e0d9 d4bd 265f 10ba
00000170: 2d1c a03c bdf4 cfbd c8ec 153d 532b c3ba
00000180: 3883 72bc 729b 163e 2c08 093e 8650 64bd
00000190: aca2 86bd 5dba 6bbb 332d 3b3d 6b0c 843d
000001a0: 2f04 a9bd a115 f9bc 8a2a 2cbb df52 683c
000001b0: 4f91 bd3d dc5a aa3d ed8a 4c3d 2c8f 51bd
000001c0: b391 eb3d b25a 793d 552e 6d3c 85eb ca3d
000001d0: ec72 a93d 95e0 d5ba 9093 0e3e 0785 033e
000001e0: 7db4 34bd dd54 cdbd 98ab d0bc ffe9 4c3d
000001f0: 9140 32bd 0074 a93d a35e cbbd 709e b1bd
00000200: df3f 14be bb42 fbbd 76bc fcbb 9b9f 973c
00000210: d401 cf3d 63d6 dd3d 312d 12bd 0bde 6fbd
00000220: 9158 2bbd f908 223d 316b bcbd 46d0 163e
00000230: a93e cabc 8942 2cbb 4024 c93d 49b0 4c3d
00000240: 9240 4a3c 70c6 cebd e5f8 443d 9a51 ce3c
00000250: 8ad6 143d 9f9f 4a3b 6f02 ebbb 28e0 333b
00000260: cb04 e13d ffdc 003e 3ec1 0ebe cd87 003e
00000270: f6ef d03d 2c1d f3bd 84f2 953d 331e bbbd
00000280: 3f6b b0bd 50af e6bd 12f1 ba3d 3031 f7bd
00000290: 10fd ae3d a21f 8c3d 782f 9d3d 5211 793d
000002a0: d7cc 8b3d 67e7 123e 3413 b1bd b0e7 f8bd
000002b0: 4786 5cbd 8b74 0fbe 0a9c 20bd ac37 d53d
000002c0: 1efd 613c 9d53 c03c 4f08 5c3d 3206 76bd
000002d0: 9e04 47bd fc01 aebd 21e9 ffbd 594d 3a3d
000002e0: ef09 063e 8787 e1bc 647a d33a 730f f73d
000002f0: afcb f1bd d91a 953d d9d4 f53d 48ba bc3b
00000300: 1ea5 ab3d 6276 cdbc c5a3 cb3d eab6 af3d
00000310: 4d51 f23c b022 a83d f542 d73d b731 c6bd
