models/LSTM_RL/output/rl_model.pth (torch, 190913 bytes, 11 tensors)

mlp.0.weight f4 [150, 56]
-0.078468084 -0.007870413 0.103321284 0.09224314 -0.06272269 -0.122946344 -0.11477254 -0.06732173
0.08048281 0.009629471 0.011320322 -0.1110751 -0.11218813 -0.110213496 -0.12326566 0.031575106
0.05445812 -0.04808963 0.0010763019 0.021107215 0.12549862 0.084711395 -0.046839904 0.008757323
0.12519878 0.08694839 -0.13047728 -0.07338522 -0.010465002 0.1266749 -0.06873638 0.1105588
0.027542701 -0.071253255 -0.113983855 -0.025815057 0.0041207676 -0.023641359 -0.07047285 -0.047893424
-0.0074409773 -0.093658924 -0.033032972 0.033527948 -0.0066519417 0.005318295 -0.09007487 0.043224957
-0.052406155 0.094793595 0.008717278 0.06671565 -0.017121479 -0.02455777 -0.021045476 -0.02969707
0.07401382 0.056773353 -0.09563724 -0.1260374 -0.09980981 -0.030780777 -0.13192979 -0.084656745
-0.07978856 -0.06301513 -0.015897803 -0.053030618 0.044164505 0.031801354 0.046508253 0.01786083
-0.043949753 -0.012351918 0.068965554 -0.12728558 0.10905834 -0.074337885 0.033628117 -0.09491801
0.12007228 -0.08282322 -0.12144918 0.07344754 -0.04480253 -0.09780329 0.12523854 -0.12759906
0.077877834 -0.077074416 0.021614388 -0.08187235 0.071325704 0.04454575 0.053518966 -0.13416152
-0.07531235 -0.097140566 0.08275774 0.087759875 -0.10103937 -0.09364366 -0.11939422 -0.049749367
0.04437177 0.1324377 0.033880115 -0.16338417 -0.13013645 0.11131638 0.13165182 -0.091072
0.041750487 -0.047166474 0.07815743 0.027348654 0.13973714 0.011624161 -0.075275026 -0.0349377
0.13985454 0.09071606 0.0077567883 0.03499577 -0.102940135 0.09495206 0.048987128 0.049335793
0.1309877 -0.12709597 -0.1372044 0.05724367 0.10112947 0.09505185 0.11115713 -0.10370738
-0.09369251 0.013920325 0.04567106 0.012044254 0.08562445 0.048178814 -0.093115605 -0.026578166
0.11261298 0.009163229 -0.065182775 -0.08692926 -0.09385401 -0.041752618 0.051151246 -0.05108312
-0.008042103 0.06051338 -0.033031862 -0.01212251 0.08799791 0.050096136 0.022363309 -0.08554859
-0.07227414 -0.05050218 0.019484175 -0.0018706233 -0.033739697 0.006871536 -0.076166876 -0.015173472
-0.06575338 0.056130372 -0.067413054 0.06652893 0.06684102 0.095465794 -0.09176155 0.017550847
0.07366492 -0.12918091 0.10237335 -0.008982081 -0.09122532 -0.13490508 -0.042707335 -0.012241086
-0.07489722 -0.15120667 -0.13068646 0.0896949 -0.10908156 -0.13027984 0.17925295 -0.0316714
-0.01829551 0.03819807 0.04461868 -0.09602557 0.036353387 0.050827224 -0.07229189 0.08056782
-0.08935332 -0.10098195 -0.11496931 -0.08402264 -0.07907704 0.01238399 -0.08846477 0.07284389
-0.064917296 0.04926829 0.03701808 -0.007341712 0.03076736 0.02352276 -0.13104168 0.04508549
-0.1214438 0.07895069 -0.12053046 0.13539937 -0.075755835 -0.078924835 0.0944542 -0.01687768
-0.012027179 0.067075 0.12248976 -0.089209154 -0.037330788 -0.028837334 -0.11935172 0.13640554
-0.043016974 0.039610334 -0.045248725 0.09720294 0.004706004 0.04160945 0.012296907 0.121205814
0.05043633 -0.07716837 0.047517568 0.076904476 0.0011351968 0.08366318 0.12631537 0.05411695
0.03285169 0.08685758 -0.09098602 -0.094050154 0.093312986 -0.03292705 -0.07734481 -0.011956962
00000000: e0b3 a0bd e8f2 00bc 1c9a d33d f9e9 bc3d
00000010: c174 80bd 4bcb fbbd de0d ebbd fadf 89bd
00000020: 2cd4 a43d eec4 1d3c df78 393c 587b e3bd
00000030: e4c2 e5bd 9db7 e1bd b572 fcbd e654 013d
00000040: 7a0f 5f3d a2f9 44bd b312 8d3a 0ae9 ac3c
00000050: b682 003e 2b7d ad3d 33db 3fbd e07a 0f3c
00000060: 1c34 003e ff11 b23d d69b 05be fd4a 96bd
00000070: 6675 2bbc 11b7 013e a9c5 8cbd a76c e23d
00000080: 3ba1 e13c 3aed 91bd 5e70 e9bd 197a d3bc
00000090: 8107 873b 86ab c1bc 1254 90bd e52b 44bd
000000a0: 71d3 f3bb 40d0 bfbd 954d 07bd 9a54 093d
000000b0: 88f8 d9bb 1845 ae3b 2c79 b8bd a70c 313d
000000c0: d6a7 56bd 2523 c23d ead2 0e3c 37a2 883d
000000d0: 5842 8cbc 602d c9bc 9067 acbc 4547 f3bc
000000e0: 8f94 973d 2d8b 683d 75dd c3bd f30f 01be
000000f0: 1669 ccbd f827 fcbc 9a18 07be 8460 adbd
00000100: 2f68 a3bd 140e 81bd 1c3c 82bc a236 59bd
00000110: d7e5 343d 2342 023d 707f 3e3d e050 923c
00000120: a804 34bd b35f 4abc d03d 8d3d 2757 02be
00000130: fb59 df3d 763e 98bd a3bd 093d 6064 c2bd
00000140: 75e8 f53d 389f a9bd 59ba f8bd aa6b 963d
00000150: dc82 37bd 174d c8bd 883e 003e 54a9 02be
00000160: 6a7e 9f3d 31d9 9dbd a810 b13c b1ac a7bd
00000170: 3613 923d 9b75 363d b436 5b3d a361 09be
00000180: 5d3d 9abd a2f1 c6bd e47c a93d 73bb b33d
00000190: bbed cebd 3fc8 bfbd f584 f4bd fec5 4bbd
000001a0: 2cbf 353d c09d 073e e0c5 0a3d 2e4e 27be
000001b0: 7d42 05be d8f9 e33d bccf 063e f583 babd
000001c0: 8f02 2b3d a231 41bd 0111 a03d 490a e03c
000001d0: 4117 0f3e 4473 3e3c cb29 9abd d51a 0fbd
000001e0: 0736 0f3e 57c9 b93d a82c fe3b b957 0f3d
000001f0: 47d2 d2bd 3a76 c23d baa6 483d 5414 4a3d
00000200: a421 063e 7225 02be 4f7f 0cbe 5778 6a3d
00000210: f81c cf3d 8baa c23d 59a6 e33d 8964 d4bd
00000220: dce1 bfbd 1312 643c 9411 3b3d 4355 453c
00000230: df5b af3d 2657 453d 65b3 bebd 74ba d9bc
00000240: a2a1 e63d 5e21 163c 8c7e 85bd f807 b2bd
00000250: 8836 c0bd cb04 2bbd f883 513d 893c 51bd
00000260: 06c3 03bc e1dc 773d 6b4c 07bd 7e9d 46bc
00000270: 4038 b43d 9b31 4d3d 4233 b73c 1934 afbd
00000280: 7704 94bd 60db 4ebd 479d 9f3c b42f f5ba
00000290: a332 0abd 9f2a e13b 61fd 9bbd 289a 78bc
000002a0: b5a9 86bd f6e8 653d db0f 8abd 5240 883d
000002b0: f2e3 883d 9283 c33d 7bed bbbd cbc6 8f3c
000002c0: a2dd 963d 0048 04be 1ea9 d13d 9429 13bc
000002d0: 57d4 babd 8f24 0abe e3ed 2ebd d68e 48bc
000002e0: b763 99bd ecd5 1abe acd2 05be f6b1 b73d
000002f0: 2766 dfbd 1468 05be 168e 373e dfb9 01bd
00000300: 77e0 95bc 9475 1c3d 14c2 363d 0ea9 c4bd
00000310: 4ae7 143d 3530 503d c50d 94bd be00 a53d
00000320: e0fe b6bd a0cf cebd 0875 ebbd 1014 acbd
00000330: 25f3 a1bd 38e6 4a3c 042d b5bd 2d2f 953d
00000340: 5cf3 84bd 8ccd 493d 45a0 173d be92 f0bb
00000350: d50b fc3c ceb2 c03c ca2f 06be 90ab 383d
00000360: 87b7 f8bd e6b0 a13d acd8 f6bd 22a6 0a3e
00000370: e025 9bbd 58a3 a1bd 3471 c13d 0f43 8abc
00000380: a50d 45bc 9e5e 893d e9db fa3d 4ab3 b6bd
00000390: 2be8 18bd 463c ecbc ad6e f4bd e5ad 0b3e
000003a0: 9132 30bd 723e 223d ba56 39bd 5612 c73d
000003b0: d334 9a3b ac6e 2a3d f778 493c c13a f83d
000003c0: 5396 4e3d 730a 9ebd c8a1 423d 1880 9d3d
000003d0: e2ca 943a 9a57 ab3d d158 013e bca9 5d3d
000003e0: 7e8f 063d 63e2 b13d e156 babd 5e9d c0bd
000003f0: e11a bf3d 84de 06bd f566 9ebd 22e7 43bc

mlp.0.bias f4 [150]
9.024595e-06 -0.00019105972 0.025534637 -0.036694843 -0.015179861 0.100709714 -0.06197861 0.091088526
-0.1204032 0.10628811 -0.036056865 0.05379161 0.13409446 -0.10312992 0.07519939 -0.13646877
-0.058543716 -0.009043311 -0.04620897 0.051167518 0.063151166 0.13044943 0.10684823 -0.08810186
0.10925625 0.05203982 0.029210305 -0.034177568 0.11035425 -0.017848056 -0.00076191203 -0.11379263
-0.06544138 0.089621395 0.08315563 -0.07457618 0.09480631 0.07008602 0.02243384 0.07445042
-0.044342034 0.0947524 -0.0064618806 -0.006989149 -0.11189553 -0.0839703 -0.07795091 0.07220012
0.0015707228 -0.052541494 -0.096555114 0.02341581 -0.087252095 0.030490248 0.023505583 0.0074752676
0.0429301 0.06850307 -0.036356326 -0.093996406 -0.09436911 0.071513206 -0.12842977 0.05717885
-0.095804535 0.07686381 0.092802025 -0.029220926 0.095253035 0.0015776606 -0.08404336 0.043470237
-0.047000483 0.18728139 0.17632149 0.010033524 -0.00061201834 -0.1337413 0.098053135 0.11075823
-0.08457511 -0.03873087 -0.06598862 0.20512605 0.1293103 -0.11199316 -0.06409669 0.044461723
-0.012881211 -0.08965351 -0.17326131 -0.10383893 0.04656256 -0.024521863 -0.14545462 0.045847718
0.008812306 0.017042086 0.031094776 0.0025102752 0.0541267 -0.115124315 -0.017991072 0.10828251
0.03337322 -0.09600834 -0.09362038 0.061988786 0.027830109 -0.10397091 0.110003136 -0.11394066
0.13124031 -0.0941026 -0.031206576 0.05718083 -0.1118065 -0.008314519 -0.037261613 -0.05589876
0.0899154 -0.12832817 0.12532951 0.07722283 0.1583878 -0.118287355 -0.021861568 0.06348758
0.06522356 0.02577512 0.12009103 0.05691836 -0.034997534 -0.06405039 0.021937627 -0.0652577
0.12534285 0.069590025 0.054930393 0.056634944 -0.055937145 -0.025154507 -0.07629032 0.10217639
-0.06558808 0.082390964 -0.1182104 0.11623073 0.080822624 0.059760895
00000000: 5768 1737 3457 48b9 042e d13c 554d 16bd
00000010: f4b4 78bc e540 ce3d 48dd 7dbd 9f8c ba3d
00000020: f495 f6bd 95ad d93d 5db0 13bd 9754 5c3d
00000030: 0f50 093e c835 d3bd 2302 9a3d 78be 0bbe
00000040: 89cb 6fbd 652a 14bc 9e45 3dbd 0895 513d
00000050: 6655 813d 8994 053e 3fd3 da3d bf6e b4bd
00000060: bec1 df3d b527 553d 734a ef3c c7fd 0bbd
00000070: 6901 e23d 1636 92bc 0dbb 47ba 1c0c e9bd
00000080: 2106 86bd 6c8b b73d 804d aa3d 65bb 98bd
00000090: d029 c23d 4289 8f3d 2cc7 b73c 7679 983d
000000a0: fe9f 35bd 8c0d c23d 2fbe d3bb 3b05 e5bb
000000b0: 7c29 e5bd 9ff8 abbd baa4 9fbd a8dd 933d
000000c0: b6e0 cd3a c035 57bd b0be c5bd 83d2 bf3c
000000d0: 3ab1 b2bd afc6 f93c c88e c03c 17f3 f43b
000000e0: 79d7 2f3d 564b 8c3d 5fea 14bd 3081 c0bd
000000f0: 9844 c1bd 8475 923d 1883 03be 5f34 6a3d
00000100: 2b35 c4bd c66a 9d3d fd0e be3d b960 efbc
00000110: 0614 c33d 81c9 ce3a ed1e acbd d90d 323d
00000120: 9483 40bd b1c6 3f3e 9f8d 343e a663 243c
00000130: db6f 20ba 7bf3 08be 15d0 c83d 36d5 e23d
00000140: b735 adbd 43a4 1ebd 0b25 87bd 900c 523e
00000150: eb69 043e ab5c e5bd 2045 83bd 7f1d 363d
00000160: b70b 53bc 429c b7bd 6a6b 31be 81a9 d4bd
00000170: 62b8 3e3d 13e2 c8bc 0ef2 14be d1ca 3b3d
00000180: 7e61 103c d89b 8b3c 79ba fe3c 6e83 243b
00000190: f5b3 5d3d 4cc6 ebbd 0362 93bc 38c3 dd3d
000001a0: 5cb2 083d 05a0 c4bd 0bbc bfbd f4e7 7d3d
000001b0: f8fb e33c b3ee d4bd 5349 e13d b959 e9bd
000001c0: dc63 063e ddb8 c0bd efa4 ffbc 7236 6a3d
000001d0: cefa e4bd 9f39 08bc a29f 18bd 19f6 64bd
000001e0: 9125 b83d 7668 03be 6156 003e 0127 9e3d
000001f0: 6930 223e a440 f2bd 0817 b3bc c705 823d
00000200: ee93 853d 5826 d33c 49f2 f53d 3a23 693d
00000210: 9359 0fbd da2c 83bd 8ab6 b33c d4a5 85bd
00000220: e059 003e 3785 8e3d b1fe 603d 0bfa 673d
00000230: 591e 65bd d310 cebc 193e 9cbd db41 d13d
00000240: 0b53 86bd 98bc a83d 4b18 f2bd 610a ee3d
00000250: 5586 a53d d7c7 743d

mlp.2.weight f4 [100, 150]
-0.05691696 -0.082767785 0.06445622 -0.02371726 0.012973849 0.0056361365 -0.044904448 -0.01362883
-0.027669843 -0.070794635 0.021983026 -0.022879966 0.090218164 -0.12541632 0.045303896 0.014440584
-0.013610715 -0.024936171 -0.058868665 -0.09390383 0.0067862193 -0.0460956 0.003131274 -0.011458394
0.03233551 0.03628383 -0.01223396 -0.011610289 -0.08163956 0.07162628 0.0068520713 -0.05389189
0.06761114 -0.051198345 0.027848747 0.069768995 -0.0032943182 0.038270134 -0.022478035 0.0099257715
0.0759371 0.0010412942 0.036001448 -0.0030879113 -0.036232274 0.08329989 0.012493575 -0.11997025
-0.021315508 0.017136376 0.035697587 -0.017398011 0.060657732 0.060260653 0.007868723 0.008428125
0.07431299 -0.052271035 -0.086642325 -0.113808945 -0.052442458 -0.05457491 -0.032041274 0.07471971
0.048999406 0.059351053 0.08641729 -0.12991914 0.009459729 0.022756277 -0.048743144 0.055882603
0.03106764 0.05371224 0.00675673 -0.105254985 -0.027789187 -0.042671084 0.08801243 0.041124407
0.011145129 0.053764228 -0.012794315 0.1345805 -0.041771058 0.069250084 0.023392638 -0.022145411
0.051640738 0.023751944 -0.07575222 0.048425656 -0.114439964 -0.019120552 -0.07403533 -0.028187767
0.051671516 0.036153562 0.038256872 0.08641256 -0.054345705 -0.047433067 -0.04432251 0.0366933
0.07014422 0.09645248 -0.0443811 -0.12292305 -0.006388961 -0.069103576 -0.08389318 -0.03246934
0.009844148 0.033003286 0.017286 -0.08040047 0.0020863484 -0.022343626 0.094099514 -0.083674684
0.029579224 0.037573647 0.06830505 -0.11012986 0.067292534 -0.033401 0.010337582 0.06439378
0.018379359 -0.08371588 -0.059192117 0.014812349 -0.017309112 -0.057594858 0.02322475 0.061390966
0.03481794 0.039344236 -0.028931165 -0.056624867 0.014235732 0.0497152 0.07849762 0.08059753
-0.06129406 -0.09320841 -0.052283116 0.11227876 0.0703834 0.07716517 -0.024744987 -0.013174034
0.0010508084 -0.04474158 0.0041531725 -0.016532749 0.036727656 0.044634264 0.013948382 0.050318602
0.010953927 -0.032337748 0.0007906158 0.052318197 0.05987788 0.07465148 0.004669413 0.0061078314
0.053786583 -0.0034368583 0.0083566 -0.022855636 -0.013507563 -0.0386951 -0.037419423 0.057806447
0.012176454 0.042819038 0.008720704 0.06337314 0.03621903 0.013109009 -0.05862341 -0.02333655
0.07166113 -0.0695362 -0.0832245 -0.06577786 -0.079704784 0.023701727 -0.004137017 0.048892193
-0.05788064 0.02369007 -0.010692416 -0.06952578 0.015171056 0.025105556 0.05673705 -0.063835405
-0.018307121 -0.017998144 0.012317106 0.062481426 -0.04854693 0.045616828 -0.011004606 0.06886069
-0.017596433 -0.018548055 0.023720175 -0.058847133 0.077365026 -0.059237506 0.030990317 -0.08017536
-0.030788748 -0.048641104 0.049679574 0.02053596 0.054776613 -0.045176007 0.0051994408 -0.04153253
-0.02609968 0.05110501 0.05811046 -0.044870228 0.0076313247 0.06773348 0.074605525 -0.064736396
-0.08791651 -0.08431685 0.038415093 0.06284306 -0.08218314 -0.042904466 -0.06890588 -0.031273194
0.078891054 -0.07045584 -0.011696991 -0.008122867 -0.0691759 -0.016210373 0.0167504 -0.0067974203
0.080655135 0.047621 0.034790434 -0.040569957 -0.02639478 -0.0053343195 -0.05184949 -0.036812782
00000000: c221 69bd 2882 a9bd 9f01 843d b34a c2bc
00000010: 4490 543c 57af b83b baed 37bd 754b 5fbc
00000020: deab e2bc c7fc 90bd bf15 b43c c46e bbbc
00000030: 4dc4 b83d 236d 00be 9490 393d 3398 6c3c
00000040: 7aff 5ebc f146 ccbc 4520 71bd a750 c0bd
00000050: ef5e de3b bdce 3cbd 0f36 4d3b fdbb 3bbc
00000060: 3d72 043d 5a9e 143d f370 48bc 1539 3ebc
00000070: a432 a7bd cdb0 923d 5787 e03b bebd 5cbd
00000080: b677 8a3d 5bb5 51bd 0e23 e43c 0ce3 8e3d
00000090: 7de5 57bb 25c1 1c3d db23 b8bc b49f 223c
000000a0: e984 9b3d 097c 883a 4176 133d 8e5e 4abb
000000b0: 4b68 14bd 2299 aa3d dab1 4c3c f6b2 f5bd
000000c0: dc9d aebc 9661 8c3c a237 123d 4686 8ebc
000000d0: 3e74 783d e0d3 763d d1eb 003c 1e16 0a3c
000000e0: 6931 983d 271a 56bd 8871 b1bd aa14 e9bd
000000f0: e7cd 56bd f189 5fbd b63d 03bd a606 993d
00000100: 9ab3 483d 171a 733d 8cfb b03d 8609 05be
00000110: fbfc 1a3c 5f6b ba3c e4a6 47bd 28e5 643d
00000120: 9081 fe3c 5e01 5c3d 8f67 dd3b ed8f d7bd
00000130: 26a6 e3bc e0c7 2ebd dc3f b43d 1172 283d
00000140: 0f9a 363c e137 5c3d 3f9f 51bc 78cf 093e
00000150: 2118 2bbd fdd2 8d3d eba1 bf3c 4b6a b5bc
00000160: 3d85 533d 7093 c23c fb23 9bbd fb59 463d
00000170: 805f eabd b4a2 9cbc d69f 97bd 08ea e6bc
00000180: 83a5 533d c215 143d 3db3 1c3d 11f9 b03d
00000190: 9a99 5ebd 2d49 42bd 858b 35bd b74b 163d
000001a0: c6a7 8f3d e188 c53d f5c8 35bd 14bf fbbd
000001b0: 7d5a d1bb 2d86 8dbd 30d0 abbd 92fe 04bd
000001c0: 5949 213c 742e 073d 5f9b 8d3c 00a9 a4bd
000001d0: 1ebb 083b fb09 b7bc 3fb7 c03d a25d abbd
000001e0: 2150 f23c d3e6 193d 85e3 8b3d c48b e1bd
000001f0: abd0 893d 7dcf 08bd f65e 293c e3e0 833d
00000200: 4f90 963c 3b73 abbd 6f73 72bd 7faf 723c
00000210: d7cb 8dbc 96e8 6bbd d541 be3c 1875 7b3d
00000220: 429d 0e3d 6c27 213d 0d01 edbc 7aef 67bd
00000230: fd3c 693c 2aa2 4b3d 5cc3 a03d 5110 a53d
00000240: 7b0f 7bbd 0de4 bebd d226 56bd 68f2 e53d
00000250: 2c25 903d c608 9e3d 00b6 cabc e7d7 57bc
00000260: 47bb 893a f242 37bd 5617 883b b06f 87bc
00000270: bd6f 163d 6bd2 363d c187 643c e11a 4e3d
00000280: 1a78 333c 9674 04bd 5441 4f3a 9b4b 563d
00000290: 8242 753d e0e2 983d e001 993b 3424 c83b
000002a0: 524f 5c3d ea3c 61bb 1fea 083c be3b bbbc
000002b0: d34e 5dbc c17e 1ebd 1c45 19bd 74c6 6c3d
000002c0: c07f 473c 0463 2f3d 49e1 0e3c c7c9 813d
000002d0: 685a 143d 2bc7 563c 1a1f 70bd 4b2c bfbc
000002e0: 12c3 923d ff68 8ebd 9b71 aabd 8bb6 86bd
000002f0: 433c a3bd 202a c23c d08f 87bb 2e43 483d
00000300: 4014 6dbd ad11 c23c 3e2f 2fbc 8863 8ebd
00000310: 0590 783c 2baa cd3c 1c65 683d 23bc 82bd
00000320: d1f8 95bc d870 93bc b0cd 493c 86ec 7f3d
00000330: 25d9 46bd b6d8 3a3d aa4c 34bc d506 8d3d
00000340: 6526 90bc 17f2 97bc d050 c23c b109 71bd
00000350: 8e71 9e3d 07a3 72bd 68df fd3c fb32 a4bd
00000360: af38 fcbc e53b 47bd cf7c 4b3d 083b a83c
00000370: 715d 603d 7a0a 39bd 1260 aa3b 041e 2abd
00000380: ffce d5bc 7d53 513d 3c05 6e3d d8c9 37bd
00000390: 3110 fa3b dab7 8a3d c8ca 983d 8494 84bd
000003a0: 920d b4bd 50ae acbd 2559 1d3d ddb3 803d
000003b0: a24f a8bd 98bc 2fbd 871e 8dbd 5218 00bd
000003c0: a291 a13d 274b 90bd bca4 3fbc c615 05bc
000003d0: 18ac 8dbd 9ecb 84bc 2338 893c e5bc debb
000003e0: 852e a53d 3d0e 433d 6a80 0e3d af2c 26bd
000003f0: de39 d8bc 84cb aebb 2160 54bd 00c9 16bd

mlp.2.bias f4 [100]
0.07378182 0.045909766 -0.04118532 0.047394227 -0.024594879 0.0555586 0.032554712 -0.039556094
0.014197524 0.042124297 -0.026350431 -0.0757817 -0.05545692 -0.061878897 0.061901905 -0.03964118
0.049981307 0.054079354 -0.052041292 0.00021862754 -0.028089091 0.002047507 0.044035774 0.038612183
-0.029523546 0.009866769 -0.014241508 -0.040773574 0.0131415725 0.082647495 0.049307697 0.014734411
-0.045185585 -0.035165288 -0.032620054 0.07018588 -0.057089508 -0.016978554 0.056071207 -0.009656072
-0.0367281 -0.012187317 0.056181993 0.1297376 0.15619318 0.035118856 -0.05764405 0.01367567
0.018935706 0.03252615 0.019440318 0.0014181295 -0.020106114 -0.017830355 -0.057229746 0.09851133
-0.028728506 -0.0894613 -0.06374678 -0.03880547 0.0008827199 -0.0348493 0.021253927 -0.016003743
-0.016988346 0.08763867 0.014931928 0.05290803 -0.01460167 0.011533649 0.016947683 0.14792731
0.006822872 0.00979598 -0.027861407 -0.054830972 0.055914033 0.08786258 -0.08273427 -0.057033163
0.02013182 0.009846399 0.00010072896 0.052856766 0.05455319 -0.06744142 0.08447922 -0.029073661
0.1719679 0.030172314 0.0689526 -0.039652567 0.044996515 -0.024951108 0.004445199 -0.012134511
0.047828626 -0.011502916 -0.035338674 -0.06629466
00000000: ec1a 973d e10b 3c3d f0b1 28bd 7320 423d
00000010: 337b c9bc 6a91 633d 1758 053d 9205 22bd
00000020: bb9c 683c 878a 2c3d dcdc d7bc 7033 9bbd
00000030: cc26 63bd ba74 7dbd da8c 7d3d ca5e 22bd
00000040: 33b9 4c3d 5082 5d3d 4029 55bd 623f 6539
00000050: 181b e6bc 782f 063b db5e 343d cf27 1e3d
00000060: 5ddb f1bc 3ba8 213c 3755 69bc 3102 27bd
00000070: c04f 573c 1743 a93d def6 493d 9968 713c
00000080: 8514 39bd 7a09 10bd 9b9c 05bd 9dbd 8f3d
00000090: b0d6 69bd 9c16 8bbc ecaa 653d 8034 1ebc
000000a0: 3470 16bd 50ad 47bc 171f 663d efd9 043e
000000b0: 1bf1 1f3e cad8 0f3d 2b1c 6cbd eb0f 603c
000000c0: 0e1f 9b3c 243a 053d 4d41 9f3c 88e0 b93a
000000d0: 94b5 a4bc f710 92bc bd69 6abd 4fc0 c93d
000000e0: 0b58 ebbc 7c37 b7bd ac8d 82bd 7cf2 1ebd
000000f0: 5466 673a 24be 0ebd b71c ae3c 481a 83bc
00000100: 252b 8bbc e77b b33d 0ca5 743c 17b6 583d
00000110: d83b 6fbc a1f7 3c3c ded5 8a3c 427a 173e
00000120: 6692 df3b 517f 203c 9b3d e4bc 7196 60bd
00000130: 1d06 653d 4cf1 b33d 9670 a9bd 9b9b 69bd
00000140: 7deb a43c ca52 213c 733e d338 5680 583d
00000150: 2a73 5f3d ba1e 8abd 7103 ad3d e32b eebc
00000160: 5a18 303e ee2b f73c 0537 8d3d bb6a 22bd
00000170: 444e 383d 4466 ccbc 08a9 913b d4cf 46bc
00000180: f3e7 433d ba76 3cbc 49bf 10bd 7fc5 87bd

mlp.4.weight f4 [100, 100]
-0.0029253587 0.08393836 -0.10015788 0.09388205 0.014248029 0.005906796 0.06304073 0.023697322
-0.040660538 -0.002327838 0.02734064 -0.060762793 0.0125461295 -0.054384448 0.09053184 0.06392375
-0.06204617 0.07570956 0.05682525 0.09406461 -0.10926873 0.0014342328 0.07969229 -0.068237714
0.079503 0.1056182 -0.07191185 0.0013858936 0.027864639 0.021818087 -0.041355934 0.062004495
-0.009666628 0.0033512593 -0.06787146 0.013317084 0.081622474 -0.0015383135 0.050896842 -0.07645165
0.014531109 0.00432113 0.038876366 0.041541707 -0.13904518 0.06874697 -0.0043496 0.017200055
-0.0989455 0.03165551 -0.0663322 -0.089205146 -0.034740638 0.008770627 -0.03146471 -0.10210125
-0.080112234 0.009967799 0.06863884 0.030755498 0.077063955 -0.08061766 -0.06663228 -0.031159766
0.047838386 -0.029806139 0.032627996 0.03747092 0.02502229 0.00071089575 -0.04846997 -0.21171935
-0.099590614 0.04636183 -0.066431865 0.064142756 -0.020119408 0.020240512 -0.009703044 0.00093164324
0.02097043 -0.07290361 -0.06875341 -0.037971847 -0.0006943766 -0.08055945 -0.09169003 0.09451616
-0.13655896 -0.09890669 0.082944475 0.042215407 -0.06657011 -0.050401844 -0.06316723 -0.039083827
-0.04672749 0.014775272 -0.02417006 0.03860935 0.06314957 0.09454073 -0.035245 0.07455736
-0.04756712 -0.095315926 -0.079359874 0.034298804 -0.04258858 0.017710729 0.035841085 0.073028326
-0.09432929 0.043643203 0.08360421 -0.007967452 -0.07563591 -0.047750253 0.060937263 -0.0021928444
-0.054854453 0.07650796 -0.08897051 -0.009911331 -0.046196707 0.07830007 -0.09361771 -0.070096456
0.069181316 -0.008946439 0.09444257 0.011566226 -0.053047087 0.054105353 0.018749736 0.06407254
-0.06154064 0.08651042 -0.05509556 -0.041615266 -0.06508739 -0.008050995 -0.013657341 0.0024394412
-0.016542954 0.084265664 -0.012773051 0.041451868 0.08113122 0.016132407 -0.01000252 -0.072984636
0.05305008 0.04710685 -0.09112935 0.07321453 0.021337809 -0.03431071 0.0035154105 -0.054679316
-0.01362781 -0.034784544 -0.0040432513 -0.020408154 0.07743581 -0.044418793 -0.007292144 -0.028021606
0.094042234 -0.045372292 0.015623689 -0.004562388 -0.043469947 -0.0977312 0.016277378 -0.027139073
-0.012606546 -0.08491114 -0.09852443 0.074674726 0.046216678 -0.021103537 -0.026543485 0.06376024
0.0074917856 -0.026833689 -0.09478391 -0.043559495 -0.017393196 -0.054964036 0.048181035 -0.0048020347
-0.02502266 -0.034654845 0.012761008 0.015796598 0.059387993 0.09164178 -0.080449015 0.035225343
-0.005416826 -0.007942925 -0.09201886 0.094569415 0.06315731 -0.121214174 0.034430474 0.046534088
-0.0012162685 -0.04575642 0.04756031 -0.048725083 0.029390419 -0.033731308 0.1081612 -0.04463669
0.040423732 -0.0540278 -0.037292115 -0.009990053 0.02290207 -0.036262773 -0.001761703 -0.06863905
-0.06398333 -0.05693258 -0.04580022 -0.018161492 0.011063825 -0.04398675 -0.041913643 -0.09154726
0.06604125 0.043964412 0.08572824 -0.074768886 0.060392268 -0.07812718 -0.017880315 0.054600783
0.033774782 0.08730896 -0.024036452 -0.053505894 -0.14345491 0.008669797 0.07639038 0.09302811
0.007922141 0.058320124 0.026006805 0.022966882 0.02908417 0.033939186 -0.08338509 0.1195534
00000000: 60b7 3fbb e0e7 ab3d 931f cdbd 3b45 c03d
00000010: 9170 693c cc8d c13b 801b 813d e320 c23c
00000020: aa8b 26bd a48e 18bb 7af9 df3c 68e2 78bd
00000030: 488e 4d3c 3ac2 5ebd c268 b93d 74ea 823d
00000040: 2024 7ebd 9d0d 9b3d 98c1 683d f2a4 c03d
00000050: 49c8 dfbd defc bb3a b635 a33d 37c0 8bbd
00000060: 78d2 a23d 5b4e d83d 8546 93bd dfa6 b53a
00000070: 6244 e43c d8bb b23c d764 29bd 6df8 7d3d
00000080: c760 1ebc cda0 5b3b 3100 8bbd e62f 5a3c
00000090: af29 a73d 3ca1 c9ba 3579 503d af92 9cbd
000000a0: e313 6e3c 4498 8d3b d33c 1f3d a327 2a3d
000000b0: dc61 0ebe 36cb 8c3d 1787 8ebb 21e7 8c3c
000000c0: f0a3 cabd 35a9 013d 2dd9 87bd 30b1 b6bd
000000d0: 334c 0ebd adb2 0f3c 24e1 00bd 761a d1bd
000000e0: e211 a4bd fb4f 233c 8592 8c3d f4f2 fb3c
000000f0: b5d3 9d3d df1a a5bd 8176 88bd c442 ffbc
00000100: 2ff2 433d 012c f4bc efa4 053d 1b7b 193d
00000110: 8cfb cc3c 685b 3a3a 7288 46bd f5cc 58be
00000120: 2af6 cbbd e7e5 3d3d 6e0d 88bd 475d 833d
00000130: 75d1 a4bc 6ecf a53c 84f9 1ebc 8539 743a
00000140: 2eca ab3c 7d4e 95bd 96ce 8cbd 5e88 1bbd
00000150: d306 36ba 5afc a4bd fcc7 bbbd b091 c13d
00000160: 1dd6 0bbe 978f cabd cbde a93d 10ea 2c3d
00000170: e955 88bd 2a72 4ebd d25d 81bd 5d16 20bd
00000180: 5365 3fbd fc13 723c 4a00 c6bc d624 1e3d
00000190: 9054 813d 929e c13d 105d 10bd 87b1 983d
000001a0: bed5 42bd ff34 c3bd 6e87 a2bd e77c 0c3d
000001b0: 5d71 2ebd 1716 913c 1ace 123d e08f 953d
000001c0: b72f c1bd 37c3 323d af38 ab3d ea89 02bc
000001d0: 00e7 9abd c595 43bd 5a99 793d d3b5 0fbb
000001e0: 10af 60bd 35b0 9c3d 2c36 b6bd 2363 22bc
000001f0: c238 3dbd c95b a03d a4ba bfbd bb8e 8fbd
00000200: efae 8d3d 1694 12bc 1b6b c13d 4580 3d3c
00000210: e747 59bd 939d 5d3d 0c99 993c 7738 833d
00000220: 0a12 7cbd 602c b13d e2ab 61bd c574 2abd
00000230: 8a4c 85bd 52e8 03bc 0ac3 5fbc 08df 1f3b
00000240: 1785 87bc 7a93 ac3d 0f46 51bc 6fc9 293d
00000250: 2028 a63d 1c28 843c 9ce1 23bc f878 95bd
00000260: 0a4b 593d 1df3 403d 06a2 babd 80f1 953d
00000270: a1cc ae3c 6389 0cbd cd62 663b 6bf7 5fbd
00000280: 2e47 5fbc 3d7a 0ebd 407d 84bb 002f a7bc
00000290: aa96 9e3d 7bf0 35bd f0f2 eebb 918d e5bc
000002a0: 3799 c03d 4cd8 39bd 80fa 7f3c 1680 95bb
000002b0: 8b0d 32bd 4c27 c8bd 2358 853c c352 debc
000002c0: b08b 4ebc e4e5 adbd 2dc7 c9bd 10ef 983d
000002d0: b34d 3d3d 53e1 acbc b971 d9bc bb94 823d
000002e0: a77d f53b 53d2 dbbc 111e c2bd 716b 32bd
000002f0: 2d7c 8ebc f821 61bd 7a59 453d 635a 9dbb
00000300: 52fc ccbc 3df2 0dbd 8c13 513c de67 813c
00000310: d340 733d b0ae bb3d 74c2 a4bd 7348 103d
00000320: a17f b1bb 0b23 02bc 6274 bcbd 9cad c13d
00000330: 9f58 813d 233f f8bd f806 0d3d 879a 3e3d
00000340: 336b 9fba 156b 3bbd 9ace 423d f493 47bd
00000350: 2dc4 f03c d729 0abd 9f83 dd3d f6d4 36bd
00000360: 5b93 253d 414c 5dbd 9ebf 18bd 52ad 23bc
00000370: 1f9d bb3c 4688 14bd f2e8 e6ba a192 8cbd
00000380: b109 83bd 2332 69bd 0399 3bbd 69c7 94bc
00000390: 0c45 353c 732b 34bd a4ad 2bbd 217d bbbd
000003a0: a340 873d 0714 343d 4a92 af3d 6e20 99bd
000003b0: e25d 773d 2501 a0bd bd79 92bc 12a5 5f3d
000003c0: 6d57 0a3d 0acf b23d 18e8 c4bc ff28 5bbd
000003d0: d8e5 12be c40b 0e3c 8f72 9c3d 8685 be3d
000003e0: decb 013c 15e1 6e3d 390c d53c 0b25 bc3c
000003f0: ed41 ee3c d103 0b3d cdc5 aabd 6ad8 f43d

mlp.4.bias f4 [100]
0.025251713 -0.013162546 0.050316174 0.072676875 0.013434594 0.11711699 -0.06376982 -0.09057702
0.010767212 -0.118983485 -0.06121448 0.016944267 -0.04210824 -0.004574126 0.12604688 -0.07399111
0.07811692 0.06137358 0.09582308 0.04179658 0.11011611 0.015344522 -0.004077557 -0.023795303
0.05654725 0.06216922 0.031625703 -0.09460687 0.07834415 -0.045179557 0.06267418 0.088293545
0.051458362 0.06646527 -0.020319795 -0.036548115 -0.082106724 0.060274065 0.0052634934 -0.027800879
0.051629514 -0.061708216 -0.027462449 -0.030041073 -0.0063822926 0.12659305 -0.038481746 0.022191226
-0.08359196 0.096112125 0.10980688 -0.054078694 -0.07929601 0.15015525 0.040908854 0.06854151
-0.09736255 -0.031395935 0.046366893 0.10020132 0.089167 -0.05074346 -0.09705883 -0.09520276
0.021774577 0.08561987 -0.023110423 0.06989984 -0.0012267703 -0.0138029205 0.013600938 0.05585202
0.012165348 -0.024977325 0.053901337 0.05782983 0.021952815 0.07406464 0.022244463 -0.09323655
0.091507584 0.046647307 0.08751046 -0.0021390277 -0.052235357 -0.034553885 0.047500588 -0.08774427
0.029685626 0.10572434 -0.045045365 -0.017777018 -0.053235896 -0.0663638 0.0659997 0.008237895
-0.0014738298 0.024416199 -0.048044275 -0.030133365
00000000: aedc ce3c b8a7 57bc 5518 4e3d 9dd7 943d
00000010: c51c 5c3c 08db ef3d c099 82bd 7280 b9bd
00000020: f668 303c 9dad f3bd 09bc 7abd b4ce 8a3c
00000030: b179 2cbd 8de2 95bb 6f12 013e a788 97bd
00000040: c4fb 9f3d dd62 7b3d e43e c43d e432 2b3d
00000050: 8e84 e13d 9767 7b3c 079d 85bb 5eee c2bc
00000060: 179e 673d 27a5 7e3d f489 013d 3fc1 c1bd
00000070: e672 a03d 330e 39bd 525b 803d 3fd3 b43d
00000080: 01c6 523d f21e 883d b375 a6bc 7ab3 15bd
00000090: 9227 a8bd f0e1 763d 6279 ac3b abbe e3bc
000000a0: 7879 533d c1c1 7cbd eef8 e0bc b218 f6bc
000000b0: 8d22 d1bb 9ca1 013e 099f 1dbd 60ca b53c
000000c0: 4332 abbd 6fd6 c43d 6ee2 e03d 9f81 5dbd
000000d0: f265 a2bd 4cc2 193e 0b90 273d 7e5f 8c3d
000000e0: 0466 c7bd 0699 00bd 36eb 3d3d 5a36 cd3d
000000f0: 309d b63d 60d8 4fbd c8c6 c6bd aaf9 c2bd
00000100: 9960 b23c 7859 af3d 1252 bdbc a627 8f3d
00000110: 95cb a0ba a525 62bc 78d6 5e3c 16c5 643d
00000120: 2b51 473c 3f9d ccbc a6c7 5c3d f9de 6c3d
00000130: 64d6 b33c 34af 973d 053a b63c cef2 bebd
00000140: 5468 bb3d 3f11 3f3d af38 b33d ee2e 0cbb
00000150: bef4 55bd 6088 0dbd fa8f 423d 45b3 b3bd
00000160: 452f f33c 0186 d83d 7d81 38bd 1ca1 91bc
00000170: e20d 5abd bee9 87bd da2a 873d 3cf8 063c
00000180: 862d c1ba 7b04 c83c 13ca 44bd 3fda f6bc

mlp.6.weight f4 [1, 100]
0.2754049 0.04757509 0.2104509 0.18112388 -0.1931785 -0.32972425 -0.056061205 0.07616215
-0.3763191 -0.20360222 -0.16096486 -0.028841572 0.08946878 0.2012035 0.21116014 0.11103763
0.22958593 -0.3837003 -0.6879708 -0.14759277 0.3964172 0.29228723 -0.024441514 -0.071145095
0.0068229097 -0.12963332 0.43566912 -0.021653363 0.34215614 0.06963706 0.2957214 0.36332616
-0.38929978 -0.23628397 -0.066179 0.015669717 0.01608503 0.14607124 0.05961312 0.102699645
0.113701425 0.09440408 0.32157922 0.11709878 -0.01079611 0.3996075 -0.0073820623 0.049742717
-0.027559662 0.39784354 0.3667631 0.033090916 0.059714664 0.4450057 0.09560217 0.24908775
-0.07788566 0.060918365 -0.1972453 -0.40583226 -0.17299344 -0.06861544 0.04777384 -0.008498239
0.20070332 0.21214136 0.04409299 -0.07747225 0.04045973 0.06574406 -0.01518643 0.14672145
-0.13924667 0.0038113059 -0.01665899 0.10580663 0.33293608 0.25473356 -0.051836167 0.05424201
-0.21030766 -0.10234274 0.27743885 -0.07051404 -0.022454588 0.077861324 -0.20010577 0.0018978447
-0.07666101 0.4103971 0.002762556 0.10470153 0.032403573 -0.019173738 0.07192621 -0.06765337
0.22710028 -0.05120796 0.002095318 -0.052417994
00000000: df01 8d3e 19de 423d 7180 573e 8a78 393e
00000010: 96d0 45be 9ed1 a8be 6fa0 65bd e7fa 9b3d
00000020: e6ac c0be 1a7d 50be f9d3 24be 2945 ecbc
00000030: 683b b73d 4a08 4e3e 5d3a 583e b267 e33d
00000040: 9318 6b3e 5e74 c4be db1e 30bf 8f22 17be
00000050: 32f7 ca3e aca6 953e 9239 c8bc 85b4 91bd
00000060: b792 df3b 99be 04be 0610 df3e 6562 b1bc
00000070: 172f af3e e09d 8e3d cc68 973e e305 ba3e
00000080: 4d52 c7be 6df4 71be db88 87bd c75d 803c
00000090: c1c4 833c b393 153e e32c 743d 3154 d23d
000000a0: 4bdc e83d ed56 c13d 08a6 a43e 7cd1 ef3d
000000b0: 2be2 30bc 5b99 cc3e 3ae5 f1bb 05bf 4b3d
000000c0: cdc4 e1bc 26b2 cb3e 5fc8 bb3e 578a 073d
000000d0: 5d97 743d cad7 e33e 12cb c33d dc10 7f3e
000000e0: 8482 9fbd 8985 793d acfa 49be 3fc9 cfbe
000000f0: 3125 31be 4086 8cbd 81ae 433d 333c 0bbc
00000100: 2c85 4d3e 963b 593e da9a 343d c5a9 9ebd
00000110: 1ab9 253d d2a4 863d 81d0 78bc 263e 163e
00000120: ae96 0ebe 1ac7 793b 6f78 88bc 25b1 d83d
00000130: 9976 aa3e 706c 823e 2952 54bd df2c 5e3d
00000140: e45a 57be 1299 d1bd 770c 8e3e aa69 90bd
00000150: aff2 b7bc c275 9f3d 87e8 4cbe 1ac1 f83a
00000160: 7300 9dbd 921f d23e 000c 353b c16d d63d
00000170: 9cb9 043d 3e12 9dbc 0c4e 933d da8d 8abd
00000180: fa8c 683e 70bf 51bd 9a51 093b 40b4 56bd

lstm.weight_ih_l0 f4 [200, 13]
-0.09003914 0.094237745 -0.07358903 -0.09710723 0.08106956 0.021074586 -0.046397366 -0.0065877377
-0.024419932 -0.047873765 -0.11522913 -0.106508836 -0.0006780097 0.11132011 -0.034458797 -0.10545808
-0.09517306 0.14681682 0.05961379 0.15717894 0.102659866 -0.08803909 -0.017048582 0.06895542
0.090718746 -0.031947248 0.0875469 -0.12103112 -0.07154089 0.087382734 -0.031087115 0.13640831
0.11064366 0.028489914 0.071007475 -0.16863202 0.09575345 -0.022063617 -0.019017005 0.042060617
-0.085013814 0.094583854 0.0757684 -0.11605127 -0.003765948 0.12043546 -0.0014137522 0.029222844
0.036134873 -0.048911374 0.12768157 0.031701446 0.05379173 0.12716036 -0.043292657 -0.08346063
-0.04399057 -0.058937952 -0.021441627 0.099898994 0.0059305304 0.040998273 -0.13202883 -0.07346104
-0.09001664 0.14977726 -0.07192651 0.046555966 -0.13004017 0.12993601 0.07208568 -0.083743915
-0.10315329 0.012135583 -0.0429412 -0.07099171 0.09902737 -0.007785124 -0.0037311246 -0.10694492
-0.020784635 0.0009122843 -0.07252584 0.06751739 -0.10617722 0.021730525 0.11667987 0.08980182
-0.12789397 0.061820347 0.10217218 0.024344094 0.059748363 -0.09270765 0.015267564 -0.09148315
0.1294947 -0.03024451 0.04010409 -0.096599124 -0.053968854 0.07216643 0.12942456 0.1150713
0.11611817 0.0071804356 -0.020072555 0.102866314 -0.051007185 0.062027644 0.033796035 0.08189748
-0.08465456 -0.096598975 0.0877247 0.14149866 0.0066395146 -0.06932888 -0.006478866 -0.09200868
0.04112784 -0.08483716 -0.02637063 0.1369643 0.11192662 -0.05928791 0.007835187 -0.11792904
0.110672265 0.0500794 -0.09675885 -0.07761279 -0.07553982 0.04658127 -0.012161436 -0.02611683
-0.064323485 -0.07861691 -0.10042966 -0.098220095 0.04789959 -0.032442752 0.12927574 0.121934
0.025863213 -0.07820358 0.04775904 -0.041863915 -0.08921525 0.14147043 -0.07694136 -0.09647024
-0.15194686 0.0009836893 0.08501423 -0.053660322 -0.097594954 -0.056512896 -0.04460457 -0.01820814
0.10968048 -0.10669824 0.0956104 0.13461065 0.0028524906 0.04323601 0.07049002 0.00700969
-0.12327674 0.042691655 -0.041624643 -0.087801516 -0.021677636 0.14353949 0.008987999 -0.06137822
-0.0061319387 -0.041952882 0.100104906 -0.046940148 0.06744457 -0.027137484 0.009621332 0.110462435
-0.017347643 -0.048168037 -0.05691057 0.13049626 -0.0765829 0.13547304 -0.087909915 0.12753189
-0.050140575 0.09977084 -0.108241975 -0.05899603 0.08012214 -0.06513123 0.089508444 0.10270464
-0.12568328 0.04568192 -0.0813498 -0.03236608 0.06874101 -0.10107447 -0.07458351 -0.13072099
0.28689608 0.23549469 -0.013861509 0.16343994 0.050571058 0.1272457 -0.08406681 -0.1869257
0.08803998 0.18268059 0.0066842404 0.0774777 -0.018059218 0.062483612 0.11401809 -0.08458571
0.016172733 0.05029308 -0.06507594 -0.12157669 -0.122131184 0.09819555 0.069625735 0.09850702
0.1352013 -0.058942266 0.033407737 -0.13001713 0.04013196 -0.009768878 -0.058533352 0.03308028
0.13115315 -0.0085740965 0.02007923 0.03224149 -0.12884542 -0.100524016 -0.1189409 0.17882295
0.009832379 0.012538385 0.1295857 -0.09202325 0.015872749 -0.06764144 -0.020890998 0.027878938
00000000: 7166 b8bd b8ff c03d d8b5 96bd 28e0 c6bd
00000010: cc07 a63d 9ca4 ac3c 2a0b 3ebd f3dd d7bb
00000020: 4f0c c8bc 4817 44bd 40fd ebbd 4e21 dabd
00000030: 76bc 31ba ccfb e33d ab24 0dbd 68fa d7bd
00000040: 18ea c2bd 2657 163e 972d 743d 84f3 203e
00000050: 563f d23d d74d b4bd 78a9 8bbc 8038 8d3d
00000060: c0ca b93d 1edb 02bd ca4b b33d 2adf f7bd
00000070: 0884 92bd b8f5 b23d 68aa febc 9fae 0b3e
00000080: 2599 e23d ae63 e93c 5e6c 913d dfad 2cbe
00000090: 631a c43d c2be b4bc 8dc9 9bbc c147 2c3d
000000a0: b91b aebd 2eb5 c13d 772c 9b3d 4aac edbd
000000b0: 1fce 76bb dea6 f63d a74d b9ba bf64 ef3c
000000c0: 2902 143d 4b57 48bd f5be 023e 60d9 013d
000000d0: b854 5c3d 5336 023e a453 31bd 68ed aabd
000000e0: 752f 34bd ec68 71bd 5aa6 afbc d897 cc3d
000000f0: e554 c23b ceed 273d 9132 07be be72 96bd
00000100: a55a b8bd 365f 193e 354e 93bd 78b1 3e3d
00000110: 4029 05be f20d 053e a8a1 933d ee81 abbd
00000120: 0842 d3bd 53d4 463c 1de3 2fbd 1a64 91bd
00000130: ddce ca3d 5a1a ffbb e285 74bb f005 dbbd
00000140: 8a44 aabc 5d26 6f3a 6d88 94bd 8f46 8a3d
00000150: 7173 d9bd 3704 b23c dbf5 ee3d 04ea b73d
00000160: a3f6 02be 5537 7d3d a63f d13d 446d c73c
00000170: b3ba 743d 82dd bdbd ce24 7a3c 855b bbbd
00000180: 429a 043e 56c3 f7bc 3044 243d c3d5 c5bd
00000190: 720e 5dbd fecb 933d df87 043e 80aa eb3d
000001a0: 5dcf ed3d dc49 eb3b 336f a4bc 93ab d23d
000001b0: e9ec 50bd b310 7e3d b66d 0a3d deb9 a73d
000001c0: 5f5f adbd afd5 c5bd 02a9 b33d 06e5 103e
000001d0: 4990 d93b 4dfc 8dbd ab4c d4bb 0c6f bcbd
000001e0: aa75 283d 1bbf adbd 3807 d8bc 5f40 0c3e
000001f0: c939 e53d e1d7 72bd 285f 003c c884 f1bd
00000200: 24a8 e23d 0f20 4d3d 8129 c6bd 74f3 9ebd
00000210: 9fb4 9abd 00cc 3e3d c240 47bc f6f2 d5bc
00000220: 08bc 83bd e701 a1bd 11ae cdbd 9e27 c9bd
00000230: 5c32 443d b1e2 04bd dc60 043e 88b8 f93d
00000240: 17df d33c 3329 a0bd fc9e 433d 7f79 2bbd
00000250: 7cb6 b6bd a0dd 103e 6f93 9dbd 3092 c5bd
00000260: f597 1bbe 23ef 803a f11b ae3d edca 5bbd
00000270: dddf c7bd 117a 67bd 48b3 36bd 3d29 95bc
00000280: 29a0 e03d 9b84 dabd 63cf c33d 60d7 093e
00000290: daf0 3a3b 3e18 313d 125d 903d 8bb1 e53b
000002a0: 8478 fcbd 72dd 2e3d 9a7e 2abd 48d1 b3bd
000002b0: 4c95 b1bc 04fc 123e 6642 133c ba67 7bbd
000002c0: 6eee c8bb c9d6 2bbd cd03 cd3d 5044 40bd
000002d0: 6120 8a3d 6e4f debc cba2 1d3c 213a e23d
000002e0: a51c 8ebc d94b 45bd 0f1b 69bd d0a0 053e
000002f0: 7fd7 9cbd 72b9 0a3e 1d0a b4bd b897 023e
00000300: 3460 4dbd a754 cc3d f8ad ddbd d2a5 71bd
00000310: 1417 a43d 8663 85bd 3450 b73d cf56 d23d
00000320: 1eb3 00be f71c 3b3d b99a a6bd 4b92 04bd
00000330: 16c8 8c3d 2200 cfbd 3dbf 98bd b9db 05be
00000340: 0be4 923e 8525 713e 621b 63bc cd5c 273e
00000350: 9923 4f3d b24c 023e 382b acbd 7369 3fbe
00000360: 4e4e b43d 9f10 3b3e 7907 db3b a1ac 9e3d
00000370: edf0 93bc d1ee 7f3d 5182 e93d 463b adbd
00000380: ae7c 843c 1e00 4e3d 8946 85bd 33fd f8bd
00000390: ea1f fabd c01a c93d f097 8e3d 0cbe c93d
000003a0: 3672 0a3e 726d 71bd 8dd6 083d 3623 05be
000003b0: 6961 243d a50d 20bc abc0 6fbd 307f 073d
000003c0: 034d 063e 5e7a 0cbc 337d a43c a70f 043d
000003d0: 0ef0 03be 89df cdbd 4997 f3bd 5d1d 373e
000003e0: fd17 213c cc6d 4d3c 1db2 043e b076 bcbd
000003f0: 9107 823c 9887 8abd 9923 abbc 5f62 e43c

lstm.weight_hh_l0 f4 [200, 50]
-0.13374238 -0.07905685 0.12137305 -0.13728967 -0.1009465 -0.07715776 0.06984061 0.08843046
-0.04914969 -0.017718365 0.03368293 -0.0006051762 0.038181152 3.9537277e-05 0.019146396 -0.123965174
0.0744272 0.11791224 -0.07397706 0.028697802 0.0014007624 -0.12082502 -0.14110339 -0.12970181
-0.10008948 -0.10755771 -0.021267517 0.027725067 0.044718847 -0.031027677 -0.01754356 0.079156406
0.043348167 -0.1396675 0.073529996 -0.12775512 0.11714865 0.018771106 -0.087185085 0.03303888
-0.05157169 -0.037539776 -0.037319243 0.029013481 -0.041396394 0.12324352 -0.05453873 0.023228379
0.11710628 -0.02616539 -0.13345547 -0.08481563 0.028563004 -0.11238725 -0.07245971 0.112975225
0.13386007 -0.031225769 0.07247379 0.032220423 -0.052950718 -0.13831145 -0.0045629223 -0.101732105
-0.05092916 0.09783091 -0.13905664 0.094148554 -0.061556183 -0.09434619 -0.10582299 0.019131359
0.014374778 -0.020748861 -0.1080661 -0.062091034 0.036873557 0.047532115 -0.069694094 0.04780658
-0.07905113 0.09051502 0.05673321 -0.07224657 -0.05521572 -0.13201691 -0.017484209 -0.088342294
0.05972757 0.12126744 0.09705971 0.1397734 -0.13694805 -0.13113502 -0.13167523 -0.1226196
-0.12734123 0.022412544 0.019368732 0.039165065 -0.08986335 0.022326041 -0.08488102 0.0034220286
-0.1232352 0.016602917 0.073202044 -0.06656412 0.11506744 0.109528534 0.13453344 0.006181678
-0.000313114 -0.092549264 -0.12337036 0.13297047 0.09594483 0.06577736 0.05124681 -0.13665801
0.06873537 -0.09655689 -0.12522018 -0.12956849 0.042191856 0.00079057744 0.051937815 0.12341118
-0.01824983 -0.12289032 0.0992185 -0.08849146 0.12179871 0.027258145 -0.062216222 -0.043604206
0.12329428 -0.11194291 -0.04766722 0.06958051 0.010294608 -0.015136594 0.06055028 -0.10403208
0.010981271 -0.03692629 -0.13232051 0.06903163 0.08398032 0.05424776 0.07566697 -0.1352915
0.097148225 0.074700266 0.0033516441 -0.0005671284 -0.075318016 -0.062409516 -0.011685827 0.04098023
0.08882084 -0.13280569 0.035031162 -0.09363436 -0.08349047 -0.051065773 -0.12056396 -0.107978106
-0.09149369 0.0072510135 0.010082538 -0.1223503 0.057531152 -0.056403987 -0.011077442 -0.07155018
0.097319156 0.08356446 0.1206382 -0.05381283 0.05730294 0.04239298 0.03745885 0.13707979
0.058242016 -0.034844145 -0.047404986 -0.05211613 -0.03315687 0.02675658 -0.09977055 -0.012048367
0.011236107 0.046460718 -0.019856354 0.14373319 -0.063481614 0.057886265 0.079186566 0.13116501
-0.09172736 -0.067824565 -0.03223532 -0.06886927 0.08228425 -0.147298 -0.10175358 -0.073429346
0.022493828 0.046366688 -0.11232623 0.026948849 0.1351396 -0.10095034 -0.048501726 0.09216308
-0.013389064 0.018327778 -0.07103542 -0.06910404 -0.011958936 -0.04993316 -0.024592422 -0.027172625
-0.0252955 -0.033042517 0.085765846 0.12943253 -0.019251598 0.060077906 0.12353738 -0.014721046
-0.00076633965 0.12061871 -0.054150604 -0.012563668 0.058841076 0.06127381 -0.017243702 0.03524039
0.10929164 0.045667917 -0.10913808 -0.08799582 0.0044682687 0.10078168 0.03650582 -0.11094946
0.0815717 0.014121056 -0.084656335 0.02993954 0.048922643 0.10957533 0.0144135095 0.08382414
00000000: c3f3 08be 8fe8 a1bd 6f92 f83d aa95 0cbe
00000010: 0abd cebd e304 9ebd 9808 8f3d 071b b53d
00000020: 2f51 49bd 1b26 91bc 1df7 093d b0a4 1eba
00000030: d763 1c3d d4d4 2538 e7d8 9c3c 74e1 fdbd
00000040: 4a6d 983d f97b f13d 4981 97bd a717 eb3c
00000050: c999 b73a 1c73 f7bd 687d 10be 8dd0 04be
00000060: b7fb ccbd 3747 dcbd 3739 aebc ae1f e33c
00000070: 1c2b 373d c12d febc 83b7 8fbc c11c a23d
00000080: d98d 313d ff04 0fbe e596 963d 3dd2 02be
00000090: a2eb ef3d ddc5 993c 188e b2bd c753 073d
000000a0: d63c 53bd 4fc3 19bd 10dc 18bd aead ed3c
000000b0: 448f 29bd 1967 fc3d 0164 5fbd 7149 be3c
000000c0: 6bd5 ef3d cd58 d6bc 8da8 08be d1b3 adbd
000000d0: f6fc e93c 492b e6bd c265 94bd 8e5f e73d
000000e0: 9d12 093e 2fcd ffbc 236d 943d 90f9 033d
000000f0: dae2 58bd 84a1 0dbe 9184 95bb ec58 d0bd
00000100: 189b 50bd 925b c83d dd64 0ebe f5d0 c03d
00000110: 5622 7cbd 9338 c1bd b9b9 d8bd 5eb9 9c3c
00000120: 3084 6b3c 84f9 a9bc c251 ddbd 2b53 7ebd
00000130: ba08 173d 09b1 423d c7bb 8ebd d5d0 433d
00000140: 8fe5 a1bd f05f b93d 1561 683d 02f6 93bd
00000150: e129 62bd 712f 07be 0b3b 8fbc ceec b4bd
00000160: e5a4 743d 105b f83d 3ec7 c63d c220 0f3e
00000170: 1c3c 0cbe 4248 06be dfd5 06be fc1f fbbd
00000180: bd65 02be 839a b73c 2dab 9e3c 8c6b 203d
00000190: 470a b8bd 1ae5 b63c 1ad6 adbd 1d44 603b
000001a0: bd62 fcbd d702 883c f4ea 953d c552 88bd
000001b0: 7aa8 eb3d 7f50 e03d 22c3 093e ac8f ca3b
000001c0: 7329 a4b9 788a bdbd 99a9 fcbd 6929 083e
000001d0: b97e c43d 48b6 863d 2de8 513d 14f0 0bbe
000001e0: 21c5 8c3d 9ebf c5bd b839 00be 9aad 04be
000001f0: 5ed1 2c3d c13e 4f3a bfbc 543d 00bf fc3d
00000200: ab80 95bc ecad fbbd 1233 cb3d 033b b5bd
00000210: 9a71 f93d 794c df3c 70d6 7ebd 539a 32bd
00000220: b681 fc3d 5342 e5bd b43e 43bd 3a80 8e3d
00000230: b7aa 283c 7aff 77bc 9203 783d c50e d5bd
00000240: caea 333c 0540 17bd 077f 07be 7560 8d3d
00000250: e0fd ab3d e632 5e3d 49f7 9a3d db89 0abe
00000260: a6f5 c63d 74fc 983d 42a7 5b3b 58ab 14ba
00000270: 5540 9abd 1fa1 7fbd e975 3fbc e3da 273d
00000280: b3e7 b53d 37fe 07be d67c 0f3d 5fc3 bfbd
00000290: 0dfd aabd 582a 51bd 3dea f6bd a023 ddbd
000002a0: 0b61 bbbd e999 ed3b 3b31 253c cb92 fabd
000002b0: c9a5 6b3d de07 67bd 297e 35bc e788 92bd
000002c0: 444f c73d d823 ab3d 2911 f73d d86a 5cbd
000002d0: 7db6 6a3d 43a4 2d3d 736e 193d a55e 0c3e
000002e0: 2e8f 6e3d bcb8 0ebd bb2b 42bd b977 55bd
000002f0: 80cf 07bd 9e30 db3c 8154 ccbd 8466 45bc
00000300: a617 383c 984d 3e3d cba9 a2bc cb2e 133e
00000310: a602 82bd 261a 6d3d 912c a23d 1f50 063e
00000320: 8edb bbbd 9be7 8abd 2f09 04bd 550b 8dbd
00000330: a584 a83d 49d5 16be 2e64 d0bd 2062 96bd
00000340: fa44 b83c ffea 3d3d 4b0b e6bd d5c3 dc3c
00000350: 0962 0a3e 0dbf cebd bfa9 46bd ffbf bc3d
00000360: ce5d 5bbc 2324 963c 057b 91bd 6b86 8dbd
00000370: 6aef 43bc b786 4cbd 0c76 c9bc 2099 debc
00000380: 8238 cfbc 9757 07bd 01a6 af3d f689 043e
00000390: 87b5 9dbc 4014 763d 2a01 fd3d 8b30 71bc
000003a0: 2fe4 48ba f106 f73d 06cd 5dbd d8d7 4dbc
000003b0: 5703 713d 3ffa 7a3d aa42 8dbc 3a58 103d
000003c0: 4cd4 df3d 480e 3b3d c983 dfbd 2737 b4bd
000003d0: 8e6a 923b a066 ce3d 2087 153d 7839 e3bd
000003e0: 100f a73d 005c 673c 4d60 adbd c443 f53c
000003f0: 1c63 483d 0869 e03d a426 6c3c feab ab3d

lstm.bias_ih_l0 f4 [200]
0.111284725 -0.02987954 0.04058636 -0.109238625 0.014781227 0.012565322 -0.08826009 -0.12562717
-0.1291277 -0.015185676 0.08670367 -0.00660359 -0.071512915 -0.07272876 0.010848971 0.09223607
0.11323772 -0.06304468 0.0720037 -0.07030623 0.15231532 -0.028930986 -0.08984221 -0.05403768
0.045947112 0.002763968 0.13608561 0.01111936 -0.11970913 -0.07244829 -0.08117701 0.02891572
-0.09045384 0.14233756 0.02333572 0.031519376 0.13311857 0.012123605 -0.08028992 -0.025084216
-0.12191755 0.02898539 0.037537303 -0.116282545 0.07560895 0.093266495 -0.06786537 -0.025547573
0.109065786 -0.025328122 -0.059681065 0.106088616 -0.039674215 -0.06932221 -0.05828279 -0.05381244
0.05554877 0.07409837 -0.04116834 -0.026512891 -0.04435158 0.005678629 -0.12165398 0.11910618
0.10438615 0.080094196 -0.19855274 -0.13662897 -0.106154904 -0.04873377 -0.0024108521 0.10964337
-0.12076106 0.0014506374 0.13624042 -0.1417441 -0.06460735 -0.10234129 -0.08793464 -0.1411703
0.040031932 0.12265029 -0.026498491 -0.08768616 0.1308262 0.09928965 0.05001003 0.122202955
-0.017072134 -0.07784526 -0.10941489 -0.015241958 -0.16141412 -0.09872214 0.02076893 -0.027498145
-0.009103194 0.12870465 0.033924114 -0.05583132 -0.073241375 0.002364639 0.06932132 0.06549309
-0.06296833 -0.020761343 -0.0017617176 0.004381547 0.104991585 0.088390484 0.034875534 -0.08570147
0.109159015 0.057845082 0.028910803 0.11321141 0.021171307 0.02370978 0.16745025 0.11770963
-0.029170081 -0.113673404 -0.0042035826 0.03157125 -0.062203154 0.073343694 -0.14221892 -0.055274867
-0.1708996 -0.13281026 -0.01371937 0.030713592 0.10642564 0.082912676 -0.0063081975 -0.06211508
-0.03840612 0.08372772 -0.11147511 0.1600939 -0.035797007 0.01604175 0.14153913 0.061674528
-0.023710757 -0.08428396 0.06896751 -0.004113292 0.02055705 0.005609914 -0.011239361 0.008037913
0.10087129 0.117400646 -0.13370314 0.1364102 0.10002214 -0.10401071 0.08311447 -0.091647804
-0.08061573 -0.094611175 0.09610492 -0.11712422 0.09950722 0.07165395 0.13856259 0.061575275
0.0734341 0.15939595 -0.06659629 -0.116848744 -0.041939206 -0.12560876 -0.03394133 0.10689386
0.0072351103 0.03121466 0.058881354 -0.029760705 -0.039016686 -0.079331025 -0.120608844 0.062051978
0.13321039 -0.031659372 0.01494955 0.119473025 -0.09314888 0.08303133 0.13385902 0.031393718
0.20476761 -0.026291665 0.10858172 0.10626563 0.04012158 0.10623732 0.17585143 -0.09826309
00000000: 3fe9 e33d f0c5 f4bc e23d 263d 80b8 dfbd
00000010: f62c 723c c8de 4d3c b5c1 b4bd 69a4 00be
00000020: 0d3a 04be 57cd 78bc b291 b13d ee62 d8bb
00000030: 5d75 92bd d1f2 94bd e2bf 313c 44e6 bc3d
00000040: 2ee9 e73d 921d 81bd ad76 933d b6fc 8fbd
00000050: 8cf8 1b3e ad00 edbc 31ff b7bd 9d56 5dbd
00000060: 0a33 3c3d b023 353b 075a 0b3e fa2d 363c
00000070: 0f2a f5bd c55f 94bd 2240 a6bd a9e0 ec3c
00000080: dd3f b9bd f0c0 113e 8d2a bf3c 761a 013d
00000090: 3c50 083e 16a2 463c 0b6f a4bd 6a7d cdbc
000000a0: e9af f9bd c572 ed3c b7c0 193d 8b25 eebd
000000b0: ddd8 9a3d 8102 bf3d 00fd 8abd 2549 d1bc
000000c0: e25d df3d ec7c cfbc 2274 74bd fd44 d93d
000000d0: 6e81 22bd cef8 8dbd efb9 6ebd 6f6a 5cbd
000000e0: 1b87 633d e3c0 973d 22a0 28bd 9031 d9bc
000000f0: 01aa 35bd cb13 ba3b b925 f9bd f1ed f33d
00000100: 68c8 d53d 6d08 a43d 6951 4bbe 77e8 0bbe
00000110: be67 d9bd 109d 47bd 63ff 1dbb b48c e03d
00000120: 9351 f7bd 5023 be3a 9c82 0b3e 5e25 11be
00000130: dc50 84bd 4f98 d1bd 1417 b4bd f28e 10be
00000140: 86f8 233d 1330 fb3d 5d13 d9bc cd94 b3bd
00000150: 4ef7 053e 5f58 cb3d 51d7 4c3d 8b45 fa3d
00000160: dcda 8bbc 566d 9fbd ea14 e0bd 68b9 79bc
00000170: be49 25be d52e cabd 9a23 aa3c ca43 e1bc
00000180: 9025 15bc 27cb 033e 03f4 0a3d 62af 64bd
00000190: 93ff 95bd 0ff8 1a3b 56f8 8d3d 3e21 863d
000001a0: 8af5 80bd b113 aabc 6fe9 e6ba 1593 8f3b
000001b0: d405 d73d 1206 b53d a6d9 0e3d 4184 afbd
000001c0: c38e df3d f7ee 6c3d 59d6 ec3c 62db e73d
000001d0: 736f ad3c 033b c23c 1478 2b3e bf11 f13d
000001e0: 18f6 eebc 9acd e8bd 35be 89bb db50 013d
000001f0: bcc8 7ebd 3835 963d d6a1 11be e667 62bd
00000200: 4e00 2fbe 6aff 07be 35c7 60bc 129b fb3c
00000210: b0f5 d93d 1fce a93d ffb4 cebb 626c 7ebd
00000220: bc4f 1dbd 7079 ab3d 104d e4bd a8ef 233e
00000230: e29f 12bd fd69 833c a2ef 103e 6e9e 7c3d
00000240: 103d c2bc 129d acbd d63e 8d3d cbc8 86bb
00000250: 4267 a83c 5fd3 b73b 4c25 38bc 73b1 033c
00000260: 9b95 ce3d c06f f03d 7ae9 08be 1eaf 0b3e
00000270: 68d8 cc3d 9103 d5bd eb37 aa3d d8b1 bbbd
00000280: dc19 a5bd 81c3 c1bd a8d2 c43d d3de efbd
00000290: 71ca cb3d 4ebf 923d 5ae3 0d3e 5b36 7c3d
000002a0: 9e64 963d b138 233e a363 88bd 654e efbd
000002b0: 72c8 2bbd 959f 00be 1006 0bbd 2beb da3d
000002c0: 8114 ed3b e3b5 ff3c 932d 713d b9cc f3bc
000002d0: f6cf 1fbd 4e78 a2bd c501 f7bd 372a 7e3d
000002e0: 4e68 083e 42ad 01bd f5ee 743c 46ae f43d
000002f0: d7c4 bebd 540c aa3d 5712 093e b396 003d
00000300: 9aae 513e 9e61 d7bc 1860 de3d cba1 d93d
00000310: 8756 243d f492 d93d 6612 343e 293e c9bd
