models/LSTM_RL/output/rl_model.pth (torch, 190913 bytes, 11 tensors)

mlp.0.weight f4 [150, 56]
000000 ab d4 cc bc 80 17 0e 3e 77 77 8c 3d 12 67 a3 3d
       -0.025003752 0.13876152 0.068587236 0.079786435
000010 db e3 88 3c 0a f9 a4 3c 22 41 fe 3c bf 9d 24 bc
       0.016710212 0.020138282 0.031036917 -0.010047375
000020 e5 52 2b bd f0 15 5e bd 8e 27 ae bd 15 c3 5d bc
       -0.0418271 -0.05422014 -0.08503638 -0.013535281
000030 6d 5b b6 3c e5 4d 33 bc 49 4b 23 3d 86 82 b8 3d
       0.022260392 -0.0109438645 0.03986672 0.0900927
000040 24 de 07 be 6e b6 b3 bc e9 78 0a be 4f 0f 0e 3d
       -0.13268334 -0.021937575 -0.13522686 0.03468257
000050 6f 62 b1 3b 5e 32 7a bd c6 f2 8a bb 64 a5 83 bd
       0.0054133455 -0.06108319 -0.0042403666 -0.0642803
000060 85 18 6a bd da b0 b1 bc 85 24 b2 3d ed 8b dd bb
       -0.05715229 -0.021690775 0.08698372 -0.006761065
000070 ea 4e 23 3e 84 36 c8 3d c9 e4 ac bd c3 12 88 3d
       0.15948072 0.09776023 -0.08442075 0.066442035
000080 aa 8a 2f bc 8c c0 b1 3d cf 75 f1 bd 5c 54 a2 bd
       -0.010714212 0.086793035 -0.11790048 -0.079262465
000090 d1 62 71 3d a6 55 eb 3c 6d de e5 3d 97 17 b5 bc
       0.05893213 0.028727364 0.11224065 -0.022105975
0000a0 61 a7 aa 3d 7b dd 70 3d d1 16 70 bd 7d 17 01 3b
       0.08332706 0.05880497 -0.05861551 0.0019697838
0000b0 5f 7e 1d 3e 75 17 85 bc d9 19 82 bd c8 ad e4 bd
       0.15380238 -0.016246537 -0.06352586 -0.11165959
0000c0 ae ee 62 bd e3 a7 be bc fc f2 2d bd d2 b2 ae 3c
       -0.055403404 -0.023273414 -0.042468056 0.021325503
0000d0 33 5d 22 bd 4a 60 dc bd fa c4 be bd d3 3c 99 bd
       -0.039639663 -0.10760553 -0.09314914 -0.074823044
0000e0 0e 32 fe 3c 43 39 de bd 45 86 3d 3c ad db 19 bd
       0.031029727 -0.108507656 0.011567657 -0.037563015
0000f0 83 52 97 bd d3 7b 26 3e 4d f5 d7 3c 22 20 7d 3d
       -0.07388785 0.16258173 0.026362086 0.061798222
000100 77 2a e7 3d 2e 06 0c bc d2 3e 8e 3d 7d 09 a8 bd
       0.112873964 -0.008546395 0.06945576 -0.08204935
000110 54 3b e3 bc f6 2e 06 be 7c ef a4 3d d9 79 e9 3d
       -0.02773825 -0.13103852 0.080534905 0.11400194
000120 6b ec 90 3d 02 ea 25 3d a9 92 2e 3c 07 f0 96 3d
       0.07076343 0.04050637 0.010655084 0.0737
000130 58 c2 bf bd a6 6d 3c bd d1 df 36 bc 0f ea 2d bc
       -0.0936324 -0.046003006 -0.01116176 -0.010614886
000140 2c fb 97 bd 3a 18 d0 3c ae c6 6f bd ef 9d 62 3d
       -0.07420954 0.025402177 -0.058539085 0.0553264
000150 5c eb c2 bd dd b0 d5 bd da 82 43 bc 3b de ae bd
       -0.095175475 -0.104341246 -0.011933053 -0.08538481
000160 bb b9 e2 3c 5e 93 04 bb 40 d1 02 bd 21 03 b9 bd
       0.027676454 -0.002022944 -0.031937838 -0.090338
000170 cc 3f 7d bc 50 2c 8e 3d 4e 61 8f 3c ab a5 07 3e
       -0.015457105 0.06942046 0.017502453 0.13246791
000180 a5 16 0c be 25 73 d1 3d 66 2f c2 3d c7 42 b4 bd
       -0.13680513 0.1022704 0.09481697 -0.08801799
000190 58 7d 70 3b f8 38 bf bd 06 60 9f ba b5 aa bb bd
       0.0036695804 -0.09337038 -0.0012159355 -0.09163419
0001a0 79 b5 05 be 97 12 90 3d 3d b4 c1 3d 3c 96 75 bd
       -0.13057508 0.07034796 0.09458206 -0.059957728
0001b0 48 53 b9 bd ca ef a3 3d 17 f7 ed bd 18 35 97 3d
       -0.09049088 0.080047205 -0.11619394 0.07383174
0001c0 b4 3e e3 3d 52 6a 70 3d bb a1 03 3e 74 3f 48 3d
       0.11095944 0.058695145 0.12854664 0.04888864
0001d0 5d ed d4 bc 17 f0 64 bd 22 0b 79 bc 74 51 a9 bd
       -0.02599209 -0.05589303 -0.015200408 -0.08267489
0001e0 b3 51 4e 3d 7c 73 37 3c f8 c4 6b bd b4 9c 36 3d
       0.050370883 0.011196967 -0.05756089 0.044583037
0001f0 fb 5e fc 3d 85 55 d5 bc 6e e4 07 3e c2 82 17 bd
       0.123228036 -0.026041755 0.13270733 -0.036989935
000200 f9 ce 8b 3c 86 20 f2 3d b6 4a 02 3e 7a c1 b5 3d
       0.017066466 0.118226096 0.12723812 0.08874793
000210 cb 0a 84 bc 31 9c 7d 3d 86 15 ae bd 50 de 12 3e
       -0.016118428 0.061916534 -0.08500199 0.14342618
000220 b4 5c 08 3d 09 33 b5 bb 96 37 b8 bd f8 9c 44 bd
       0.033291534 -0.0055297655 -0.08994977 -0.04800126
000230 ff 89 1b 3e 03 c0 d3 3b 36 e3 6b 3d 70 4a 4f 3d
       0.1518936 0.0064620986 0.057589732 0.0506081
000240 8b de ee bd cc fd f8 3c e9 80 5e 3d 01 dd 84 3d
       -0.116635405 0.030394457 0.054322157 0.06487466
000250 89 28 a9 3c 75 11 ee 3d 3f a5 8a 3c 57 0a b0 3d
       0.020649211 0.116244234 0.016924499 0.08595722
000260 b4 84 41 3d d2 b8 ac 3d 21 2f 4c bd 4d 06 07 be
       0.047245696 0.08433689 -0.049849633 -0.13185997
000270 95 58 aa 3d bd ee 71 3d 15 86 99 3d 8a 64 3d 3d
       0.08317677 0.05906557 0.07496277 0.04623846
000280 15 bf be 3d 41 a4 c3 3d d5 5d c4 3d 0f 85 b6 3d
       0.0931379 0.09552813 0.095882095 0.08912098
000290 b2 32 ae 3c 90 7a db 3d 32 6e 0e 3d 19 d1 59 ba
       0.021264408 0.10716736 0.03477306 -0.0008309051
0002a0 7b 1c 8f bd a1 15 97 3d 02 f7 01 3e ca 79 96 bd
       -0.06987854 0.07377172 0.12691882 -0.07347448
0002b0 dd 58 a9 3d 32 48 bc 3c 24 fb cc 39 17 29 c9 3d
       0.082689025 0.022983644 0.00039097026 0.098222904
0002c0 d6 c7 d0 3b 96 ef d9 bb 14 27 20 3d c9 e7 59 bd
       0.0063714786 -0.0066508753 0.039099768 -0.053199563
0002d0 01 59 80 bd 02 a4 a7 bb ce da 65 3d 43 51 a9 3c
       -0.06266976 -0.005115987 0.05611687 0.020668631
0002e0 25 2a f6 3d 71 4c 94 bd e0 bb 5b 3c fa 3b 96 3d
       0.12019757 -0.072411425 0.013411492 0.07335658
0002f0 f0 5c e6 bd 81 b5 c7 3c 46 8a 92 3d 54 3c 99 bd
       -0.11248195 0.02437854 0.0715528 -0.0748221
000300 8d 10 a9 3b 2b e6 ac bc cd e6 0e 3d c0 15 6a bd
       0.0051594437 -0.021105846 0.034888078 -0.05714965
000310 a0 4c 60 3d 3e 19 c8 bd 14 23 80 3c 1c 0a 31 3d
       0.054760575 -0.097704396 0.015641727 0.04322253
000320 6d 42 68 3d d5 61 d8 bd 36 3f c5 3d 0a df 1b 3c
       0.056703974 -0.10565535 0.09631197 0.009513626
000330 46 4d f6 3d 74 4e b3 bd db f9 b5 3d f3 2b cd bc
       0.120264575 -0.08755198 0.08885547 -0.02504537
000340 b5 01 bc 3d 12 8c cd bd f5 6a f0 bc 46 03 75 bc
       0.09180013 -0.10036482 -0.029347876 -0.014954394
000350 f7 f4 fd bd 2d 85 16 3d ab 32 dd 3d 9b 53 c5 bd
       -0.12400239 0.0367481 0.1080068 -0.09635087
000360 1b f7 9a bd e9 66 da 3d 5f 7f 54 bd 49 62 b0 bc
       -0.07566663 0.1066416 -0.051879283 -0.021531241
000370 91 9c c5 bd 4f 71 b2 3d 1b c9 c6 3d d4 cf 8c bd
       -0.09649003 0.08713018 0.097063266 -0.068755776
000380 c9 65 75 3b a8 34 e2 3b 42 8d df bd 58 38 74 bd
       0.0037444702 0.00690325 -0.10915615 -0.059624046
000390 43 ee c1 bd 97 d2 91 3d ca cd 05 be fb de af bc
       -0.09469273 0.07120245 -0.13066784 -0.02146863
0003a0 59 56 f1 3c 6c 39 0a be d6 20 7d bd 1e 0c de 3d
       0.02946012 -0.13498467 -0.061798893 0.10842155
0003b0 29 52 00 3d 96 3a d9 bd f3 e0 0f be 69 ed 96 bd
       0.031328354 -0.106068775 -0.14050655 -0.07369501
0003c0 77 9f 0e bc 72 32 0a ba eb 6c 83 3d 7c da ce 3d
       -0.008705012 -0.0005271799 0.06417259 0.10100266
0003d0 b2 bf e8 3c 2f 7b b6 3d bb 0d b9 bc c4 b1 e6 3c
       0.02841172 0.08910214 -0.022589555 0.028160937
0003e0 db 47 c3 3d e8 a8 f6 bc c1 2b 50 bc be 84 ea bd
       0.0953519 -0.030109838 -0.012705744 -0.114511
0003f0 10 24 04 3d f5 66 79 bd 2e b5 01 3e 82 46 bf bd
       0.032260954 -0.060889203 0.12666771 -0.0933962

mlp.0.bias f4 [150]
000000 f3 8d a6 3d 78 a7 9b 3d af 9e 8b bd 27 a1 07 be
       0.081325434 0.076003015 -0.06817376 -0.13245068
000010 12 02 55 3c 15 7e 8e bb 01 1a c7 3d 64 54 78 bd
       0.013000982 -0.0043485262 0.09721757 -0.060627356
000020 f3 27 ea bd 59 19 94 bd bd ed 37 bc a1 17 95 3d
       -0.11433401 -0.07231397 -0.011226115 0.072798975
000030 11 fa 67 bc 20 d7 b8 3c 82 e7 13 3d 19 90 09 3e
       -0.014158742 0.022563517 0.036109455 0.13433875
000040 c7 4f 2a bc ba 5f 26 be 5c cb 08 3b 88 21 d0 bd
       -0.010394997 -0.16247454 0.0020873165 -0.101626456
000050 af f2 ed bd 72 43 81 bb 0b c9 fe 3c da f8 03 bd
       -0.11618554 -0.0039448077 0.031101724 -0.032219745
000060 99 fa 98 3d 37 e2 1e be ab 5d 15 3d 93 d0 b9 3d
       0.07469673 -0.15515982 0.03646628 0.090729855
000070 b9 5e de bd 78 de 02 be b3 43 18 3b bb 90 df bd
       -0.10857911 -0.12780178 0.0023233711 -0.10916277
000080 72 9a e2 3d f6 17 f2 bc 21 b7 14 bd 86 2c e0 bc
       0.11064614 -0.029552441 -0.036307458 -0.02736498
000090 3c e5 bf bd cd 44 cb 3c e5 8e dc 3d 11 56 a8 bd
       -0.09369895 0.02481308 0.107694425 -0.08219541
0000a0 b4 08 08 3e d7 62 94 3d 97 f1 a7 3d 2b 4d 37 3d
       0.1328457 0.07245415 0.082003765 0.044751327
0000b0 15 50 9f 3d d6 75 50 bd c6 7e 61 3c e5 b5 00 bd
       0.07778946 -0.050893627 0.013763135 -0.03142347
0000c0 ee da c8 3d bc ab 35 3d 5f cb 0e 3e d6 00 42 bd
       0.098073825 0.04435323 0.13944767 -0.04736408
0000d0 5e 5b 94 3d be d8 9f bd b0 ee 94 3d ce 3c 5b 3d
       0.072439894 -0.07805012 0.072720885 0.053524785
0000e0 63 db d0 bd 8f fc 06 3d c5 ec d2 3c 73 98 1d bd
       -0.10198095 0.032955702 0.025747666 -0.038475465
0000f0 9b 4d 2c bd 5f 9b 9c bd c8 d0 87 3b a5 13 5f bd
       -0.042066198 -0.07646822 0.0041447617 -0.054462094
000100 0f 74 ff bd d1 11 db 3d 3f 27 52 3d ca db f2 3d
       -0.12473308 0.106967576 0.05130696 0.11858328
000110 00 85 e3 3a 28 fe f2 bd 35 5e c2 3c de 46 01 3e
       0.0017358363 -0.11864883 0.023726562 0.1262469
000120 80 4a ec 3d 54 f7 04 be c5 bf c4 bd 11 2b e5 bb
       0.11537647 -0.12984973 -0.0960689 -0.0069936593
000130 ba 91 0d 3c e7 42 89 bb 2c 05 8b 3c 3c 8d f3 3d
       0.008640701 -0.0041888836 0.01697024 0.11892173
000140 e7 57 f9 bc 17 81 b6 3d 79 ed 78 bd e8 22 0e 3d
       -0.030437423 0.08911341 -0.060773347 0.034701258
000150 fb ac 9b 3d 8c 32 b3 3d eb 41 23 3d 71 7f 57 bd
       0.07601353 0.087498754 0.039857786 -0.052611772
000160 6e c4 d9 3d 73 c4 fc 3d 7f 4f ce 3d 40 b6 44 bd
       0.10633169 0.12342157 0.100737564 -0.04802537
000170 dd c0 04 be e7 74 08 3e e2 c1 58 3d 9e c2 6c 3b
       -0.12964197 0.13325845 0.052919276 0.0036126743
000180 f8 dc d5 bc cd 89 ad 3d 39 b0 fd 3d 70 9b e7 3d
       -0.026106343 0.08473549 0.123871274 0.11308944
000190 86 08 e3 3d eb 5b da 3d 41 65 9f 3c 52 72 a0 3d
       0.1108561 0.10662063 0.019457461 0.07834305
0001a0 f5 ae 04 3e 69 ba 0c 3d d2 43 6f bd e4 38 cd bd
       0.12957366 0.034357462 -0.058414288 -0.10020617
0001b0 59 9c 50 bd 83 07 ef 3c d2 1f 04 3d 0a 40 87 bd
       -0.050930355 0.029178387 0.03225691 -0.06604011
0001c0 f4 42 10 3c 1c 0a f7 bc 98 6c 3a bd 25 9b 8d 3c
       0.008805025 -0.030156188 -0.04551372 0.017285893
0001d0 c0 e3 02 bb 02 4c 66 3c 6b 8c f4 3d 35 db 12 bd
       -0.0019972175 0.014056208 0.11940845 -0.035853583
0001e0 47 00 9a bd 06 37 08 be 5c 08 85 bd fb 29 cb bd
       -0.07519584 -0.1330224 -0.06495735 -0.099201165
0001f0 df a4 5f 3d 9f af cf bd b8 d6 dc bd 30 c4 a0 bc
       0.054600593 -0.10140919 -0.10783142 -0.0196248
000200 0a 4c 04 3e af a1 bb 3c 23 5d 6d bd fc ba 66 3d
       0.12919632 0.022904245 -0.05795015 0.056330666
000210 5e 38 28 3d c6 8f e9 3d 46 c5 eb 3d f0 4f 64 3d
       0.04106938 0.11404376 0.11512236 0.055740297
000220 25 fa 98 3c 8a 0a 7a bd 37 f1 28 3e f8 46 b5 3d
       0.018673966 -0.061045207 0.16498266 0.08851427
000230 dd fc a1 bd 36 81 53 3b 60 55 01 be 2c 1e b8 3d
       -0.07909558 0.003227306 -0.12630224 0.0899013
000240 97 b1 91 bd 27 e5 ad bb 3c f2 a4 3b 60 21 28 3e
       -0.07113951 -0.005306858 0.0050337594 0.16418982
000250 50 62 fa 3a 99 29 d2 3d
       0.0019102786 0.102618404

mlp.2.weight f4 [100, 150]
000000 a0 8f 17 bd 41 c4 a2 bd 9a be 92 3b 0d b6 9a bd
       -0.037002206 -0.07947589 0.004478288 -0.07554255
000010 b4 cc 05 bd c0 51 91 bc b5 23 b7 3c 33 78 b2 3b
       -0.032665923 -0.017739177 0.022355894 0.005446458
000020 9a 9e 98 3d 47 f8 4b bd 3b e7 3c 3c 0d b5 0c 3a
       0.07452126 -0.049797323 0.011529739 0.0005367555
000030 67 c1 fd bc a9 f4 24 bc da 96 39 3d 20 df 9f 3d
       -0.03097601 -0.010068097 0.04530988 0.078062296
000040 61 be 23 bd af 39 f2 3c 1e ee 79 bd fa 36 b3 bb
       -0.03997648 0.029568521 -0.061018102 -0.0054692
000050 ef 81 62 bd 81 11 78 3b 1d 73 29 bd e8 e2 52 bd
       -0.055299696 0.003785223 -0.041369546 -0.051485926
000060 f5 1b d4 3c 7c e5 35 3d 96 8b 8d bd 0f fb a5 bd
       0.025892237 0.044408306 -0.069113895 -0.08104526
000070 40 05 95 bd 2d e7 95 3d 16 7a 84 bd 07 6e e9 bc
       -0.07276392 0.07319484 -0.064685985 -0.028494848
000080 d9 ce 42 3c 2c dd b2 bc a4 7f 49 3d 4e 39 2a 3d
       0.011890137 -0.021833979 0.049193993 0.041558556
000090 03 e7 57 3d b8 4c a5 3d 0c 31 7b bd 24 69 72 bd
       0.052710544 0.080712736 -0.06132607 -0.0591823
0000a0 6f dd 71 bd 22 e2 a4 3d cd 92 a2 3d e4 c1 c2 3b
       -0.059049066 0.08050944 0.07938156 0.0059435237
0000b0 6e 14 44 3d a0 90 44 bd 79 dc 70 ba 34 2a 6b 3c
       0.047871046 -0.047989488 -0.00091881264 0.014353324
0000c0 96 e5 6f 3c 76 f4 af 3d c7 2f 00 bd 48 86 3d bc
       0.01464214 0.08591549 -0.031295564 -0.01156766
0000d0 fb af 9c 3d 29 2e 9b 3d 98 9d bf bc 81 ec 14 3d
       0.07650753 0.07577164 -0.023390576 0.03635836
0000e0 9e 22 24 3d 18 c4 8f bd d2 eb 72 3d c9 62 51 bc
       0.040072076 -0.07019824 0.059306927 -0.0127799
0000f0 6f 31 8c bd 90 0b c8 bc 8c b5 29 bd e0 af 81 bb
       -0.06845366 -0.024419576 -0.041432902 -0.0039577335
000100 1f a0 72 bc bf 60 8a bd 1b 95 0d 3d 3a 31 53 bd
       -0.014808684 -0.06756734 0.034566026 -0.051560618
000110 2e c3 ca bc 18 63 0b 3d a7 cb 77 3d 2a 54 23 3d
       -0.024751272 0.03403005 0.060496952 0.039875187
000120 2b 69 dc bc b5 6a 3e bd 28 dd 66 bd a7 ff 0b 3d
       -0.026905617 -0.046488483 -0.056363255 0.034179356
000130 f7 ac 1e 3d e0 6e fb bc 33 32 ba bc 63 ed f7 3c
       0.03873917 -0.030692518 -0.022729015 0.030264562
000140 bb 8e 24 3d e6 ea 64 3d 3f 31 a6 bd 43 94 87 bd
       0.04017518 0.05588808 -0.08114862 -0.066200756
000150 57 17 a5 ba ff 4f 6d 3d 20 13 d7 bb 50 bd 86 3b
       -0.0012595457 0.05793762 -0.006563559 0.0041119233
000160 08 40 9b 3a 53 67 41 3c b6 a4 35 bd c3 42 70 bd
       0.0011844644 0.01180442 -0.044346534 -0.05865742
000170 60 ee 2c 3d 58 8f 80 bd 7f 26 d8 3b 43 e6 42 3d
       0.04221952 -0.06277341 0.006596386 0.047582876
000180 7c 98 a5 bd dd 4d 69 3d d8 04 3e 3d 96 83 8c bd
       -0.08085725 0.05695902 0.046391338 -0.068610355
000190 e0 7c 62 3d 9d 24 99 bd d3 ee a3 3d e9 ff 46 bc
       0.05529487 -0.074776866 0.080045365 -0.012145975
0001a0 d3 30 55 3c a7 06 9d bd 44 48 d9 ba 85 cc 5a 3c
       0.013012129 -0.076672845 -0.0016577323 0.013354425
0001b0 41 9e 50 3c 56 29 05 3d 82 93 01 3c 69 7b 23 3c
       0.012733043 0.032510124 0.007908704 0.009978154
0001c0 02 ac 73 bd 8c 31 ca 3c 22 f6 42 3d 0f bd fb bb
       -0.05949021 0.024681829 0.04759801 -0.0076824497
0001d0 72 37 90 3d 63 5f f7 bc f2 cf 86 bd 1d 7e 85 3d
       0.07041825 -0.030196851 -0.06582631 0.06518195
0001e0 72 d7 98 3d 49 58 ed 3c 6d 39 9a 3d b4 6d f5 bb
       0.07462968 0.028972762 0.07530484 -0.0074898843
0001f0 61 e1 13 3c ed 7a 67 3d cf 33 54 3d 38 ce 88 bd
       0.0090259025 0.056513716 0.05180722 -0.06679958
000200 ab bd 8f 3d ce b3 d2 bc 41 51 91 3c 22 59 03 3d
       0.07018598 -0.025720503 0.01773894 0.032067426
000210 2f bc 65 bc 19 27 8d bd 3a 65 86 bd cb b0 a6 bc
       -0.014021917 -0.06892223 -0.06562276 -0.020347973
000220 bd b9 8e 3d c2 11 73 bd 97 59 2d 3d af f5 93 3d
       0.069690205 -0.059343107 0.042321768 0.07224595
000230 22 cb 4a bc 06 61 71 3d 5f 39 20 bd 05 22 92 3d
       -0.012377532 0.05893042 -0.039117213 0.07135395
000240 d3 d9 7d bd 3f 0f 3c 3d bf e3 84 bd 10 ee 53 bc
       -0.06197531 0.045912977 -0.064887516 -0.0129351765
000250 25 cd 7e bd de 95 c8 3c 11 96 18 bd b6 e1 9f 3a
       -0.06220736 0.024485525 -0.03725249 0.0012198004
000260 8f c0 2d bd 4a 21 9a 3d 9b 93 6e 3c 78 b7 fe 3c
       -0.042419966 0.07525881 0.014561559 0.031093344
000270 6f 5f c3 bc 86 03 54 3d 91 a9 f3 3c 92 a9 19 bd
       -0.023849217 0.051761173 0.029743942 -0.03751523
000280 14 64 c0 bb c8 2e 88 3d b4 c3 16 3d b8 49 7b 3d
       -0.0058713052 0.06649548 0.03680773 0.0613496
000290 e6 20 bc bc 35 d9 b7 bb 37 a7 9d 3d db b7 32 bd
       -0.022964906 -0.00561061 0.07697909 -0.04363237
0002a0 71 07 c0 bc f0 0f cb 3b e4 74 03 bc ae a4 51 bd
       -0.023441048 0.0061969683 -0.008023474 -0.05118244
0002b0 5b 4c 58 3b 7d b9 90 bd ce 88 d8 bc 90 bb e7 bc
       0.0033004496 -0.07066629 -0.026432421 -0.028287679
0002c0 4f c4 3a 3c 31 9a ec bc aa b9 87 bd b7 e8 3c bd
       0.011399343 -0.028882118 -0.066272095 -0.04612037
0002d0 41 09 87 bd be 14 88 bb 8d cd a9 bd 3b 0b 44 bd
       -0.06593562 -0.0041528633 -0.08291159 -0.047862273
0002e0 11 af 85 bd 5e cf 31 bd c0 17 7b bd 17 a1 18 3d
       -0.06527532 -0.04341065 -0.061301947 0.037263002
0002f0 f5 11 5d 3d df 58 6d 3d c3 7a d7 3c bf 60 46 3d
       0.053972203 0.057946082 0.026303655 0.048432108
000300 3a fa 45 3d 08 23 18 3c b0 74 34 3b f0 f3 8a bd
       0.048334338 0.009285696 0.0027535371 -0.06784809
000310 a8 d0 6e bc 89 d1 bf 3a b2 0c a0 3c cb ce 8b bd
       -0.014576115 0.001463459 0.019537304 -0.06826552
000320 78 4b e8 3c 03 e4 29 3c ba a3 82 3d ea 91 13 bd
       0.028356299 0.010369304 0.063788846 -0.036027826
000330 f2 7b 18 3d d4 7e 3f bb 9e a9 2b 3d b8 3d 16 3d
       0.03722758 -0.0029219883 0.041909806 0.036679953
000340 81 a8 9a 3d 81 6a 80 3d 90 fb 44 3d bc 0b e2 3c
       0.07551671 0.06270314 0.04809147 0.027593486
000350 fa 65 49 3d e9 08 92 3d 0a 9d 08 bd 96 cd 4e 3d
       0.049169518 0.07130606 -0.03335289 0.05048903
000360 31 4e 31 3d 62 99 0c bd 99 61 e9 3c e6 e2 2c bd
       0.04328746 -0.034325965 0.028488921 -0.042208575
000370 d6 b3 5a ba b6 62 70 bc b4 85 38 bd 5c a0 49 3d
       -0.00083428377 -0.014671972 -0.045049384 0.049225196
000380 c0 5d 81 bd 8e ed 45 bd 67 de 20 3d a6 b5 aa bd
       -0.063167095 -0.048322253 0.0392746 -0.08335428
000390 58 14 84 bd 0e 31 c3 bd 86 6d e1 bc df 74 35 3d
       -0.06449193 -0.09530841 -0.027518045 0.04430091
0003a0 90 6c 87 bd 6a e7 7a bd 3d ea e6 3c d1 f4 7b 3d
       -0.066125035 -0.06125585 0.028187865 0.061512772
0003b0 82 9f 84 3d 1b 81 cc bc 4f c0 6f bc 93 43 39 3d
       0.06475736 -0.024963906 -0.014633252 0.04523046
0003c0 94 ab 39 3d 1f 45 75 3d 5e 1c 92 bd 0d 8b 4f bd
       0.045329645 0.059880372 -0.07134317 -0.05066972
0003d0 86 16 2a bb 60 7e 96 bd a4 6c dc 3b 63 96 13 bd
       -0.0025953366 -0.07348323 0.006726818 -0.03603209
0003e0 81 86 65 3d aa 2d 08 bc b8 04 99 3c 5f 8c 73 3d
       0.056036476 -0.008311668 0.018679008 0.05946004
0003f0 af 42 80 3c 23 11 7a bd 07 60 d6 bc fd 6c 4f 3c
       0.015656797 -0.0610515 -0.026168836 0.012660262

mlp.2.bias f4 [100]
000000 b4 b1 fa bc a9 a3 82 3c f6 7f ce bc 99 72 8b bc
       -0.030602314 0.01594718 -0.0252075 -0.017022418
000010 2b ff d3 bb 1d e1 8b 3d da 1b 9b 3d 87 44 5f 3d
       -0.0064696274 0.06830046 0.07573672 0.054508712
000020 7d 4f 70 3d 1a aa 1b 3d ff 14 7c bc 36 55 a8 3c
       0.058669556 0.03800402 -0.015385865 0.020548444
000030 8c 60 cf bc da 85 0a 3c b4 02 33 3d ef 3f 19 3d
       -0.025314592 0.008454764 0.04370375 0.037414487
000040 99 8d 95 3d 44 fc 60 3d d6 35 86 bd 33 c2 3a bd
       0.07302398 0.05492808 -0.06553237 -0.04559536
000050 81 9c 75 bd 97 89 e3 bc c2 04 77 3c 8b 72 1e bd
       -0.059963707 -0.027775569 0.015076818 -0.038683455
000060 dc dc 9d bd 84 65 b7 37 7b 65 e2 bd 69 dc 5c bd
       -0.07708141 2.1862572e-05 -0.11054512 -0.053921137
000070 f9 f1 82 3d b2 92 b1 3c 17 42 d6 3d 78 2f e7 bc
       0.06393809 0.021676395 0.104618244 -0.028220877
000080 6a 4f 5c bd 8b 66 cc 3c ce 1f da bc d0 6f de ba
       -0.053786673 0.02495124 -0.026626494 -0.0016970579
000090 4e 27 69 3c f9 77 b5 bc 38 a1 33 bd 46 99 ae bd
       0.014230562 -0.022151934 -0.043854922 -0.08525328
0000a0 98 26 54 bd f0 8e fe 3c 33 b2 9c bd b1 da 87 3b
       -0.05179462 0.031074017 -0.07651176 0.004145943
0000b0 51 63 a3 bd d4 d5 55 3c 42 53 c2 3d 02 e1 e4 3c
       -0.079779275 0.013051469 0.094885364 0.027939323
0000c0 11 83 98 bd 68 3b 42 bd 02 81 7a 3d 2c ba 7c bd
       -0.07446874 -0.047419935 0.061158188 -0.061700985
0000d0 26 4f 1f 3d 66 0b a6 3d cd 4d d4 bc 79 68 81 3c
       0.03889384 0.08107643 -0.025916005 0.015796887
0000e0 3d 64 48 bc 1c 51 d5 bc 83 27 4f 3b bb b4 99 3d
       -0.01223093 -0.026039653 0.0031609244 0.07505175
0000f0 dd 73 b2 3d 93 fe 62 3c 1c 8c 46 bd 2e 1c 88 3d
       0.087135054 0.013854641 -0.048473462 0.06646
000100 9f cd 93 3d 72 18 98 3b a0 99 ad 3c e2 ea fc 3c
       0.072169535 0.004641586 0.021191418 0.03087372
000110 c6 ea 9b bb d1 9a c8 3c 60 af 1e 3d e9 31 ae 3c
       -0.004758212 0.024487885 0.03874147 0.021264033
000120 16 9f 19 3d 9c 39 1c 3d 83 f3 40 bd 3f bb 10 3d
       0.03750523 0.038140878 -0.04710723 0.03533482
000130 57 3b a6 3d fe 45 96 3d 35 d3 9e bc f1 ff 90 3d
       0.08116787 0.07337569 -0.01938782 0.07080067
000140 f3 d8 98 bd 44 63 85 3d a2 78 86 bc f3 6a 96 bd
       -0.07463255 0.06513074 -0.016414944 -0.07344618
000150 68 ea d1 bc e8 85 21 bd ee d6 9c bd c6 d9 6d bd
       -0.025624469 -0.039434344 -0.07658182 -0.058069013
000160 21 2e 9e bd 3a a8 06 bd 29 c0 3c bd 99 0e 5e ba
       -0.07723642 -0.032875277 -0.046081696 -0.0008470803
000170 a1 13 37 bd d8 a4 0b bc 50 7d 9c bb c6 a4 a1 3d
       -0.044696454 -0.0085231885 -0.0047756806 0.07892756
000180 9d 5b 92 bd 0d 17 88 3d ac 69 0f 3d 94 ee 5c 3c
       -0.0714638 0.066450216 0.035012886 0.013484616

mlp.4.weight f4 [100, 100]
000000 57 cf 7b 3d fa 30 44 bd d8 62 bc bd 26 ac 97 3d
       0.06147703 -0.04789827 -0.091985404 0.074058816
000010 70 7e 09 bd f4 0e 97 bd e5 bd 3b 3d 39 97 87 bc
       -0.033567846 -0.07375899 0.045835394 -0.0165516
000020 6a f8 4a 3d 43 f9 b1 3b 1a cd 8b bd 76 ad 20 3d
       0.049553312 0.0054313256 -0.068262294 0.039227925
000030 3a 67 52 3d de 84 61 bd e7 91 82 bc e3 6e df 3d
       0.051367976 -0.055058353 -0.015938712 0.10909822
000040 01 50 ef bd 33 8c b8 3b 58 fe d8 3c 1a 52 9c 3d
       -0.116851814 0.0056319474 0.026488468 0.07632847
000050 0a b6 19 3d 2b e5 95 3d 98 d9 f8 3c ca 0e 62 3d
       0.03752712 0.07319101 0.030377194 0.055189885
000060 e0 27 8b bd ab 8e 69 bd 1f af a3 3c 96 63 e0 3c
       -0.06794715 -0.057020824 0.019980965 0.027391236
000070 a5 7f 8a 3d e5 38 3e bd 17 76 0e 3e 93 49 02 3d
       0.067626275 -0.046440978 0.13912235 0.031808447
000080 e8 5a b4 bd a2 0c 15 bd 9e fa f6 3c 3b 80 45 3d
       -0.088064015 -0.036389 0.0301488 0.048217993
000090 9c e0 4f bd 34 04 63 3d e9 79 77 bd 20 52 aa 3d
       -0.050751314 0.05542393 -0.060418997 0.08316445
0000a0 90 87 1a bb 24 2e aa 3b 1d 66 80 3d a4 7a 5c bd
       -0.0023579337 0.0051934887 0.062694766 -0.053827897
0000b0 91 e2 eb bb 55 ef 0d 3c 77 37 21 3d 3c 5c 9b bc
       -0.0071986397 0.008663018 0.039359536 -0.01896488
0000c0 df 01 97 3d 85 eb 46 bd 83 c7 c3 bb 93 c8 6b bd
       0.07373404 -0.048564453 -0.0059747114 -0.05756433
0000d0 ab 24 92 bd dd 37 20 be 5e 66 90 bd 13 c6 c0 3d
       -0.071359 -0.1564631 -0.07050775 0.0941278
0000e0 36 a3 b9 bd 7f b5 8f 3d 77 38 11 bd a0 4d a8 b9
       -0.09064333 0.070170395 -0.03545424 -0.00032101292
0000f0 9f 25 61 3d 15 c6 df bd cd 28 b2 3c f8 ef 50 3d
       0.05496752 -0.10926453 0.021747971 0.051010102
000100 e5 02 a8 3d c6 19 14 bd 64 99 6d 3d 7d 3f ac 3d
       0.08203677 -0.036157392 0.058007613 0.08410547
000110 e0 a1 87 3c 28 01 68 bd b3 3c 25 3d 24 d0 40 bd
       0.01655668 -0.056641728 0.04034109 -0.0470735
000120 9f 1d 92 bd 1a 65 ab bd 99 fd 82 3d 77 ee 04 3d
       -0.07134556 -0.08368893 0.06396026 0.03245398
000130 2a a5 b3 3d 5f 49 cb 3c f8 09 89 bd a0 0e 8b bd
       0.08771737 0.02481526 -0.066913545 -0.06789899
000140 45 35 8b bd 16 84 d4 bd e0 5f ae bd 23 b0 c5 bd
       -0.0679727 -0.10376756 -0.085143805 -0.09652736
000150 f6 c9 39 3d 14 02 96 bc ee 39 c4 3d 92 da d5 bc
       0.04535862 -0.018311538 0.09581362 -0.026105199
000160 2b 24 98 3d a2 17 6b bd e9 d5 3b 3d c6 35 43 3d
       0.074287735 -0.057395585 0.045858297 0.047658704
000170 e1 99 ae 3d 58 20 87 bd 23 2c 11 3c 72 eb ef 3d
       0.08525444 -0.06597966 0.008860621 0.117148295
000180 5b 66 11 bd ac 06 ce 3d 2e 71 c0 bd 8d c6 d4 3c
       -0.035498004 0.10059866 -0.09396587 0.025973583
000190 da ba 24 3c b8 f4 47 bd 7a 31 c7 bd 05 b0 7b bd
       0.0100543145 -0.048817366 -0.09726234 -0.061447162
0001a0 94 b8 94 3d a8 45 b6 bd db 70 c7 3d 3d 0c 08 3d
       0.07261768 -0.089000046 0.09738322 0.033214796
0001b0 95 5c 91 bd 82 d7 61 bd dc 65 48 bc f3 06 10 3d
       -0.07097737 -0.055137165 -0.012231316 0.035162877
0001c0 fa 15 46 bd b5 53 90 3c 7e 2e ce 3c 76 5a 94 3d
       -0.048360802 0.01761804 0.025168654 0.072438166
0001d0 0d ce b2 3d 75 e3 df 3c 0f a9 a2 bc 4f 4a c7 3d
       0.08730707 0.02733014 -0.019856004 0.0973097
0001e0 b3 8c fb bc a0 77 df bc 55 a8 9a bd 87 fb 80 3c
       -0.030706739 -0.027278721 -0.07551638 0.015744938
0001f0 f0 1d 5c bd 4f cb 9c bd b1 04 44 bd ad 74 bd bd
       -0.053739488 -0.076559655 -0.047856037 -0.0925077
000200 da b8 20 bb 8a 74 36 3d ae 35 30 bd 14 e3 4e bd
       -0.0024524243 0.044544734 -0.043019943 -0.050509527
000210 7b 98 a6 3d f0 f1 23 3d c2 87 8a bc 33 7f 5c bd
       0.08134552 0.04002565 -0.016910437 -0.053832244
000220 6a 7c ba bd ba 9a 29 bc 3d 4b f0 3c 60 d3 81 bd
       -0.09105761 -0.010351831 0.029332751 -0.06339145
000230 6c 65 d9 bc 55 a9 35 3d 00 ee 83 3b 4a 9c cb bd
       -0.02653762 0.04435094 0.0040261745 -0.09941919
000240 18 d7 bd bd 87 b6 01 bb f6 5f bf bd fb dc 4d bd
       -0.092695415 -0.0019792633 -0.09344475 -0.05025957
000250 93 27 b7 3c fc 4c 3f bd 67 f5 66 3d 42 6f bf bd
       0.022357738 -0.046704277 0.056386378 -0.093473926
000260 02 8e 9a bd 0b 11 b8 bd d0 be b6 bd 92 05 96 bd
       -0.07546617 -0.08987626 -0.08923113 -0.07325281
000270 57 8f 82 3c e8 52 ba 3d 88 9d b2 3d 0b ec ba 3d
       0.01593749 0.09097844 0.08721453 0.09127053
000280 83 0b 90 3d 04 6d da 3c d1 b2 83 3d 18 34 15 bc
       0.07033446 0.02666331 0.06430591 -0.009106658
000290 27 b0 99 bd 77 e8 c1 3d 73 c3 22 3c cb 64 84 3d
       -0.075043015 0.09468167 0.009934294 0.06464537
0002a0 3a 7f b8 bc eb d3 bc 3d 97 a0 9c 3d c0 2b f0 3a
       -0.022521604 0.09220108 0.076478176 0.0018323585
0002b0 ba f2 74 3d 82 3c 95 bc 65 4f 48 3d 3d 4b a0 bd
       0.059801795 -0.018217329 0.04890384 -0.078268506
0002c0 18 e5 0d bc f7 de 85 3d b8 31 36 3d df 1a b8 3d
       -0.008660577 0.06536668 0.04448101 0.089895
0002d0 c9 c7 c1 3d 7a c7 ae bd b7 8d 3f bd 40 86 95 3c
       0.09461934 -0.08534141 -0.04676601 0.018252492
0002e0 99 e2 d4 3c d6 28 50 bd 29 9f f3 bc 83 4b a9 3d
       0.025986956 -0.050820194 -0.02973898 0.08266356
0002f0 13 7a 77 3d e5 95 ca 3d 04 d1 89 3d 0a 12 69 3b
       0.060419153 0.09891871 0.0672932 0.003556373
000300 57 8f c4 3d 50 5d cb bd 85 b2 af bd dd 39 ea b9
       0.095976524 -0.09929907 -0.08578972 -0.0004467507
000310 d3 62 be bd 49 75 a9 3d f5 dc db 3c 3c 0d 73 bd
       -0.09296193 0.082743235 0.026838759 -0.059338793
000320 14 b1 c3 bb 2c 56 a3 bc f2 62 9f bd 8a c5 a8 3d
       -0.005972037 -0.01993855 -0.07782544 0.082408026
000330 b9 63 5d 3d 82 83 de bd f0 25 17 bc 62 c4 71 bd
       0.05405018 -0.10864927 -0.009225354 -0.059025176
000340 18 37 c6 3d cd 8a 81 3d c7 b4 ff bd 13 62 96 3c
       0.09678477 0.06325302 -0.124856524 0.018357312
000350 00 f4 8c bb d2 e3 49 3d 96 b9 7d bd 47 87 69 bd
       -0.004301548 0.049289532 -0.061944567 -0.057013776
000360 75 a9 b0 3d d9 e2 b0 3b 1d 8f 33 3d 13 26 a5 bd
       0.08626071 0.005398136 0.043837655 -0.08063903
000370 ae 88 a6 bd 2b ed 8a bd d5 73 97 3d f8 7d 91 bd
       -0.08131538 -0.067835175 0.0739514 -0.07104105
000380 0d 8b 98 bc b1 12 8c bd e2 14 ef bc 8d f3 dc 3b
       -0.018620992 -0.068395026 -0.029184762 0.0067429007
000390 d1 50 a0 3d 7d 03 91 bd f1 32 ad bc ac 61 c7 bc
       0.078279145 -0.070807435 -0.021142455 -0.024338566
0003a0 a3 3c 7e 3d 3d 4e 15 bd de 0c 07 3d 41 45 98 3c
       0.062069546 -0.036451567 0.032971255 0.01858771
0003b0 36 9d 9b bc cf b5 3c bd ed 0e b5 bb 3c ff c0 3d
       -0.018995862 -0.046071824 -0.005525461 0.09423682
0003c0 15 c3 61 3d 07 97 d5 3c 13 56 95 3c 6a 54 6e bd
       0.055117685 0.026072992 0.01822952 -0.058185972
0003d0 91 81 37 3d af 29 be bd 8a a5 fa 3d f8 1a b5 3c
       0.0448013 -0.09285294 0.12238605 0.022107586
0003e0 00 08 b4 3c a6 a3 35 3c 82 2d 30 bd 73 22 2f 3d
       0.021976471 0.01108638 -0.04301215 0.042757463
0003f0 93 58 ef 3d be a6 3b 3e 9d c6 9d 3d 8d 0b 35 3c
       0.11686816 0.18325326 0.07703898 0.011050117

mlp.4.bias f4 [100]
000000 37 38 d4 3d e4 c9 86 bd 62 4b 98 3c c6 00 91 3d
       0.10362285 -0.06581476 0.018590633 0.07080226
000010 da e5 b6 3d 07 50 a3 3c df e8 b0 3c e5 96 f2 bc
       0.089305595 0.019935621 0.021595417 -0.029612968
000020 9b 60 bf bd 15 4a 03 3e 5d c9 f0 bc ea 54 9c bc
       -0.09344598 0.12821229 -0.029392892 -0.019083459
000030 d5 27 c9 bd 4c 15 09 3b 3e 88 be 3d 2d 24 06 bd
       -0.098220505 0.0020917235 0.0930333 -0.032749344
000040 fd 47 1c bd a5 72 d9 bd 02 a8 72 bd c7 9b 78 bd
       -0.03815459 -0.1061757 -0.059242256 -0.060695436
000050 c6 1d 8c bd 81 b2 71 bd 10 d9 4b 3d 97 a9 5d 3d
       -0.06841616 -0.059008125 0.049767554 0.05411681
000060 a3 06 ac 3c 9a 62 1c 3c 64 da 5e 3d 0b 85 3a 3d
       0.020999258 0.009544993 0.054407492 0.045537036
000070 07 69 84 bd 88 b9 d9 bc 00 47 33 bd bb c7 95 bc
       -0.06465345 -0.026577726 -0.043768883 -0.018283715
000080 3b e4 dd 3d a7 d3 0d bb b0 5c a5 3d 68 d9 58 3d
       0.10834547 -0.0021641047 0.08074319 0.05294171
000090 0e 0c bc bb ae 57 9a 3b d7 d2 97 bd 1d 2e 65 3c
       -0.0057387417 0.0047101593 -0.074132614 0.013988045
0000a0 c1 69 8d 3b 26 8f ab 3c 69 a6 bf bd 3c 35 83 3c
       0.0043155854 0.020942282 -0.09357912 0.016016595
0000b0 4c 7a 82 3d 26 bc 74 bc 4b 52 5c bd ba 41 96 bd
       0.063709825 -0.014937436 -0.05378942 -0.07336755
0000c0 18 e0 80 3d 2b 29 cc 3b ee 2c 77 3d e3 9b a4 3c
       0.062927425 0.0062304935 0.060345583 0.020093864
0000d0 cf 21 9d bd 96 50 a9 3d d7 b1 3f bd 27 1c b3 bd
       -0.07672464 0.08267324 -0.04680046 -0.08745604
0000e0 19 3a 5f 3d 8a 54 b8 bd 13 d0 4a bd 5a 97 c5 3d
       0.054498766 -0.090004995 -0.04951484 0.09648009
0000f0 48 cf 87 bd a1 b7 7b bd 18 07 ed bc 3a 62 0e 3d
       -0.06631333 -0.06145442 -0.028934047 0.034761645
000100 46 a6 61 bc 65 32 ca bd d4 87 f8 bc 3f c8 70 3d
       -0.013772553 -0.09872893 -0.030338205 0.05878472
000110 64 b0 dc 3d d1 5b b2 bc e9 51 07 3e 75 2c 49 3d
       0.10775831 -0.021772297 0.1321484 0.049114663
000120 71 70 0b bc 48 de 05 bc 15 e6 c8 bd bd f8 09 bd
       -0.008510695 -0.008170672 -0.0980951 -0.03368448
000130 f3 8a 3d bd cd 53 6d bd 02 65 06 3e be 2f 27 3c
       -0.04627509 -0.057941247 0.13124469 0.010204254
000140 bf 4f 43 3d e8 fa c2 3c 4b 0e 43 3d 4e 3c db bc
       0.047683474 0.023801282 0.047621053 -0.026762154
000150 0f 95 c7 3d af 74 a4 3d e2 b2 50 3d 41 d3 11 bb
       0.097452275 0.08030068 0.050951846 -0.0022251161
000160 11 40 16 bd 3f bc 10 3d 27 b0 0f 3d c0 bb 83 3d
       -0.036682192 0.035335775 0.0350801 0.06432295
000170 cb 6c 91 bd 6d d2 c9 bd 90 b7 59 bc a2 6a 8c bd
       -0.07100829 -0.09854589 -0.013288394 -0.06856276
000180 5a db 09 3d 33 7d 1b 3c 00 a1 9b 3d 6a f4 9b bb
       0.033656456 0.009490299 0.07599068 -0.004759361

mlp.6.weight f4 [1, 100]
000000 aa d5 6b 3e 14 5a 69 bd 7d 66 c4 be af fe 71 be
       0.23030725 -0.05697067 -0.38359442 -0.2363231
000010 18 f9 11 3e b2 b4 7d 3d c0 8d 8b be 8b 5e 93 bd
       0.14255178 0.061939903 -0.27256584 -0.07195767
000020 9b 9c 90 3d 92 ce bc 3e 02 08 24 3d 54 77 a8 bd
       0.0706112 0.3687635 0.0400467 -0.08225885
000030 ad c8 81 3d b4 b1 b8 bd 7d 2a 38 3e 4a 58 31 be
       0.06337104 -0.09018269 0.17984958 -0.17318836
000040 40 e0 6c bd 4f 16 9f bd 25 dd 8e bd 27 8b b9 3c
       -0.05783105 -0.07767927 -0.06975774 0.02264936
000050 cc 01 12 bd 20 b2 ad bd ee 4a 11 be 9b a2 af 3e
       -0.035646245 -0.0848124 -0.1418874 0.34303746
000060 e8 c7 06 bf c4 bd 2f bd e5 91 e1 3d 5c ca 8e bd
       -0.5264878 -0.042905584 0.11014155 -0.06972191
000070 f4 50 74 3c f0 c8 e4 bc e8 b5 9a 3d d2 1f f9 bd
       0.014911879 -0.027927846 0.07554227 -0.12164272
000080 6a e0 64 be b5 5c df bd 74 39 a7 3e d8 10 e6 bd
       -0.22351232 -0.10906354 0.3266102 -0.112336814
000090 38 6f f0 3d 9f e4 6c be 8f 43 78 bd c7 f8 74 3d
       0.11739963 -0.23134087 -0.060611304 0.059807565
0000a0 b1 80 a2 3c 83 89 a1 be f4 68 b1 3b 92 b8 57 3c
       0.019836755 -0.31550226 0.0054141227 0.013166564
0000b0 6b 54 76 3e 13 9b 1d 3d 9c 0e b8 3d 48 8d 98 3d
       0.2405564 0.03847797 0.089871615 0.07448822
0000c0 1d 57 6c 3e 85 d5 9a bd e8 a1 1b be d7 d4 03 be
       0.23080106 -0.07560257 -0.15198481 -0.1287416
0000d0 1b b8 42 bd 1b 4f 73 3e bb af 7d 3d 3d ea 7c bd
       -0.047538858 0.23760645 0.061935168 -0.061746825
0000e0 35 67 50 3d 7d 6d 3f 3d 33 41 60 bd fe a1 aa 3d
       0.050879676 0.046735276 -0.05474968 0.08331679
0000f0 60 9b 67 bd ab 70 b8 be ff 2c 69 bd 30 b8 eb bc
       -0.05654466 -0.3602346 -0.056927677 -0.02877435
000100 c0 ee 87 3d f3 c9 70 3c 1f 74 c2 bd 09 e0 58 3e
       0.06637335 0.014696586 -0.094948046 0.21179213
000110 7c 2c aa 3e f1 d8 9b bd 7f 74 94 3e 96 74 41 3c
       0.33237064 -0.07609738 0.2899513 0.011807581
000120 2e 3d d5 3a 93 b5 91 bc 1f 8c 40 3b aa a3 47 bd
       0.0016268843 -0.017786777 0.0029380394 -0.048740067
000130 6a af 8d 3d 0a 61 ab 3d a2 76 a9 3e fc 2b a1 3d
       0.06918223 0.08368118 0.33098322 0.078697175
000140 b5 a1 59 be a9 5a 2e be e9 9a 87 3e 31 0a 8d bb
       -0.21253093 -0.17026772 0.26485375 -0.0043041934
000150 51 99 54 3e 5f c3 ce 3e 28 d7 8f 3d dd d9 32 bd
       0.2076161 0.4038343 0.0702346 -0.043664802
000160 6a 1c c0 b9 5b c3 81 3c 36 15 b2 bd 5a e2 a6 3d
       -0.00036642264 0.015840223 -0.08695452 0.08148642
000170 18 a8 c1 bd 8b 96 28 3d c3 0a 8f bd 94 25 29 bd
       -0.094558895 0.041159194 -0.069844745 -0.041295603
000180 fc 0b c4 3c 31 e0 c9 bc 3b 74 eb 3e 2d 4d 23 bd
       0.023931496 -0.024643036 0.45987114 -0.039868522

lstm.weight_ih_l0 f4 [200, 13]
000000 ff 6d bb bd 47 6d 80 bd 39 54 fe 3d 60 9c 04 3e
       -0.091518395 -0.06270843 0.12418408 0.12950277
000010 2c 82 ba 3d 79 9d 0f 3e 36 d5 2c bc 51 af 39 3d
       0.091068596 0.14024915 -0.01054888 0.04533321
000020 aa d3 c8 3d c8 64 9e bd 60 a3 fa bd aa 86 d4 3d
       0.09805997 -0.07734066 -0.122381926 0.10377248
000030 3c 2a d9 bd 10 b8 29 3d f0 68 fd 3d e9 c1 54 3d
       -0.10603759 0.0414353 0.12373531 0.05194274
000040 8c 67 ca bc 47 bd 04 bd a4 7a 9c 3c ea 5b 1c be
       -0.024707578 -0.03240707 0.019101448 -0.15269437
000050 9d 39 0f 3d 4a df 0d 3e c3 eb 98 bd 3b 01 08 3e
       0.034967054 0.1385471 -0.07466843 0.1328172
000060 50 97 c7 3c f2 6c e7 3c 25 08 cd 3d 26 6d 4d bb
       0.024364144 0.028250191 0.10011319 -0.0031345575
000070 f9 da 0d be 2c 63 e8 bc 68 e3 c0 bd c4 b1 b0 3d
       -0.13853063 -0.028367601 -0.09418374 0.08627656
000080 85 2a 90 bd 57 f2 b1 bd f9 d0 3f be 00 d2 5a bd
       -0.0703936 -0.08688801 -0.1873206 -0.053422928
000090 2a 4b ff 3d d8 e3 3d 3d 00 8a 40 bc 8f ea e6 bd
       0.12465508 0.046359867 -0.011751652 -0.11275207
0000a0 16 8a 00 3e ef 6a 0b 3c ef b2 fe bd 0c f5 b2 bd
       0.12552676 0.008509382 -0.124364726 -0.08738145
0000b0 a1 76 e0 3d a6 cd b8 3d 39 b1 09 ba 35 c5 ac bd
       0.10960127 0.09023599 -0.00052525435 -0.08436052
0000c0 52 89 c9 bd 96 a4 8a bd fc fa 88 bd c5 41 13 3e
       -0.09840645 -0.067696735 -0.066884965 0.14380558
0000d0 f3 04 5c 3b 59 f1 ca bd f8 9b da 3c 1c 89 2e 3c
       0.0033572286 -0.09909315 0.0266857 0.010652807
0000e0 ff a8 c8 3d 40 24 c8 bd 9e b3 91 3c 33 54 8f 3d
       0.097978584 -0.09772539 0.017785843 0.069984816
0000f0 85 3d 8d 3c 24 2d ff bd 9a 25 bc 3d f4 c7 0c be
       0.017241249 -0.12459782 0.091868594 -0.13748151
000100 61 49 c0 bd b8 dc c2 bc 81 d2 94 3c 38 6d ba bd
       -0.09388996 -0.023786888 0.018166782 -0.09102863
000110 23 e0 e9 3c 5f 9c 4c bc 7e 48 ac bd 30 5c 13 3d
       0.02854926 -0.012488454 -0.08412264 0.03597659
000120 01 00 cd 3d 11 63 a1 bc 28 78 9f bd e6 52 61 bd
       0.10009766 -0.019700559 -0.0778659 -0.0550107
000130 a2 50 7c bd 62 f6 05 3e 56 d8 9f 3d 93 e5 99 3c
       -0.061600335 0.13082269 0.07804935 0.018786227
000140 9b 9f 76 3d b4 1d ee bd 86 db 0b bd 1f bb 05 3e
       0.060210805 -0.11626759 -0.0341449 0.13059662
000150 cd 39 b9 3d e5 0f 88 bd b4 22 0b 3e 15 ca ed bd
       0.09044228 -0.06643657 0.13587457 -0.1161081
000160 26 74 8b bd 12 8e ba 3d 54 04 d6 bd 0b 76 53 3d
       -0.06809263 0.09109129 -0.10450044 0.051626246
000170 ab a9 0d bd 62 2c 8b 3d 52 b5 09 3d 25 c4 27 bd
       -0.034585636 0.06795575 0.033620186 -0.040958542
000180 61 fd 0a be f7 c5 94 3d 7d 50 0c be 78 61 e3 3d
       -0.13573219 0.07264321 -0.13702579 0.11102575
000190 1b 1b 5d bd dc b4 2f bc 19 2c 05 be 80 b5 cc 3d
       -0.053980928 -0.010724273 -0.13005103 0.09995556
0001a0 e1 47 e5 3d 04 f5 ef bd 47 15 ca 3d fb 48 7a bd
       0.111953504 -0.11716655 0.098673396 -0.061104756
0001b0 ae 1c f2 bd af eb 01 bd 06 6d 82 be 3d bb 9b 3d
       -0.118218765 -0.031718906 -0.25473803 0.07604072
0001c0 ce dc 8e 3d e3 02 6d 3c 3b 86 9f 3d 06 6e 2a be
       0.06975709 0.01446602 0.07789274 -0.16643533
0001d0 de 87 12 3e ef 5f 34 3d fb 00 c7 bd 09 9e 02 be
       0.14309642 0.044036802 -0.09716984 -0.12755598
0001e0 db 6e 8d 3d 71 c7 e8 3d 69 0a 0d 3d 0b 5f 3c bb
       0.0690591 0.113661654 0.034433756 -0.0028743173
0001f0 56 c1 f3 bd 22 d5 32 bd e9 b5 ab bd 27 ac f7 3d
       -0.1190211 -0.04366029 -0.08384306 0.12093382
000200 4d 8d 3c bd 87 9b ac bd 7a 64 cf 3d ee 0a 55 bd
       -0.046033192 -0.08428102 0.10126586 -0.052012376
000210 9d b8 c6 bd a7 0d e6 bd 59 27 04 3d c3 4f fb bd
       -0.09703181 -0.11233073 0.032264087 -0.12271073
000220 c0 d7 34 3c 39 61 17 3e 09 2d 35 3d 64 a6 c6 bd
       0.011037767 0.14783181 0.044232402 -0.09699705
000230 d7 78 ea bd 15 fc df 3d c7 19 0c be d9 56 9a 3d
       -0.114488296 0.10936753 -0.13681708 0.07536096
000240 62 26 df 3d 79 ef 0a 3b 0b 62 e5 3d 5f 83 4f bc
       0.10895993 0.0021199866 0.11200341 -0.012665599
000250 19 5a 46 3d 73 b4 d7 3d 4f ab 21 bd 6a e3 b9 3b
       0.048425768 0.10532465 -0.039470013 0.005672862
000260 c9 24 52 3b 1c 58 ee 3d 7c c4 8f 3c 6d bd e6 bc
       0.0032065383 0.11637899 0.017549746 -0.028166497
000270 db 9e bf bd a4 80 de 3d be dc 01 be 30 62 10 bd
       -0.09356471 0.1086438 -0.12681863 -0.03524989
000280 7c a4 45 3d 85 f7 06 be 24 cd ec bd c0 57 d3 bd
       0.048252568 -0.13180359 -0.11562565 -0.10319471
000290 42 55 e0 3d 6b 7f 01 be 07 22 ab 3d ba 87 e1 bd
       0.10953762 -0.12646262 0.083560996 -0.11012216
0002a0 a2 90 bd bd 79 fb 58 3d ec 0a ee 3c ac 47 ba 3c
       -0.09256102 0.052974198 0.029057942 0.022739254
0002b0 bb a2 53 bd 67 8b 10 3e 63 c0 0c be ae 1c 08 bc
       -0.051668864 0.14115678 -0.13745265 -0.008307619
0002c0 0c a1 f6 bd 6a 5d 7c 3d f7 c4 8d 3d 88 de c1 3d
       -0.12042436 0.061612524 0.06922334 0.094662726
0002d0 cb 72 d1 3d 26 be e8 3d 12 14 69 3d 04 7b de 3d
       0.10226973 0.11364393 0.056903906 0.10863307
0002e0 75 6c 10 3d 00 ce 45 bd 5f 7b 06 3e e5 5a c4 bc
       0.035259683 -0.04829216 0.13133 -0.023969123
0002f0 83 fc a0 3b 00 72 08 bd 7c d0 cb 3c 76 5c b9 3d
       0.0049129142 -0.033311844 0.024879687 0.09050839
000300 6f 95 81 3c 4d ae 99 3b 2a cb 9d bd 4f fb 57 3b
       0.015818326 0.0046899677 -0.07704766 0.0032956188
000310 5f af 3d 3c 2c d8 f6 3d 31 0f f3 3c 01 27 d1 bd
       0.011577456 0.1205295 0.02967033 -0.102125175
000320 69 00 ad bd 0b c2 ed ba 57 e7 a5 3d c3 7f f9 3d
       -0.08447344 -0.0018139494 0.08100765 0.12182572
000330 f4 11 29 3e 01 69 dd 3d ad 78 b7 3d 52 a6 d1 3c
       0.16510755 0.108110435 0.08958564 0.025592003
000340 06 2f 80 bb 6a b1 0c 3d 3a 7f 4d 3d b1 10 9c 3d
       -0.0039118556 0.034348883 0.05017016 0.07620371
000350 2b a8 cf bd 8c b6 af bd 68 ee ee bc 4f d5 f8 3d
       -0.10139497 -0.0857974 -0.029166415 0.121500604
000360 6a 82 00 3e ce fe 8b bc 61 61 7d 3d 93 8e 84 bc
       0.12549749 -0.017089274 0.061860446 -0.016181266
000370 55 20 04 be 4d e7 7b 3e d4 52 1a 3e 58 7d f9 3d
       -0.12902959 0.24599953 0.15070659 0.121821105
000380 b2 82 b3 3d 87 23 45 3d 98 fb 8e 3c 37 6c 82 bd
       0.087651625 0.048129585 0.017453954 -0.063682966
000390 ed 7a 20 be 2c 23 07 bb b0 2d 4c be f0 1e e4 3d
       -0.15671892 -0.002062033 -0.19939303 0.11138713
0003a0 63 50 92 be 9a 1f 24 3d 2b 95 62 3c f8 bc 89 3d
       -0.28576955 0.0400692 0.01382951 0.06725496
0003b0 05 1c c3 bd f0 5e 0c be d5 e3 0f 3e b6 02 dd bd
       -0.09526829 -0.13708091 0.14051755 -0.10791533
0003c0 5b 63 c8 bc 9c 14 ac bd 99 fa 10 3e ac a7 9c bd
       -0.024461439 -0.084023684 0.14158095 -0.07649168
0003d0 42 26 9f bd 65 ba 9c bd b1 19 07 be 07 72 ce 3a
       -0.07770969 -0.076527394 -0.13193394 0.0015750536
0003e0 20 fc 08 3e 00 45 c0 bc c7 44 de bd 27 07 d0 3d
       0.13377428 -0.023470402 -0.10852962 0.10157614
0003f0 1a 97 11 bd 31 27 4d 3d 3a a7 b4 3d c7 d9 8d bd
       -0.035544492 0.050086204 0.088209584 -0.06926303

lstm.weight_hh_l0 f4 [200, 50]
000000 74 3c 8d bc f4 43 99 3d 46 82 b0 3d f6 2c 80 bb
       -0.01724074 0.07483664 0.08618598 -0.0039116098
000010 df 9a 95 bd 26 af f8 bd 56 3b 5d bd 6b 29 c4 bd
       -0.0730493 -0.12142782 -0.054011665 -0.09578212
000020 e5 26 be 3d 8f 81 fe bc 07 a4 83 bd 0a c8 0b 3e
       0.09284762 -0.031067638 -0.0642777 0.13650528
000030 b2 79 d8 3d f0 19 ca 3d 85 08 60 bd 2d 73 ab 3d
       0.105700865 0.098682284 -0.054695625 0.083715774
000040 0c d4 f8 bd e4 eb bd bd 07 03 a4 3d b9 ba 04 bd
       -0.1214982 -0.09273508 0.0800839 -0.032404635
000050 0e 74 9a bd 67 80 89 3d 59 4a e1 bc c3 2a e2 3d
       -0.07541667 0.06713944 -0.027501272 0.110433124
000060 98 1f 20 bc 27 f5 cf bd b3 e3 82 3c c9 66 d7 3d
       -0.009773158 -0.10154181 0.015977716 0.105176516
000070 b9 9f d1 3c e3 17 3b bc 13 63 98 3d 0b 2a 41 bd
       0.025588857 -0.011419269 0.07440772 -0.047159236
000080 86 46 98 bd ad 74 f6 bc c3 6a 07 3e 9e f2 b3 3d
       -0.07435326 -0.030084932 0.1322432 0.0878651
000090 2b 7a 0e 3e 89 69 fd 3c 8a a5 9f bd b4 fe 9b bc
       0.13913791 0.030934112 -0.07795246 -0.01904235
0000a0 75 0e b0 3d e4 16 8e bd 6d e5 9e bc 26 a9 26 3d
       0.085965075 -0.0693796 -0.019396508 0.040688656
0000b0 b6 a0 a0 bc 58 fb 09 3e df 88 35 3d 62 c7 b5 3d
       -0.019607883 0.13474786 0.044319984 0.0887592
0000c0 17 87 04 3e d4 53 95 bd f1 e8 d6 3b 3f c4 fc 3d
       0.12942158 -0.072913796 0.0065585305 0.123421185
0000d0 3b b0 86 3d 66 5e 1f 3b 08 1f 05 be d2 1b f5 bd
       0.06576582 0.002431774 -0.13000119 -0.11968197
0000e0 3e 3a fd bd aa 74 e7 3d a5 68 65 bd 43 e0 21 3d
       -0.123646244 0.11301549 -0.056008 0.039520513
0000f0 c9 f1 95 3d 89 1b 12 bd 38 3e 03 3d c4 ec 50 bd
       0.073215075 -0.03567079 0.03204176 -0.051007047
000100 97 08 ac bd fa ea 06 3e 38 16 30 3c b5 18 01 3e
       -0.08400076 0.13175574 0.010747485 0.12607081
000110 31 89 14 3d 74 a4 a3 3d c1 1d 0c 3e fb 12 dc bc
       0.03626365 0.07990351 0.13683225 -0.02686452
000120 f6 1e 3e 3d 63 6f 8e 3d 25 d4 01 bd 6e a7 d6 bd
       0.046416245 0.06954839 -0.031696457 -0.104811534
000130 ea 24 ac bb 1a ee 60 3d fb cd 08 be 83 b5 82 3d
       -0.005253424 0.05491457 -0.13359825 0.06382277
000140 6b 11 05 3e 36 0c 83 3d ed a2 08 3c 3a 10 09 3e
       0.12994926 0.063988134 0.008339626 0.13385096
000150 4d 77 88 3c af ad 61 3d 20 e3 95 bd 65 27 96 3d
       0.01665845 0.05509728 -0.07318711 0.07331733
000160 87 e2 bc bd b2 95 23 3d 42 d7 b7 3c 1d 78 c0 3d
       -0.09222894 0.039937682 0.02244151 0.0939791
000170 54 ec 78 bd d5 99 d2 bd 4f 7c df 3d f4 3f 51 3d
       -0.060772255 -0.102832474 0.10912382 0.05108638
000180 8c 54 b5 bd 72 01 7b 3c 04 cf 41 bc d4 1e 09 3e
       -0.08854017 0.015320169 -0.0118291415 0.13390666
000190 35 1f 1e bd 5f 3a 9d 3d 97 c8 00 3e bd 73 87 bc
       -0.03860398 0.07677149 0.12576519 -0.01653468
0001a0 80 2a a8 3c 38 0c 82 bc ad 69 70 bd 5c 39 da bc
       0.020528078 -0.015874967 -0.05869453 -0.02663868
0001b0 cd 92 fe 3d f0 e7 00 3d 3b d7 ff bc 77 84 29 3c
       0.12430344 0.031471193 -0.03123056 0.0103465235
0001c0 52 f6 17 be 54 fc bf bd 8f 78 45 bd c7 a0 c0 3d
       -0.14840057 -0.093743 -0.048210677 0.09405666
0001d0 e5 be ec bd b8 3e e6 3c 54 70 06 3e 2c 57 bd 3d
       -0.11559848 0.028106079 0.13128787 0.09245142
0001e0 6f 7d 6c 3c cb 4b 8e 3c e9 7e c9 3d 83 97 b9 3d
       0.014434203 0.017370125 0.09838659 0.09062102
0001f0 96 80 ef bd ed 2c c2 bd 35 ac d7 bd d0 8d 16 3e
       -0.11694448 -0.09481225 -0.10530893 0.14702535
000200 13 ac 9e 3d df c6 50 3d 97 19 53 3c 5b 3f 10 be
       0.07747664 0.05097091 0.012884519 -0.14086668
000210 bb 7b 0b be 3a 47 a2 3d 63 17 ab bc 6e 0e a6 3d
       -0.13621418 0.07923742 -0.020885175 0.08108221
000220 49 7c c2 bd 1d 18 cd bd f8 cd 85 bd c4 c7 f9 bd
       -0.09496362 -0.10014365 -0.06533426 -0.121963054
000230 8d 2d f2 bd 37 1b 5f bb 3b 2d 09 3e 6c 8b 16 bc
       -0.11825094 -0.003404332 0.1339616 -0.009188514
000240 8b 3f 39 3c b8 f0 6c bd f1 39 d2 3d 9c 5f c0 3d
       0.011306654 -0.057846755 0.10264958 0.09393236
000250 8b d3 a0 bd 90 84 02 3c 04 fc e4 bd 7d 45 91 bc
       -0.078528486 0.007966176 -0.11180881 -0.01773333
000260 4b 21 be bd bf 54 b4 3d c2 01 eb 3d e4 bf cf bd
       -0.09283694 0.088052265 0.11474945 -0.10144022
000270 d0 b7 c0 3d 9b ec fb 3d 17 dd 02 be ea d2 95 bd
       0.094100595 0.12300988 -0.12779652 -0.07315619
000280 62 66 0f 3e 4d 73 e3 bc 63 ab 46 3d 09 f2 6e bd
       0.140039 -0.02776494 0.04850329 -0.05833629
000290 df bf 6b 3b 5c 5f 0e 3d 13 d8 6e 3d 45 01 c1 3d
       0.0035972518 0.03475891 0.058311533 0.0942407
0002a0 44 00 cb bd ae 1a 1a bc e0 ac 06 be 00 e6 be bd
       -0.0991216 -0.009405775 -0.13151884 -0.09321213
0002b0 2e 5d 80 bb 03 d2 83 bd f7 28 af 3d 1e ac ce 3d
       -0.003917358 -0.06436541 0.08552735 0.100914225
0002c0 ba e3 0f be b3 20 02 3e 4a 58 1e 3d 60 33 6c bd
       -0.14051715 0.12707786 0.038658418 -0.057666183
0002d0 37 16 de bd ac cc 3b bc ff a2 98 3c fd 23 2d bd
       -0.10844081 -0.011462372 0.01863241 -0.04227065
0002e0 f2 cc a5 bd 8b 64 a3 3d 4e 4e b1 bd 12 cf 90 3d
       -0.08095731 0.079781614 -0.086575136 0.070707455
0002f0 0b 5a 61 bd b9 2a 7f bd 2e ff da bd c9 ec c4 bd
       -0.055017512 -0.062296603 -0.10693203 -0.09615476
000300 43 19 a3 bc 3f ca 9d bd 7e 53 74 3d f4 c6 88 bd
       -0.019909507 -0.07704591 0.059649937 -0.06678572
000310 4f 91 95 bd 1f f5 d9 bb 5e ac b3 3d 08 f3 b1 3d
       -0.07303106 -0.006651535 0.08773111 0.08688933
000320 95 c9 b0 3b c6 3d da 3c 12 af ba 3d 66 12 a3 bd
       0.005395124 0.026640784 0.09115423 -0.079624936
000330 07 a5 57 3c 9f ee f8 bc 90 20 ec bd 59 a7 b4 bd
       0.013161904 -0.03038722 -0.11529648 -0.088209815
000340 be 7c ae 3d 1d 2a 7f 3b 04 c9 92 3d fa 23 20 3d
       0.085198864 0.0038935014 0.07167247 0.03909681
000350 5e 0f e7 3d 35 c0 0a be 56 50 93 3d 9e 61 d5 bd
       0.11282228 -0.13549884 0.07193057 -0.104190096
000360 04 eb c8 3d e7 27 95 bd 80 e9 84 3c 27 1e b7 bd
       0.09810451 -0.072830014 0.016224623 -0.08941298
000370 7f 03 e7 3c a1 c4 bd bd 26 07 92 3d de 62 6e 3c
       0.02819991 -0.092660196 0.0713027 0.014549939
000380 da c8 01 be ef 25 1c 3d 68 dc cd bd d8 eb 70 3d
       -0.12674275 0.038122114 -0.10051805 0.058818668
000390 8a e9 d3 3c 85 d9 03 3e 80 69 8d 3d 4a c7 96 bd
       0.025868196 0.12875946 0.06904888 -0.0736223
0003a0 c0 cf da 3c 0a 18 6f bd 4a 0e 0c be 9d 1b cc 3d
       0.026710391 -0.058372535 -0.13677326 0.09966204
0003b0 f6 7a 0c be 55 2d 0c 3e 3f 16 0d be 12 3e c7 3d
       -0.13718781 0.13689168 -0.13778017 0.09728636
0003c0 9c 49 6f 3d f1 27 5a bd 5f 83 b1 3d f7 c6 12 3d
       0.05841981 -0.053260747 0.08667635 0.03583428
0003d0 d2 ec a0 3b 41 53 54 3d b8 48 59 bd 17 de ae 3d
       0.0049110437 0.05183721 -0.053047866 0.08538454
0003e0 33 bb de bc 28 86 85 bd 0a fa e1 3d 26 a9 f5 bd
       -0.027188873 -0.06519729 0.11034019 -0.11995153
0003f0 57 a1 ce bc 91 76 fa bd 4b 0c bd bd b5 e4 38 bd
       -0.025223417 -0.12229646 -0.0923086 -0.045139987
